…
I1217 16:37:45.058287 27413 net.cpp:322] The NetState phase (0) differed from the phase (1) specified by a rule in layer accuracy
I1217 16:37:45.058416 27413 net.cpp:58] Initializing net from parameters: 
name: "CIFAR10_full"
state {
  phase: TRAIN
  level: 0
  stage: ""
}
layer {
  name: "cifar"
  type: "Data"
  top: "data"
  top: "label"
  include {
    phase: TRAIN
  }
  transform_param {
    mean_file: "examples/cifar10/mean.binaryproto"
  }
  data_param {
    source: "examples/cifar10/cifar10_train_lmdb"
    batch_size: 100
    backend: LMDB
  }
}
layer {
  name: "conv1"
  type: "Convolution"
  bottom: "data"
  top: "conv1"
  param {
    lr_mult: 1
  }
  param {
    lr_mult: 2
  }
  convolution_param {
    num_output: 96
    pad: 2
    kernel_size: 5
    stride: 1
    weight_filler {
      type: "gaussian"
      std: 0.0001
    }
    bias_filler {
      type: "constant"
    }
  }
}
layer {
  name: "drop1"
  type: "Dropout"
  bottom: "conv1"
  top: "conv1"
  dropout_param {
    dropout_ratio: 0.25
  }
}
layer {
  name: "pool1"
  type: "Pooling"
  bottom: "conv1"
  top: "pool1"
  pooling_param {
    pool: MAX
    kernel_size: 3
    stride: 2
  }
}
layer {
  name: "drop1_a"
  type: "Dropout"
  bottom: "pool1"
  top: "pool1"
  dropout_param {
    dropout_ratio: 0.25
  }
}
layer {
  name: "relu1"
  type: "ReLU"
  bottom: "pool1"
  top: "pool1"
}
layer {
  name: "conv2"
  type: "Convolution"
  bottom: "pool1"
  top: "conv2"
  param {
    lr_mult: 1
  }
  param {
    lr_mult: 2
  }
  convolution_param {
    num_output: 128
    pad: 2
    kernel_size: 5
    stride: 1
    weight_filler {
      type: "gaussian"
      std: 0.01
    }
    bias_filler {
      type: "constant"
    }
  }
}
layer {
  name: "relu2"
  type: "ReLU"
  bottom: "conv2"
  top: "conv2"
}
layer {
  name: "drop2"
  type: "Dropout"
  bottom: "conv2"
  top: "conv2"
  dropout_param {
    dropout_ratio: 0.25
  }
}
layer {
  name: "pool2"
  type: "Pooling"
  bottom: "conv2"
  top: "pool2"
  pooling_param {
    pool: AVE
    kernel_size: 3
    stride: 2
  }
}
layer {
  name: "drop2_a"
  type: "Dropout"
  bottom: "pool2"
  top: "pool2"
  dropout_param {
    dropout_ratio: 0.25
  }
}
layer {
  name: "conv3"
  type: "Convolution"
  bottom: "pool2"
  top: "conv3"
  convolution_param {
    num_output: 256
    pad: 2
    kernel_size: 5
    stride: 1
    weight_filler {
      type: "gaussian"
      std: 0.01
    }
    bias_filler {
      type: "constant"
    }
  }
}
layer {
  name: "relu3"
  type: "ReLU"
  bottom: "conv3"
  top: "conv3"
}
layer {
  name: "drop3"
  type: "Dropout"
  bottom: "conv3"
  top: "conv3"
  dropout_param {
    dropout_ratio: 0.25
  }
}
layer {
  name: "pool3"
  type: "Pooling"
  bottom: "conv3"
  top: "pool3"
  pooling_param {
    pool: AVE
    kernel_size: 3
    stride: 2
  }
}
layer {
  name: "drop3_a"
  type: "Dropout"
  bottom: "pool3"
  top: "pool3"
  dropout_param {
    dropout_ratio: 0.5
  }
}
layer {
  name: "ip1"
  type: "InnerProduct"
  bottom: "pool3"
  top: "ip1"
  param {
    lr_mult: 1
    decay_mult: 250
  }
  param {
    lr_mult: 2
    decay_mult: 0
  }
  inner_product_param {
    num_output: 2048
    weight_filler {
      type: "gaussian"
      std: 0.01
    }
    bias_filler {
      type: "constant"
    }
  }
}
layer {
  name: "drop_ip1"
  type: "Dropout"
  bottom: "ip1"
  top: "ip1"
  dropout_param {
    dropout_ratio: 0.5
  }
}
layer {
  name: "ip2"
  type: "InnerProduct"
  bottom: "ip1"
  top: "ip2"
  param {
    lr_mult: 1
    decay_mult: 250
  }
  param {
    lr_mult: 2
    decay_mult: 0
  }
  inner_product_param {
    num_output: 2048
    weight_filler {
      type: "gaussian"
      std: 0.01
    }
    bias_filler {
      type: "constant"
    }
  }
}
layer {
  name: "drop_ip2"
  type: "Dropout"
  bottom: "ip2"
  top: "ip2"
  dropout_param {
    dropout_ratio: 0.5
  }
}
layer {
  name: "ip3"
  type: "InnerProduct"
  bottom: "ip2"
  top: "ip3"
  param {
    lr_mult: 1
    decay_mult: 250
  }
  param {
    lr_mult: 2
    decay_mult: 0
  }
  inner_product_param {
    num_output: 10
    weight_filler {
      type: "gaussian"
      std: 0.01
    }
    bias_filler {
      type: "constant"
    }
  }
}
layer {
  name: "loss"
  type: "SoftmaxWithLoss"
  bottom: "ip3"
  bottom: "label"
  top: "loss"
}
I1217 16:37:45.058542 27413 layer_factory.hpp:77] Creating layer cifar
I1217 16:37:45.059113 27413 net.cpp:100] Creating Layer cifar
I1217 16:37:45.059128 27413 net.cpp:408] cifar -> data
I1217 16:37:45.059208 27413 net.cpp:408] cifar -> label
I1217 16:37:45.059229 27413 data_transformer.cpp:25] Loading mean file from: examples/cifar10/mean.binaryproto
I1217 16:37:45.060283 27432 db_lmdb.cpp:35] Opened lmdb examples/cifar10/cifar10_train_lmdb
I1217 16:37:45.077927 27413 data_layer.cpp:41] output data size: 100,3,32,32
I1217 16:37:45.080485 27413 net.cpp:150] Setting up cifar
I1217 16:37:45.080529 27413 net.cpp:157] Top shape: 100 3 32 32 (307200)
I1217 16:37:45.080536 27413 net.cpp:157] Top shape: 100 (100)
I1217 16:37:45.080540 27413 net.cpp:165] Memory required for data: 1229200
I1217 16:37:45.080550 27413 layer_factory.hpp:77] Creating layer conv1
I1217 16:37:45.080574 27413 net.cpp:100] Creating Layer conv1
I1217 16:37:45.080580 27413 net.cpp:434] conv1 <- data
I1217 16:37:45.080595 27413 net.cpp:408] conv1 -> conv1
I1217 16:37:45.241600 27413 net.cpp:150] Setting up conv1
I1217 16:37:45.241626 27413 net.cpp:157] Top shape: 100 96 32 32 (9830400)
I1217 16:37:45.241629 27413 net.cpp:165] Memory required for data: 40550800
I1217 16:37:45.241655 27413 layer_factory.hpp:77] Creating layer drop1
I1217 16:37:45.241675 27413 net.cpp:100] Creating Layer drop1
I1217 16:37:45.241683 27413 net.cpp:434] drop1 <- conv1
I1217 16:37:45.241689 27413 net.cpp:395] drop1 -> conv1 (in-place)
I1217 16:37:45.241719 27413 net.cpp:150] Setting up drop1
I1217 16:37:45.241726 27413 net.cpp:157] Top shape: 100 96 32 32 (9830400)
I1217 16:37:45.241729 27413 net.cpp:165] Memory required for data: 79872400
I1217 16:37:45.241734 27413 layer_factory.hpp:77] Creating layer pool1
I1217 16:37:45.241741 27413 net.cpp:100] Creating Layer pool1
I1217 16:37:45.241749 27413 net.cpp:434] pool1 <- conv1
I1217 16:37:45.241753 27413 net.cpp:408] pool1 -> pool1
I1217 16:37:45.241801 27413 net.cpp:150] Setting up pool1
I1217 16:37:45.241808 27413 net.cpp:157] Top shape: 100 96 16 16 (2457600)
I1217 16:37:45.241811 27413 net.cpp:165] Memory required for data: 89702800
I1217 16:37:45.241814 27413 layer_factory.hpp:77] Creating layer drop1_a
I1217 16:37:45.241821 27413 net.cpp:100] Creating Layer drop1_a
I1217 16:37:45.241823 27413 net.cpp:434] drop1_a <- pool1
I1217 16:37:45.241828 27413 net.cpp:395] drop1_a -> pool1 (in-place)
I1217 16:37:45.241844 27413 net.cpp:150] Setting up drop1_a
I1217 16:37:45.241852 27413 net.cpp:157] Top shape: 100 96 16 16 (2457600)
I1217 16:37:45.241854 27413 net.cpp:165] Memory required for data: 99533200
I1217 16:37:45.241858 27413 layer_factory.hpp:77] Creating layer relu1
I1217 16:37:45.241863 27413 net.cpp:100] Creating Layer relu1
I1217 16:37:45.241868 27413 net.cpp:434] relu1 <- pool1
I1217 16:37:45.241871 27413 net.cpp:395] relu1 -> pool1 (in-place)
I1217 16:37:45.242138 27413 net.cpp:150] Setting up relu1
I1217 16:37:45.242149 27413 net.cpp:157] Top shape: 100 96 16 16 (2457600)
I1217 16:37:45.242153 27413 net.cpp:165] Memory required for data: 109363600
I1217 16:37:45.242158 27413 layer_factory.hpp:77] Creating layer conv2
I1217 16:37:45.242203 27413 net.cpp:100] Creating Layer conv2
I1217 16:37:45.242208 27413 net.cpp:434] conv2 <- pool1
I1217 16:37:45.242213 27413 net.cpp:408] conv2 -> conv2
I1217 16:37:45.251745 27413 net.cpp:150] Setting up conv2
I1217 16:37:45.251776 27413 net.cpp:157] Top shape: 100 128 16 16 (3276800)
I1217 16:37:45.251780 27413 net.cpp:165] Memory required for data: 122470800
I1217 16:37:45.251798 27413 layer_factory.hpp:77] Creating layer relu2
I1217 16:37:45.251814 27413 net.cpp:100] Creating Layer relu2
I1217 16:37:45.251834 27413 net.cpp:434] relu2 <- conv2
I1217 16:37:45.251839 27413 net.cpp:395] relu2 -> conv2 (in-place)
I1217 16:37:45.251981 27413 net.cpp:150] Setting up relu2
I1217 16:37:45.251991 27413 net.cpp:157] Top shape: 100 128 16 16 (3276800)
I1217 16:37:45.251994 27413 net.cpp:165] Memory required for data: 135578000
I1217 16:37:45.251998 27413 layer_factory.hpp:77] Creating layer drop2
I1217 16:37:45.252014 27413 net.cpp:100] Creating Layer drop2
I1217 16:37:45.252017 27413 net.cpp:434] drop2 <- conv2
I1217 16:37:45.252022 27413 net.cpp:395] drop2 -> conv2 (in-place)
I1217 16:37:45.252048 27413 net.cpp:150] Setting up drop2
I1217 16:37:45.252055 27413 net.cpp:157] Top shape: 100 128 16 16 (3276800)
I1217 16:37:45.252059 27413 net.cpp:165] Memory required for data: 148685200
I1217 16:37:45.252063 27413 layer_factory.hpp:77] Creating layer pool2
I1217 16:37:45.252068 27413 net.cpp:100] Creating Layer pool2
I1217 16:37:45.252073 27413 net.cpp:434] pool2 <- conv2
I1217 16:37:45.252076 27413 net.cpp:408] pool2 -> pool2
I1217 16:37:45.252364 27413 net.cpp:150] Setting up pool2
I1217 16:37:45.252393 27413 net.cpp:157] Top shape: 100 128 8 8 (819200)
I1217 16:37:45.252416 27413 net.cpp:165] Memory required for data: 151962000
I1217 16:37:45.252420 27413 layer_factory.hpp:77] Creating layer drop2_a
I1217 16:37:45.252426 27413 net.cpp:100] Creating Layer drop2_a
I1217 16:37:45.252430 27413 net.cpp:434] drop2_a <- pool2
I1217 16:37:45.252435 27413 net.cpp:395] drop2_a -> pool2 (in-place)
I1217 16:37:45.252461 27413 net.cpp:150] Setting up drop2_a
I1217 16:37:45.252468 27413 net.cpp:157] Top shape: 100 128 8 8 (819200)
I1217 16:37:45.252471 27413 net.cpp:165] Memory required for data: 155238800
I1217 16:37:45.252475 27413 layer_factory.hpp:77] Creating layer conv3
I1217 16:37:45.252491 27413 net.cpp:100] Creating Layer conv3
I1217 16:37:45.252496 27413 net.cpp:434] conv3 <- pool2
I1217 16:37:45.252502 27413 net.cpp:408] conv3 -> conv3
I1217 16:37:45.274116 27413 net.cpp:150] Setting up conv3
I1217 16:37:45.274148 27413 net.cpp:157] Top shape: 100 256 8 8 (1638400)
I1217 16:37:45.274152 27413 net.cpp:165] Memory required for data: 161792400
I1217 16:37:45.274168 27413 layer_factory.hpp:77] Creating layer relu3
I1217 16:37:45.274175 27413 net.cpp:100] Creating Layer relu3
I1217 16:37:45.274186 27413 net.cpp:434] relu3 <- conv3
I1217 16:37:45.274191 27413 net.cpp:395] relu3 -> conv3 (in-place)
I1217 16:37:45.274448 27413 net.cpp:150] Setting up relu3
I1217 16:37:45.274459 27413 net.cpp:157] Top shape: 100 256 8 8 (1638400)
I1217 16:37:45.274463 27413 net.cpp:165] Memory required for data: 168346000
I1217 16:37:45.274467 27413 layer_factory.hpp:77] Creating layer drop3
I1217 16:37:45.274473 27413 net.cpp:100] Creating Layer drop3
I1217 16:37:45.274477 27413 net.cpp:434] drop3 <- conv3
I1217 16:37:45.274482 27413 net.cpp:395] drop3 -> conv3 (in-place)
I1217 16:37:45.274507 27413 net.cpp:150] Setting up drop3
I1217 16:37:45.274513 27413 net.cpp:157] Top shape: 100 256 8 8 (1638400)
I1217 16:37:45.274516 27413 net.cpp:165] Memory required for data: 174899600
I1217 16:37:45.274520 27413 layer_factory.hpp:77] Creating layer pool3
I1217 16:37:45.274525 27413 net.cpp:100] Creating Layer pool3
I1217 16:37:45.274529 27413 net.cpp:434] pool3 <- conv3
I1217 16:37:45.274533 27413 net.cpp:408] pool3 -> pool3
I1217 16:37:45.274675 27413 net.cpp:150] Setting up pool3
I1217 16:37:45.274684 27413 net.cpp:157] Top shape: 100 256 4 4 (409600)
I1217 16:37:45.274688 27413 net.cpp:165] Memory required for data: 176538000
I1217 16:37:45.274713 27413 layer_factory.hpp:77] Creating layer drop3_a
I1217 16:37:45.274719 27413 net.cpp:100] Creating Layer drop3_a
I1217 16:37:45.274724 27413 net.cpp:434] drop3_a <- pool3
I1217 16:37:45.274729 27413 net.cpp:395] drop3_a -> pool3 (in-place)
I1217 16:37:45.274751 27413 net.cpp:150] Setting up drop3_a
I1217 16:37:45.274758 27413 net.cpp:157] Top shape: 100 256 4 4 (409600)
I1217 16:37:45.274761 27413 net.cpp:165] Memory required for data: 178176400
I1217 16:37:45.274765 27413 layer_factory.hpp:77] Creating layer ip1
I1217 16:37:45.274783 27413 net.cpp:100] Creating Layer ip1
I1217 16:37:45.274790 27413 net.cpp:434] ip1 <- pool3
I1217 16:37:45.274794 27413 net.cpp:408] ip1 -> ip1
I1217 16:37:45.489567 27413 net.cpp:150] Setting up ip1
I1217 16:37:45.489605 27413 net.cpp:157] Top shape: 100 2048 (204800)
I1217 16:37:45.489609 27413 net.cpp:165] Memory required for data: 178995600
I1217 16:37:45.489619 27413 layer_factory.hpp:77] Creating layer drop_ip1
I1217 16:37:45.489636 27413 net.cpp:100] Creating Layer drop_ip1
I1217 16:37:45.489641 27413 net.cpp:434] drop_ip1 <- ip1
I1217 16:37:45.489647 27413 net.cpp:395] drop_ip1 -> ip1 (in-place)
I1217 16:37:45.489676 27413 net.cpp:150] Setting up drop_ip1
I1217 16:37:45.489683 27413 net.cpp:157] Top shape: 100 2048 (204800)
I1217 16:37:45.489687 27413 net.cpp:165] Memory required for data: 179814800
I1217 16:37:45.489691 27413 layer_factory.hpp:77] Creating layer ip2
I1217 16:37:45.489704 27413 net.cpp:100] Creating Layer ip2
I1217 16:37:45.489709 27413 net.cpp:434] ip2 <- ip1
I1217 16:37:45.489715 27413 net.cpp:408] ip2 -> ip2
I1217 16:37:45.596048 27413 net.cpp:150] Setting up ip2
I1217 16:37:45.596094 27413 net.cpp:157] Top shape: 100 2048 (204800)
I1217 16:37:45.596098 27413 net.cpp:165] Memory required for data: 180634000
I1217 16:37:45.596119 27413 layer_factory.hpp:77] Creating layer drop_ip2
I1217 16:37:45.596138 27413 net.cpp:100] Creating Layer drop_ip2
I1217 16:37:45.596159 27413 net.cpp:434] drop_ip2 <- ip2
I1217 16:37:45.596165 27413 net.cpp:395] drop_ip2 -> ip2 (in-place)
I1217 16:37:45.596191 27413 net.cpp:150] Setting up drop_ip2
I1217 16:37:45.596199 27413 net.cpp:157] Top shape: 100 2048 (204800)
I1217 16:37:45.596202 27413 net.cpp:165] Memory required for data: 181453200
I1217 16:37:45.596205 27413 layer_factory.hpp:77] Creating layer ip3
I1217 16:37:45.596220 27413 net.cpp:100] Creating Layer ip3
I1217 16:37:45.596225 27413 net.cpp:434] ip3 <- ip2
I1217 16:37:45.596230 27413 net.cpp:408] ip3 -> ip3
I1217 16:37:45.597259 27413 net.cpp:150] Setting up ip3
I1217 16:37:45.597270 27413 net.cpp:157] Top shape: 100 10 (1000)
I1217 16:37:45.597275 27413 net.cpp:165] Memory required for data: 181457200
I1217 16:37:45.597280 27413 layer_factory.hpp:77] Creating layer loss
I1217 16:37:45.597297 27413 net.cpp:100] Creating Layer loss
I1217 16:37:45.597303 27413 net.cpp:434] loss <- ip3
I1217 16:37:45.597307 27413 net.cpp:434] loss <- label
I1217 16:37:45.597313 27413 net.cpp:408] loss -> loss
I1217 16:37:45.597337 27413 layer_factory.hpp:77] Creating layer loss
…
I1217 16:37:45.598289 27413 solver.cpp:181] Creating test net (#0) specified by net file: examples/cifar10/cifar10_Srivastavaet_train_test.prototxt
I1217 16:37:45.598333 27413 net.cpp:322] The NetState phase (1) differed from the phase (0) specified by a rule in layer cifar
I1217 16:37:45.598458 27413 net.cpp:58] Initializing net from parameters: 
name: "CIFAR10_full"
state {
  phase: TEST
}
layer {
  name: "cifar"
  type: "Data"
  top: "data"
  top: "label"
  include {
    phase: TEST
  }
  transform_param {
    mean_file: "examples/cifar10/mean.binaryproto"
  }
  data_param {
    source: "examples/cifar10/cifar10_test_lmdb"
    batch_size: 100
    backend: LMDB
  }
}
layer {
  name: "conv1"
  type: "Convolution"
  bottom: "data"
  top: "conv1"
  param {
    lr_mult: 1
  }
  param {
    lr_mult: 2
  }
  convolution_param {
    num_output: 96
    pad: 2
    kernel_size: 5
    stride: 1
    weight_filler {
      type: "gaussian"
      std: 0.0001
    }
    bias_filler {
      type: "constant"
    }
  }
}
layer {
  name: "drop1"
  type: "Dropout"
  bottom: "conv1"
  top: "conv1"
  dropout_param {
    dropout_ratio: 0.25
  }
}
layer {
  name: "pool1"
  type: "Pooling"
  bottom: "conv1"
  top: "pool1"
  pooling_param {
    pool: MAX
    kernel_size: 3
    stride: 2
  }
}
layer {
  name: "drop1_a"
  type: "Dropout"
  bottom: "pool1"
  top: "pool1"
  dropout_param {
    dropout_ratio: 0.25
  }
}
layer {
  name: "relu1"
  type: "ReLU"
  bottom: "pool1"
  top: "pool1"
}
layer {
  name: "conv2"
  type: "Convolution"
  bottom: "pool1"
  top: "conv2"
  param {
    lr_mult: 1
  }
  param {
    lr_mult: 2
  }
  convolution_param {
    num_output: 128
    pad: 2
    kernel_size: 5
    stride: 1
    weight_filler {
      type: "gaussian"
      std: 0.01
    }
    bias_filler {
      type: "constant"
    }
  }
}
layer {
  name: "relu2"
  type: "ReLU"
  bottom: "conv2"
  top: "conv2"
}
layer {
  name: "drop2"
  type: "Dropout"
  bottom: "conv2"
  top: "conv2"
  dropout_param {
    dropout_ratio: 0.25
  }
}
layer {
  name: "pool2"
  type: "Pooling"
  bottom: "conv2"
  top: "pool2"
  pooling_param {
    pool: AVE
    kernel_size: 3
    stride: 2
  }
}
layer {
  name: "drop2_a"
  type: "Dropout"
  bottom: "pool2"
  top: "pool2"
  dropout_param {
    dropout_ratio: 0.25
  }
}
layer {
  name: "conv3"
  type: "Convolution"
  bottom: "pool2"
  top: "conv3"
  convolution_param {
    num_output: 256
    pad: 2
    kernel_size: 5
    stride: 1
    weight_filler {
      type: "gaussian"
      std: 0.01
    }
    bias_filler {
      type: "constant"
    }
  }
}
layer {
  name: "relu3"
  type: "ReLU"
  bottom: "conv3"
  top: "conv3"
}
layer {
  name: "drop3"
  type: "Dropout"
  bottom: "conv3"
  top: "conv3"
  dropout_param {
    dropout_ratio: 0.25
  }
}
layer {
  name: "pool3"
  type: "Pooling"
  bottom: "conv3"
  top: "pool3"
  pooling_param {
    pool: AVE
    kernel_size: 3
    stride: 2
  }
}
layer {
  name: "drop3_a"
  type: "Dropout"
  bottom: "pool3"
  top: "pool3"
  dropout_param {
    dropout_ratio: 0.5
  }
}
layer {
  name: "ip1"
  type: "InnerProduct"
  bottom: "pool3"
  top: "ip1"
  param {
    lr_mult: 1
    decay_mult: 250
  }
  param {
    lr_mult: 2
    decay_mult: 0
  }
  inner_product_param {
    num_output: 2048
    weight_filler {
      type: "gaussian"
      std: 0.01
    }
    bias_filler {
      type: "constant"
    }
  }
}
layer {
  name: "drop_ip1"
  type: "Dropout"
  bottom: "ip1"
  top: "ip1"
  dropout_param {
    dropout_ratio: 0.5
  }
}
layer {
  name: "ip2"
  type: "InnerProduct"
  bottom: "ip1"
  top: "ip2"
  param {
    lr_mult: 1
    decay_mult: 250
  }
  param {
    lr_mult: 2
    decay_mult: 0
  }
  inner_product_param {
    num_output: 2048
    weight_filler {
      type: "gaussian"
      std: 0.01
    }
    bias_filler {
      type: "constant"
    }
  }
}
layer {
  name: "drop_ip2"
  type: "Dropout"
  bottom: "ip2"
  top: "ip2"
  dropout_param {
    dropout_ratio: 0.5
  }
}
layer {
  name: "ip3"
  type: "InnerProduct"
  bottom: "ip2"
  top: "ip3"
  param {
    lr_mult: 1
    decay_mult: 250
  }
  param {
    lr_mult: 2
    decay_mult: 0
  }
  inner_product_param {
    num_output: 10
    weight_filler {
      type: "gaussian"
      std: 0.01
    }
    bias_filler {
      type: "constant"
    }
  }
}
layer {
  name: "accuracy"
  type: "Accuracy"
  bottom: "ip3"
  bottom: "label"
  top: "accuracy"
  include {
    phase: TEST
  }
}
layer {
  name: "loss"
  type: "SoftmaxWithLoss"
  bottom: "ip3"
  bottom: "label"
  top: "loss"
}
I1217 16:37:45.598559 27413 layer_factory.hpp:77] Creating layer cifar
I1217 16:37:45.598664 27413 net.cpp:100] Creating Layer cifar
I1217 16:37:45.598672 27413 net.cpp:408] cifar -> data
I1217 16:37:45.598680 27413 net.cpp:408] cifar -> label
I1217 16:37:45.598688 27413 data_transformer.cpp:25] Loading mean file from: examples/cifar10/mean.binaryproto
I1217 16:37:45.600009 27434 db_lmdb.cpp:35] Opened lmdb examples/cifar10/cifar10_test_lmdb
I1217 16:37:45.600154 27413 data_layer.cpp:41] output data size: 100,3,32,32
I1217 16:37:45.602520 27413 net.cpp:150] Setting up cifar
I1217 16:37:45.602540 27413 net.cpp:157] Top shape: 100 3 32 32 (307200)
I1217 16:37:45.602545 27413 net.cpp:157] Top shape: 100 (100)
I1217 16:37:45.602548 27413 net.cpp:165] Memory required for data: 1229200
I1217 16:37:45.602553 27413 layer_factory.hpp:77] Creating layer label_cifar_1_split
I1217 16:37:45.602569 27413 net.cpp:100] Creating Layer label_cifar_1_split
I1217 16:37:45.602574 27413 net.cpp:434] label_cifar_1_split <- label
I1217 16:37:45.602581 27413 net.cpp:408] label_cifar_1_split -> label_cifar_1_split_0
I1217 16:37:45.602588 27413 net.cpp:408] label_cifar_1_split -> label_cifar_1_split_1
I1217 16:37:45.602638 27413 net.cpp:150] Setting up label_cifar_1_split
I1217 16:37:45.602645 27413 net.cpp:157] Top shape: 100 (100)
I1217 16:37:45.602648 27413 net.cpp:157] Top shape: 100 (100)
I1217 16:37:45.602653 27413 net.cpp:165] Memory required for data: 1230000
I1217 16:37:45.602658 27413 layer_factory.hpp:77] Creating layer conv1
I1217 16:37:45.602666 27413 net.cpp:100] Creating Layer conv1
I1217 16:37:45.602671 27413 net.cpp:434] conv1 <- data
I1217 16:37:45.602677 27413 net.cpp:408] conv1 -> conv1
I1217 16:37:45.603936 27413 net.cpp:150] Setting up conv1
I1217 16:37:45.603970 27413 net.cpp:157] Top shape: 100 96 32 32 (9830400)
I1217 16:37:45.603973 27413 net.cpp:165] Memory required for data: 40551600
I1217 16:37:45.603991 27413 layer_factory.hpp:77] Creating layer drop1
I1217 16:37:45.603998 27413 net.cpp:100] Creating Layer drop1
I1217 16:37:45.604002 27413 net.cpp:434] drop1 <- conv1
I1217 16:37:45.604009 27413 net.cpp:395] drop1 -> conv1 (in-place)
I1217 16:37:45.604043 27413 net.cpp:150] Setting up drop1
I1217 16:37:45.604048 27413 net.cpp:157] Top shape: 100 96 32 32 (9830400)
I1217 16:37:45.604053 27413 net.cpp:165] Memory required for data: 79873200
I1217 16:37:45.604056 27413 layer_factory.hpp:77] Creating layer pool1
I1217 16:37:45.604064 27413 net.cpp:100] Creating Layer pool1
I1217 16:37:45.604068 27413 net.cpp:434] pool1 <- conv1
I1217 16:37:45.604074 27413 net.cpp:408] pool1 -> pool1
I1217 16:37:45.604126 27413 net.cpp:150] Setting up pool1
I1217 16:37:45.604135 27413 net.cpp:157] Top shape: 100 96 16 16 (2457600)
I1217 16:37:45.604137 27413 net.cpp:165] Memory required for data: 89703600
I1217 16:37:45.604142 27413 layer_factory.hpp:77] Creating layer drop1_a
I1217 16:37:45.604147 27413 net.cpp:100] Creating Layer drop1_a
I1217 16:37:45.604152 27413 net.cpp:434] drop1_a <- pool1
I1217 16:37:45.604157 27413 net.cpp:395] drop1_a -> pool1 (in-place)
I1217 16:37:45.604183 27413 net.cpp:150] Setting up drop1_a
I1217 16:37:45.604192 27413 net.cpp:157] Top shape: 100 96 16 16 (2457600)
I1217 16:37:45.604194 27413 net.cpp:165] Memory required for data: 99534000
I1217 16:37:45.604199 27413 layer_factory.hpp:77] Creating layer relu1
I1217 16:37:45.604204 27413 net.cpp:100] Creating Layer relu1
I1217 16:37:45.604207 27413 net.cpp:434] relu1 <- pool1
I1217 16:37:45.604212 27413 net.cpp:395] relu1 -> pool1 (in-place)
I1217 16:37:45.604358 27413 net.cpp:150] Setting up relu1
I1217 16:37:45.604367 27413 net.cpp:157] Top shape: 100 96 16 16 (2457600)
I1217 16:37:45.604370 27413 net.cpp:165] Memory required for data: 109364400
I1217 16:37:45.604374 27413 layer_factory.hpp:77] Creating layer conv2
I1217 16:37:45.604389 27413 net.cpp:100] Creating Layer conv2
I1217 16:37:45.604395 27413 net.cpp:434] conv2 <- pool1
I1217 16:37:45.604409 27413 net.cpp:408] conv2 -> conv2
I1217 16:37:45.615161 27413 net.cpp:150] Setting up conv2
I1217 16:37:45.615183 27413 net.cpp:157] Top shape: 100 128 16 16 (3276800)
I1217 16:37:45.615188 27413 net.cpp:165] Memory required for data: 122471600
I1217 16:37:45.615207 27413 layer_factory.hpp:77] Creating layer relu2
I1217 16:37:45.615217 27413 net.cpp:100] Creating Layer relu2
I1217 16:37:45.615224 27413 net.cpp:434] relu2 <- conv2
I1217 16:37:45.615229 27413 net.cpp:395] relu2 -> conv2 (in-place)
I1217 16:37:45.615555 27413 net.cpp:150] Setting up relu2
I1217 16:37:45.615574 27413 net.cpp:157] Top shape: 100 128 16 16 (3276800)
I1217 16:37:45.615578 27413 net.cpp:165] Memory required for data: 135578800
I1217 16:37:45.615582 27413 layer_factory.hpp:77] Creating layer drop2
I1217 16:37:45.615598 27413 net.cpp:100] Creating Layer drop2
I1217 16:37:45.615604 27413 net.cpp:434] drop2 <- conv2
I1217 16:37:45.615610 27413 net.cpp:395] drop2 -> conv2 (in-place)
I1217 16:37:45.615643 27413 net.cpp:150] Setting up drop2
I1217 16:37:45.615651 27413 net.cpp:157] Top shape: 100 128 16 16 (3276800)
I1217 16:37:45.615654 27413 net.cpp:165] Memory required for data: 148686000
I1217 16:37:45.615659 27413 layer_factory.hpp:77] Creating layer pool2
I1217 16:37:45.615665 27413 net.cpp:100] Creating Layer pool2
I1217 16:37:45.615670 27413 net.cpp:434] pool2 <- conv2
I1217 16:37:45.615677 27413 net.cpp:408] pool2 -> pool2
I1217 16:37:45.615866 27413 net.cpp:150] Setting up pool2
I1217 16:37:45.615875 27413 net.cpp:157] Top shape: 100 128 8 8 (819200)
I1217 16:37:45.615881 27413 net.cpp:165] Memory required for data: 151962800
I1217 16:37:45.615885 27413 layer_factory.hpp:77] Creating layer drop2_a
I1217 16:37:45.615893 27413 net.cpp:100] Creating Layer drop2_a
I1217 16:37:45.615900 27413 net.cpp:434] drop2_a <- pool2
I1217 16:37:45.615906 27413 net.cpp:395] drop2_a -> pool2 (in-place)
I1217 16:37:45.615938 27413 net.cpp:150] Setting up drop2_a
I1217 16:37:45.615945 27413 net.cpp:157] Top shape: 100 128 8 8 (819200)
I1217 16:37:45.615949 27413 net.cpp:165] Memory required for data: 155239600
I1217 16:37:45.615954 27413 layer_factory.hpp:77] Creating layer conv3
I1217 16:37:45.615969 27413 net.cpp:100] Creating Layer conv3
I1217 16:37:45.615974 27413 net.cpp:434] conv3 <- pool2
I1217 16:37:45.615981 27413 net.cpp:408] conv3 -> conv3
I1217 16:37:45.639487 27413 net.cpp:150] Setting up conv3
I1217 16:37:45.639500 27413 net.cpp:157] Top shape: 100 256 8 8 (1638400)
I1217 16:37:45.639504 27413 net.cpp:165] Memory required for data: 161793200
I1217 16:37:45.639515 27413 layer_factory.hpp:77] Creating layer relu3
I1217 16:37:45.639523 27413 net.cpp:100] Creating Layer relu3
I1217 16:37:45.639528 27413 net.cpp:434] relu3 <- conv3
I1217 16:37:45.639554 27413 net.cpp:395] relu3 -> conv3 (in-place)
I1217 16:37:45.639845 27413 net.cpp:150] Setting up relu3
I1217 16:37:45.639856 27413 net.cpp:157] Top shape: 100 256 8 8 (1638400)
I1217 16:37:45.639861 27413 net.cpp:165] Memory required for data: 168346800
I1217 16:37:45.639865 27413 layer_factory.hpp:77] Creating layer drop3
I1217 16:37:45.639873 27413 net.cpp:100] Creating Layer drop3
I1217 16:37:45.639878 27413 net.cpp:434] drop3 <- conv3
I1217 16:37:45.639883 27413 net.cpp:395] drop3 -> conv3 (in-place)
I1217 16:37:45.639917 27413 net.cpp:150] Setting up drop3
I1217 16:37:45.639925 27413 net.cpp:157] Top shape: 100 256 8 8 (1638400)
I1217 16:37:45.639927 27413 net.cpp:165] Memory required for data: 174900400
I1217 16:37:45.639930 27413 layer_factory.hpp:77] Creating layer pool3
I1217 16:37:45.639936 27413 net.cpp:100] Creating Layer pool3
I1217 16:37:45.639940 27413 net.cpp:434] pool3 <- conv3
I1217 16:37:45.639946 27413 net.cpp:408] pool3 -> pool3
I1217 16:37:45.640117 27413 net.cpp:150] Setting up pool3
I1217 16:37:45.640125 27413 net.cpp:157] Top shape: 100 256 4 4 (409600)
I1217 16:37:45.640128 27413 net.cpp:165] Memory required for data: 176538800
I1217 16:37:45.640133 27413 layer_factory.hpp:77] Creating layer drop3_a
I1217 16:37:45.640148 27413 net.cpp:100] Creating Layer drop3_a
I1217 16:37:45.640152 27413 net.cpp:434] drop3_a <- pool3
I1217 16:37:45.640159 27413 net.cpp:395] drop3_a -> pool3 (in-place)
I1217 16:37:45.640189 27413 net.cpp:150] Setting up drop3_a
I1217 16:37:45.640197 27413 net.cpp:157] Top shape: 100 256 4 4 (409600)
I1217 16:37:45.640199 27413 net.cpp:165] Memory required for data: 178177200
I1217 16:37:45.640203 27413 layer_factory.hpp:77] Creating layer ip1
I1217 16:37:45.640211 27413 net.cpp:100] Creating Layer ip1
I1217 16:37:45.640216 27413 net.cpp:434] ip1 <- pool3
I1217 16:37:45.640223 27413 net.cpp:408] ip1 -> ip1
I1217 16:37:45.866840 27413 net.cpp:150] Setting up ip1
I1217 16:37:45.866873 27413 net.cpp:157] Top shape: 100 2048 (204800)
I1217 16:37:45.866878 27413 net.cpp:165] Memory required for data: 178996400
I1217 16:37:45.866894 27413 layer_factory.hpp:77] Creating layer drop_ip1
I1217 16:37:45.866914 27413 net.cpp:100] Creating Layer drop_ip1
I1217 16:37:45.866927 27413 net.cpp:434] drop_ip1 <- ip1
I1217 16:37:45.866942 27413 net.cpp:395] drop_ip1 -> ip1 (in-place)
I1217 16:37:45.866971 27413 net.cpp:150] Setting up drop_ip1
I1217 16:37:45.866978 27413 net.cpp:157] Top shape: 100 2048 (204800)
I1217 16:37:45.866982 27413 net.cpp:165] Memory required for data: 179815600
I1217 16:37:45.866987 27413 layer_factory.hpp:77] Creating layer ip2
I1217 16:37:45.867003 27413 net.cpp:100] Creating Layer ip2
I1217 16:37:45.867008 27413 net.cpp:434] ip2 <- ip1
I1217 16:37:45.867013 27413 net.cpp:408] ip2 -> ip2
I1217 16:37:45.979271 27413 net.cpp:150] Setting up ip2
I1217 16:37:45.979305 27413 net.cpp:157] Top shape: 100 2048 (204800)
I1217 16:37:45.979310 27413 net.cpp:165] Memory required for data: 180634800
I1217 16:37:45.979327 27413 layer_factory.hpp:77] Creating layer drop_ip2
I1217 16:37:45.979343 27413 net.cpp:100] Creating Layer drop_ip2
I1217 16:37:45.979348 27413 net.cpp:434] drop_ip2 <- ip2
I1217 16:37:45.979354 27413 net.cpp:395] drop_ip2 -> ip2 (in-place)
I1217 16:37:45.979390 27413 net.cpp:150] Setting up drop_ip2
I1217 16:37:45.979398 27413 net.cpp:157] Top shape: 100 2048 (204800)
I1217 16:37:45.979401 27413 net.cpp:165] Memory required for data: 181454000
I1217 16:37:45.979404 27413 layer_factory.hpp:77] Creating layer ip3
I1217 16:37:45.979413 27413 net.cpp:100] Creating Layer ip3
I1217 16:37:45.979418 27413 net.cpp:434] ip3 <- ip2
I1217 16:37:45.979424 27413 net.cpp:408] ip3 -> ip3
I1217 16:37:45.980059 27413 net.cpp:150] Setting up ip3
I1217 16:37:45.980067 27413 net.cpp:157] Top shape: 100 10 (1000)
I1217 16:37:45.980070 27413 net.cpp:165] Memory required for data: 181458000
I1217 16:37:45.980075 27413 layer_factory.hpp:77] Creating layer ip3_ip3_0_split
I1217 16:37:45.980082 27413 net.cpp:100] Creating Layer ip3_ip3_0_split
I1217 16:37:45.980103 27413 net.cpp:434] ip3_ip3_0_split <- ip3
I1217 16:37:45.980108 27413 net.cpp:408] ip3_ip3_0_split -> ip3_ip3_0_split_0
I1217 16:37:45.980114 27413 net.cpp:408] ip3_ip3_0_split -> ip3_ip3_0_split_1
I1217 16:37:45.980146 27413 net.cpp:150] Setting up ip3_ip3_0_split
I1217 16:37:45.980154 27413 net.cpp:157] Top shape: 100 10 (1000)
I1217 16:37:45.980159 27413 net.cpp:157] Top shape: 100 10 (1000)
I1217 16:37:45.980161 27413 net.cpp:165] Memory required for data: 181466000
I1217 16:37:45.980165 27413 layer_factory.hpp:77] Creating layer accuracy
I1217 16:37:45.980181 27413 net.cpp:100] Creating Layer accuracy
I1217 16:37:45.980187 27413 net.cpp:434] accuracy <- ip3_ip3_0_split_0
I1217 16:37:45.980191 27413 net.cpp:434] accuracy <- label_cifar_1_split_0
I1217 16:37:45.980196 27413 net.cpp:408] accuracy -> accuracy
…
