…
I1217 12:51:33.422179 24581 net.cpp:322] The NetState phase (0) differed from the phase (1) specified by a rule in layer accuracy
I1217 12:51:33.422304 24581 net.cpp:58] Initializing net from parameters: 
name: "CIFAR10_full"
state {
  phase: TRAIN
  level: 0
  stage: ""
}
layer {
  name: "cifar"
  type: "Data"
  top: "data"
  top: "label"
  include {
    phase: TRAIN
  }
  transform_param {
    mean_file: "examples/cifar10/mean.binaryproto"
  }
  data_param {
    source: "examples/cifar10/cifar10_train_lmdb"
    batch_size: 100
    backend: LMDB
  }
}
layer {
  name: "conv1"
  type: "Convolution"
  bottom: "data"
  top: "conv1"
  param {
    lr_mult: 1
  }
  param {
    lr_mult: 2
  }
  convolution_param {
    num_output: 96
    pad: 2
    kernel_size: 5
    stride: 1
    weight_filler {
      type: "gaussian"
      std: 0.0001
    }
    bias_filler {
      type: "constant"
    }
  }
}
layer {
  name: "drop1"
  type: "Dropout"
  bottom: "conv1"
  top: "conv1"
  dropout_param {
    dropout_ratio: 0.25
  }
}
layer {
  name: "pool1"
  type: "Pooling"
  bottom: "conv1"
  top: "pool1"
  pooling_param {
    pool: MAX
    kernel_size: 3
    stride: 2
  }
}
layer {
  name: "drop1_a"
  type: "Dropout"
  bottom: "pool1"
  top: "pool1"
  dropout_param {
    dropout_ratio: 0.25
  }
}
layer {
  name: "relu1"
  type: "ReLU"
  bottom: "pool1"
  top: "pool1"
}
layer {
  name: "conv2"
  type: "Convolution"
  bottom: "pool1"
  top: "conv2"
  param {
    lr_mult: 1
  }
  param {
    lr_mult: 2
  }
  convolution_param {
    num_output: 128
    pad: 2
    kernel_size: 5
    stride: 1
    weight_filler {
      type: "gaussian"
      std: 0.01
    }
    bias_filler {
      type: "constant"
    }
  }
}
layer {
  name: "relu2"
  type: "ReLU"
  bottom: "conv2"
  top: "conv2"
}
layer {
  name: "drop2"
  type: "Dropout"
  bottom: "conv2"
  top: "conv2"
  dropout_param {
    dropout_ratio: 0.25
  }
}
layer {
  name: "pool2"
  type: "Pooling"
  bottom: "conv2"
  top: "pool2"
  pooling_param {
    pool: AVE
    kernel_size: 3
    stride: 2
  }
}
layer {
  name: "drop2_a"
  type: "Dropout"
  bottom: "pool2"
  top: "pool2"
  dropout_param {
    dropout_ratio: 0.25
  }
}
layer {
  name: "conv3"
  type: "Convolution"
  bottom: "pool2"
  top: "conv3"
  convolution_param {
    num_output: 256
    pad: 2
    kernel_size: 5
    stride: 1
    weight_filler {
      type: "gaussian"
      std: 0.01
    }
    bias_filler {
      type: "constant"
    }
  }
}
layer {
  name: "relu3"
  type: "ReLU"
  bottom: "conv3"
  top: "conv3"
}
layer {
  name: "drop3"
  type: "Dropout"
  bottom: "conv3"
  top: "conv3"
  dropout_param {
    dropout_ratio: 0.25
  }
}
layer {
  name: "pool3"
  type: "Pooling"
  bottom: "conv3"
  top: "pool3"
  pooling_param {
    pool: AVE
    kernel_size: 3
    stride: 2
  }
}
layer {
  name: "drop3_a"
  type: "Dropout"
  bottom: "pool3"
  top: "pool3"
  dropout_param {
    dropout_ratio: 0.5
  }
}
layer {
  name: "ip1"
  type: "InnerProduct"
  bottom: "pool3"
  top: "ip1"
  param {
    lr_mult: 1
    decay_mult: 250
  }
  param {
    lr_mult: 2
    decay_mult: 0
  }
  inner_product_param {
    num_output: 2048
    weight_filler {
      type: "gaussian"
      std: 0.01
    }
    bias_filler {
      type: "constant"
    }
  }
}
layer {
  name: "drop_ip1"
  type: "Dropout"
  bottom: "ip1"
  top: "ip1"
  dropout_param {
    dropout_ratio: 0.5
  }
}
layer {
  name: "ip2"
  type: "InnerProduct"
  bottom: "ip1"
  top: "ip2"
  param {
    lr_mult: 1
    decay_mult: 250
  }
  param {
    lr_mult: 2
    decay_mult: 0
  }
  inner_product_param {
    num_output: 2048
    weight_filler {
      type: "gaussian"
      std: 0.01
    }
    bias_filler {
      type: "constant"
    }
  }
}
layer {
  name: "drop_ip2"
  type: "Dropout"
  bottom: "ip2"
  top: "ip2"
  dropout_param {
    dropout_ratio: 0.5
  }
}
layer {
  name: "ip3"
  type: "InnerProduct"
  bottom: "ip2"
  top: "ip3"
  param {
    lr_mult: 1
    decay_mult: 250
  }
  param {
    lr_mult: 2
    decay_mult: 0
  }
  inner_product_param {
    num_output: 10
    weight_filler {
      type: "gaussian"
      std: 0.01
    }
    bias_filler {
      type: "constant"
    }
  }
}
layer {
  name: "loss"
  type: "SoftmaxWithLoss"
  bottom: "ip3"
  bottom: "label"
  top: "loss"
}
I1217 12:51:33.422427 24581 layer_factory.hpp:77] Creating layer cifar
I1217 12:51:33.422968 24581 net.cpp:100] Creating Layer cifar
I1217 12:51:33.422991 24581 net.cpp:408] cifar -> data
I1217 12:51:33.423022 24581 net.cpp:408] cifar -> label
I1217 12:51:33.423043 24581 data_transformer.cpp:25] Loading mean file from: examples/cifar10/mean.binaryproto
I1217 12:51:33.423823 24600 db_lmdb.cpp:35] Opened lmdb examples/cifar10/cifar10_train_lmdb
I1217 12:51:33.441336 24581 data_layer.cpp:41] output data size: 100,3,32,32
I1217 12:51:33.443778 24581 net.cpp:150] Setting up cifar
I1217 12:51:33.443805 24581 net.cpp:157] Top shape: 100 3 32 32 (307200)
I1217 12:51:33.443810 24581 net.cpp:157] Top shape: 100 (100)
I1217 12:51:33.443814 24581 net.cpp:165] Memory required for data: 1229200
I1217 12:51:33.443830 24581 layer_factory.hpp:77] Creating layer conv1
I1217 12:51:33.443851 24581 net.cpp:100] Creating Layer conv1
I1217 12:51:33.443859 24581 net.cpp:434] conv1 <- data
I1217 12:51:33.443869 24581 net.cpp:408] conv1 -> conv1
I1217 12:51:33.615236 24581 net.cpp:150] Setting up conv1
I1217 12:51:33.615269 24581 net.cpp:157] Top shape: 100 96 32 32 (9830400)
I1217 12:51:33.615273 24581 net.cpp:165] Memory required for data: 40550800
I1217 12:51:33.615300 24581 layer_factory.hpp:77] Creating layer drop1
I1217 12:51:33.615321 24581 net.cpp:100] Creating Layer drop1
I1217 12:51:33.615329 24581 net.cpp:434] drop1 <- conv1
I1217 12:51:33.615334 24581 net.cpp:395] drop1 -> conv1 (in-place)
I1217 12:51:33.615384 24581 net.cpp:150] Setting up drop1
I1217 12:51:33.615391 24581 net.cpp:157] Top shape: 100 96 32 32 (9830400)
I1217 12:51:33.615396 24581 net.cpp:165] Memory required for data: 79872400
I1217 12:51:33.615401 24581 layer_factory.hpp:77] Creating layer pool1
I1217 12:51:33.615409 24581 net.cpp:100] Creating Layer pool1
I1217 12:51:33.615416 24581 net.cpp:434] pool1 <- conv1
I1217 12:51:33.615422 24581 net.cpp:408] pool1 -> pool1
I1217 12:51:33.615474 24581 net.cpp:150] Setting up pool1
I1217 12:51:33.615481 24581 net.cpp:157] Top shape: 100 96 16 16 (2457600)
I1217 12:51:33.615485 24581 net.cpp:165] Memory required for data: 89702800
I1217 12:51:33.615490 24581 layer_factory.hpp:77] Creating layer drop1_a
I1217 12:51:33.615497 24581 net.cpp:100] Creating Layer drop1_a
I1217 12:51:33.615502 24581 net.cpp:434] drop1_a <- pool1
I1217 12:51:33.615509 24581 net.cpp:395] drop1_a -> pool1 (in-place)
I1217 12:51:33.615528 24581 net.cpp:150] Setting up drop1_a
I1217 12:51:33.615535 24581 net.cpp:157] Top shape: 100 96 16 16 (2457600)
I1217 12:51:33.615538 24581 net.cpp:165] Memory required for data: 99533200
I1217 12:51:33.615543 24581 layer_factory.hpp:77] Creating layer relu1
I1217 12:51:33.615557 24581 net.cpp:100] Creating Layer relu1
I1217 12:51:33.615562 24581 net.cpp:434] relu1 <- pool1
I1217 12:51:33.615569 24581 net.cpp:395] relu1 -> pool1 (in-place)
I1217 12:51:33.615870 24581 net.cpp:150] Setting up relu1
I1217 12:51:33.615881 24581 net.cpp:157] Top shape: 100 96 16 16 (2457600)
I1217 12:51:33.615886 24581 net.cpp:165] Memory required for data: 109363600
I1217 12:51:33.615890 24581 layer_factory.hpp:77] Creating layer conv2
I1217 12:51:33.615926 24581 net.cpp:100] Creating Layer conv2
I1217 12:51:33.615931 24581 net.cpp:434] conv2 <- pool1
I1217 12:51:33.615938 24581 net.cpp:408] conv2 -> conv2
I1217 12:51:33.626139 24581 net.cpp:150] Setting up conv2
I1217 12:51:33.626154 24581 net.cpp:157] Top shape: 100 128 16 16 (3276800)
I1217 12:51:33.626160 24581 net.cpp:165] Memory required for data: 122470800
I1217 12:51:33.626174 24581 layer_factory.hpp:77] Creating layer relu2
I1217 12:51:33.626183 24581 net.cpp:100] Creating Layer relu2
I1217 12:51:33.626189 24581 net.cpp:434] relu2 <- conv2
I1217 12:51:33.626194 24581 net.cpp:395] relu2 -> conv2 (in-place)
I1217 12:51:33.626363 24581 net.cpp:150] Setting up relu2
I1217 12:51:33.626371 24581 net.cpp:157] Top shape: 100 128 16 16 (3276800)
I1217 12:51:33.626375 24581 net.cpp:165] Memory required for data: 135578000
I1217 12:51:33.626380 24581 layer_factory.hpp:77] Creating layer drop2
I1217 12:51:33.626395 24581 net.cpp:100] Creating Layer drop2
I1217 12:51:33.626400 24581 net.cpp:434] drop2 <- conv2
I1217 12:51:33.626406 24581 net.cpp:395] drop2 -> conv2 (in-place)
I1217 12:51:33.626435 24581 net.cpp:150] Setting up drop2
I1217 12:51:33.626441 24581 net.cpp:157] Top shape: 100 128 16 16 (3276800)
I1217 12:51:33.626444 24581 net.cpp:165] Memory required for data: 148685200
I1217 12:51:33.626449 24581 layer_factory.hpp:77] Creating layer pool2
I1217 12:51:33.626456 24581 net.cpp:100] Creating Layer pool2
I1217 12:51:33.626469 24581 net.cpp:434] pool2 <- conv2
I1217 12:51:33.626476 24581 net.cpp:408] pool2 -> pool2
I1217 12:51:33.626797 24581 net.cpp:150] Setting up pool2
I1217 12:51:33.626808 24581 net.cpp:157] Top shape: 100 128 8 8 (819200)
I1217 12:51:33.626812 24581 net.cpp:165] Memory required for data: 151962000
I1217 12:51:33.626816 24581 layer_factory.hpp:77] Creating layer drop2_a
I1217 12:51:33.626824 24581 net.cpp:100] Creating Layer drop2_a
I1217 12:51:33.626829 24581 net.cpp:434] drop2_a <- pool2
I1217 12:51:33.626835 24581 net.cpp:395] drop2_a -> pool2 (in-place)
I1217 12:51:33.626865 24581 net.cpp:150] Setting up drop2_a
I1217 12:51:33.626873 24581 net.cpp:157] Top shape: 100 128 8 8 (819200)
I1217 12:51:33.626878 24581 net.cpp:165] Memory required for data: 155238800
I1217 12:51:33.626880 24581 layer_factory.hpp:77] Creating layer conv3
I1217 12:51:33.626891 24581 net.cpp:100] Creating Layer conv3
I1217 12:51:33.626896 24581 net.cpp:434] conv3 <- pool2
I1217 12:51:33.626902 24581 net.cpp:408] conv3 -> conv3
I1217 12:51:33.651854 24581 net.cpp:150] Setting up conv3
I1217 12:51:33.651868 24581 net.cpp:157] Top shape: 100 256 8 8 (1638400)
I1217 12:51:33.651875 24581 net.cpp:165] Memory required for data: 161792400
I1217 12:51:33.651891 24581 layer_factory.hpp:77] Creating layer relu3
I1217 12:51:33.651901 24581 net.cpp:100] Creating Layer relu3
I1217 12:51:33.651906 24581 net.cpp:434] relu3 <- conv3
I1217 12:51:33.651911 24581 net.cpp:395] relu3 -> conv3 (in-place)
I1217 12:51:33.652201 24581 net.cpp:150] Setting up relu3
I1217 12:51:33.652214 24581 net.cpp:157] Top shape: 100 256 8 8 (1638400)
I1217 12:51:33.652220 24581 net.cpp:165] Memory required for data: 168346000
I1217 12:51:33.652223 24581 layer_factory.hpp:77] Creating layer drop3
I1217 12:51:33.652235 24581 net.cpp:100] Creating Layer drop3
I1217 12:51:33.652241 24581 net.cpp:434] drop3 <- conv3
I1217 12:51:33.652246 24581 net.cpp:395] drop3 -> conv3 (in-place)
I1217 12:51:33.652281 24581 net.cpp:150] Setting up drop3
I1217 12:51:33.652287 24581 net.cpp:157] Top shape: 100 256 8 8 (1638400)
I1217 12:51:33.652292 24581 net.cpp:165] Memory required for data: 174899600
I1217 12:51:33.652295 24581 layer_factory.hpp:77] Creating layer pool3
I1217 12:51:33.652302 24581 net.cpp:100] Creating Layer pool3
I1217 12:51:33.652307 24581 net.cpp:434] pool3 <- conv3
I1217 12:51:33.652312 24581 net.cpp:408] pool3 -> pool3
I1217 12:51:33.652478 24581 net.cpp:150] Setting up pool3
I1217 12:51:33.652487 24581 net.cpp:157] Top shape: 100 256 4 4 (409600)
I1217 12:51:33.652493 24581 net.cpp:165] Memory required for data: 176538000
I1217 12:51:33.652506 24581 layer_factory.hpp:77] Creating layer drop3_a
I1217 12:51:33.652513 24581 net.cpp:100] Creating Layer drop3_a
I1217 12:51:33.652518 24581 net.cpp:434] drop3_a <- pool3
I1217 12:51:33.652523 24581 net.cpp:395] drop3_a -> pool3 (in-place)
I1217 12:51:33.652554 24581 net.cpp:150] Setting up drop3_a
I1217 12:51:33.652560 24581 net.cpp:157] Top shape: 100 256 4 4 (409600)
I1217 12:51:33.652565 24581 net.cpp:165] Memory required for data: 178176400
I1217 12:51:33.652570 24581 layer_factory.hpp:77] Creating layer ip1
I1217 12:51:33.652580 24581 net.cpp:100] Creating Layer ip1
I1217 12:51:33.652585 24581 net.cpp:434] ip1 <- pool3
I1217 12:51:33.652601 24581 net.cpp:408] ip1 -> ip1
I1217 12:51:33.879760 24581 net.cpp:150] Setting up ip1
I1217 12:51:33.879792 24581 net.cpp:157] Top shape: 100 2048 (204800)
I1217 12:51:33.879796 24581 net.cpp:165] Memory required for data: 178995600
I1217 12:51:33.879813 24581 layer_factory.hpp:77] Creating layer drop_ip1
I1217 12:51:33.879833 24581 net.cpp:100] Creating Layer drop_ip1
I1217 12:51:33.879840 24581 net.cpp:434] drop_ip1 <- ip1
I1217 12:51:33.879856 24581 net.cpp:395] drop_ip1 -> ip1 (in-place)
I1217 12:51:33.879891 24581 net.cpp:150] Setting up drop_ip1
I1217 12:51:33.879899 24581 net.cpp:157] Top shape: 100 2048 (204800)
I1217 12:51:33.879905 24581 net.cpp:165] Memory required for data: 179814800
I1217 12:51:33.879909 24581 layer_factory.hpp:77] Creating layer ip2
I1217 12:51:33.879925 24581 net.cpp:100] Creating Layer ip2
I1217 12:51:33.879930 24581 net.cpp:434] ip2 <- ip1
I1217 12:51:33.879936 24581 net.cpp:408] ip2 -> ip2
I1217 12:51:33.988878 24581 net.cpp:150] Setting up ip2
I1217 12:51:33.988904 24581 net.cpp:157] Top shape: 100 2048 (204800)
I1217 12:51:33.988907 24581 net.cpp:165] Memory required for data: 180634000
I1217 12:51:33.988924 24581 layer_factory.hpp:77] Creating layer drop_ip2
I1217 12:51:33.988934 24581 net.cpp:100] Creating Layer drop_ip2
I1217 12:51:33.988940 24581 net.cpp:434] drop_ip2 <- ip2
I1217 12:51:33.988946 24581 net.cpp:395] drop_ip2 -> ip2 (in-place)
I1217 12:51:33.988987 24581 net.cpp:150] Setting up drop_ip2
I1217 12:51:33.988993 24581 net.cpp:157] Top shape: 100 2048 (204800)
I1217 12:51:33.988996 24581 net.cpp:165] Memory required for data: 181453200
I1217 12:51:33.989001 24581 layer_factory.hpp:77] Creating layer ip3
I1217 12:51:33.989017 24581 net.cpp:100] Creating Layer ip3
I1217 12:51:33.989022 24581 net.cpp:434] ip3 <- ip2
I1217 12:51:33.989027 24581 net.cpp:408] ip3 -> ip3
I1217 12:51:33.990007 24581 net.cpp:150] Setting up ip3
I1217 12:51:33.990018 24581 net.cpp:157] Top shape: 100 10 (1000)
I1217 12:51:33.990021 24581 net.cpp:165] Memory required for data: 181457200
I1217 12:51:33.990027 24581 layer_factory.hpp:77] Creating layer loss
I1217 12:51:33.990037 24581 net.cpp:100] Creating Layer loss
I1217 12:51:33.990042 24581 net.cpp:434] loss <- ip3
I1217 12:51:33.990047 24581 net.cpp:434] loss <- label
I1217 12:51:33.990056 24581 net.cpp:408] loss -> loss
I1217 12:51:33.990072 24581 layer_factory.hpp:77] Creating layer loss
…
I1217 12:51:33.991063 24581 solver.cpp:181] Creating test net (#0) specified by net file: examples/cifar10/cifar10_Srivastavaet_train_test.prototxt
I1217 12:51:33.991099 24581 net.cpp:322] The NetState phase (1) differed from the phase (0) specified by a rule in layer cifar
I1217 12:51:33.991224 24581 net.cpp:58] Initializing net from parameters: 
name: "CIFAR10_full"
state {
  phase: TEST
}
layer {
  name: "cifar"
  type: "Data"
  top: "data"
  top: "label"
  include {
    phase: TEST
  }
  transform_param {
    mean_file: "examples/cifar10/mean.binaryproto"
  }
  data_param {
    source: "examples/cifar10/cifar10_test_lmdb"
    batch_size: 100
    backend: LMDB
  }
}
layer {
  name: "conv1"
  type: "Convolution"
  bottom: "data"
  top: "conv1"
  param {
    lr_mult: 1
  }
  param {
    lr_mult: 2
  }
  convolution_param {
    num_output: 96
    pad: 2
    kernel_size: 5
    stride: 1
    weight_filler {
      type: "gaussian"
      std: 0.0001
    }
    bias_filler {
      type: "constant"
    }
  }
}
layer {
  name: "drop1"
  type: "Dropout"
  bottom: "conv1"
  top: "conv1"
  dropout_param {
    dropout_ratio: 0.25
  }
}
layer {
  name: "pool1"
  type: "Pooling"
  bottom: "conv1"
  top: "pool1"
  pooling_param {
    pool: MAX
    kernel_size: 3
    stride: 2
  }
}
layer {
  name: "drop1_a"
  type: "Dropout"
  bottom: "pool1"
  top: "pool1"
  dropout_param {
    dropout_ratio: 0.25
  }
}
layer {
  name: "relu1"
  type: "ReLU"
  bottom: "pool1"
  top: "pool1"
}
layer {
  name: "conv2"
  type: "Convolution"
  bottom: "pool1"
  top: "conv2"
  param {
    lr_mult: 1
  }
  param {
    lr_mult: 2
  }
  convolution_param {
    num_output: 128
    pad: 2
    kernel_size: 5
    stride: 1
    weight_filler {
      type: "gaussian"
      std: 0.01
    }
    bias_filler {
      type: "constant"
    }
  }
}
layer {
  name: "relu2"
  type: "ReLU"
  bottom: "conv2"
  top: "conv2"
}
layer {
  name: "drop2"
  type: "Dropout"
  bottom: "conv2"
  top: "conv2"
  dropout_param {
    dropout_ratio: 0.25
  }
}
layer {
  name: "pool2"
  type: "Pooling"
  bottom: "conv2"
  top: "pool2"
  pooling_param {
    pool: AVE
    kernel_size: 3
    stride: 2
  }
}
layer {
  name: "drop2_a"
  type: "Dropout"
  bottom: "pool2"
  top: "pool2"
  dropout_param {
    dropout_ratio: 0.25
  }
}
layer {
  name: "conv3"
  type: "Convolution"
  bottom: "pool2"
  top: "conv3"
  convolution_param {
    num_output: 256
    pad: 2
    kernel_size: 5
    stride: 1
    weight_filler {
      type: "gaussian"
      std: 0.01
    }
    bias_filler {
      type: "constant"
    }
  }
}
layer {
  name: "relu3"
  type: "ReLU"
  bottom: "conv3"
  top: "conv3"
}
layer {
  name: "drop3"
  type: "Dropout"
  bottom: "conv3"
  top: "conv3"
  dropout_param {
    dropout_ratio: 0.25
  }
}
layer {
  name: "pool3"
  type: "Pooling"
  bottom: "conv3"
  top: "pool3"
  pooling_param {
    pool: AVE
    kernel_size: 3
    stride: 2
  }
}
layer {
  name: "drop3_a"
  type: "Dropout"
  bottom: "pool3"
  top: "pool3"
  dropout_param {
    dropout_ratio: 0.5
  }
}
layer {
  name: "ip1"
  type: "InnerProduct"
  bottom: "pool3"
  top: "ip1"
  param {
    lr_mult: 1
    decay_mult: 250
  }
  param {
    lr_mult: 2
    decay_mult: 0
  }
  inner_product_param {
    num_output: 2048
    weight_filler {
      type: "gaussian"
      std: 0.01
    }
    bias_filler {
      type: "constant"
    }
  }
}
layer {
  name: "drop_ip1"
  type: "Dropout"
  bottom: "ip1"
  top: "ip1"
  dropout_param {
    dropout_ratio: 0.5
  }
}
layer {
  name: "ip2"
  type: "InnerProduct"
  bottom: "ip1"
  top: "ip2"
  param {
    lr_mult: 1
    decay_mult: 250
  }
  param {
    lr_mult: 2
    decay_mult: 0
  }
  inner_product_param {
    num_output: 2048
    weight_filler {
      type: "gaussian"
      std: 0.01
    }
    bias_filler {
      type: "constant"
    }
  }
}
layer {
  name: "drop_ip2"
  type: "Dropout"
  bottom: "ip2"
  top: "ip2"
  dropout_param {
    dropout_ratio: 0.5
  }
}
layer {
  name: "ip3"
  type: "InnerProduct"
  bottom: "ip2"
  top: "ip3"
  param {
    lr_mult: 1
    decay_mult: 250
  }
  param {
    lr_mult: 2
    decay_mult: 0
  }
  inner_product_param {
    num_output: 10
    weight_filler {
      type: "gaussian"
      std: 0.01
    }
    bias_filler {
      type: "constant"
    }
  }
}
layer {
  name: "accuracy"
  type: "Accuracy"
  bottom: "ip3"
  bottom: "label"
  top: "accuracy"
  include {
    phase: TEST
  }
}
layer {
  name: "loss"
  type: "SoftmaxWithLoss"
  bottom: "ip3"
  bottom: "label"
  top: "loss"
}
I1217 12:51:33.991334 24581 layer_factory.hpp:77] Creating layer cifar
I1217 12:51:33.991449 24581 net.cpp:100] Creating Layer cifar
I1217 12:51:33.991477 24581 net.cpp:408] cifar -> data
I1217 12:51:33.991483 24581 net.cpp:408] cifar -> label
I1217 12:51:33.991492 24581 data_transformer.cpp:25] Loading mean file from: examples/cifar10/mean.binaryproto
I1217 12:51:33.992535 24602 db_lmdb.cpp:35] Opened lmdb examples/cifar10/cifar10_test_lmdb
I1217 12:51:33.992645 24581 data_layer.cpp:41] output data size: 100,3,32,32
I1217 12:51:33.995136 24581 net.cpp:150] Setting up cifar
I1217 12:51:33.995157 24581 net.cpp:157] Top shape: 100 3 32 32 (307200)
I1217 12:51:33.995160 24581 net.cpp:157] Top shape: 100 (100)
I1217 12:51:33.995164 24581 net.cpp:165] Memory required for data: 1229200
I1217 12:51:33.995168 24581 layer_factory.hpp:77] Creating layer label_cifar_1_split
I1217 12:51:33.995184 24581 net.cpp:100] Creating Layer label_cifar_1_split
I1217 12:51:33.995189 24581 net.cpp:434] label_cifar_1_split <- label
I1217 12:51:33.995196 24581 net.cpp:408] label_cifar_1_split -> label_cifar_1_split_0
I1217 12:51:33.995204 24581 net.cpp:408] label_cifar_1_split -> label_cifar_1_split_1
I1217 12:51:33.995282 24581 net.cpp:150] Setting up label_cifar_1_split
I1217 12:51:33.995290 24581 net.cpp:157] Top shape: 100 (100)
I1217 12:51:33.995293 24581 net.cpp:157] Top shape: 100 (100)
I1217 12:51:33.995298 24581 net.cpp:165] Memory required for data: 1230000
I1217 12:51:33.995301 24581 layer_factory.hpp:77] Creating layer conv1
I1217 12:51:33.995312 24581 net.cpp:100] Creating Layer conv1
I1217 12:51:33.995317 24581 net.cpp:434] conv1 <- data
I1217 12:51:33.995323 24581 net.cpp:408] conv1 -> conv1
I1217 12:51:33.996651 24581 net.cpp:150] Setting up conv1
I1217 12:51:33.996671 24581 net.cpp:157] Top shape: 100 96 32 32 (9830400)
I1217 12:51:33.996678 24581 net.cpp:165] Memory required for data: 40551600
I1217 12:51:33.996695 24581 layer_factory.hpp:77] Creating layer drop1
I1217 12:51:33.996704 24581 net.cpp:100] Creating Layer drop1
I1217 12:51:33.996707 24581 net.cpp:434] drop1 <- conv1
I1217 12:51:33.996712 24581 net.cpp:395] drop1 -> conv1 (in-place)
I1217 12:51:33.996739 24581 net.cpp:150] Setting up drop1
I1217 12:51:33.996747 24581 net.cpp:157] Top shape: 100 96 32 32 (9830400)
I1217 12:51:33.996749 24581 net.cpp:165] Memory required for data: 79873200
I1217 12:51:33.996755 24581 layer_factory.hpp:77] Creating layer pool1
I1217 12:51:33.996762 24581 net.cpp:100] Creating Layer pool1
I1217 12:51:33.996767 24581 net.cpp:434] pool1 <- conv1
I1217 12:51:33.996773 24581 net.cpp:408] pool1 -> pool1
I1217 12:51:33.996839 24581 net.cpp:150] Setting up pool1
I1217 12:51:33.996846 24581 net.cpp:157] Top shape: 100 96 16 16 (2457600)
I1217 12:51:33.996850 24581 net.cpp:165] Memory required for data: 89703600
I1217 12:51:33.996855 24581 layer_factory.hpp:77] Creating layer drop1_a
I1217 12:51:33.996860 24581 net.cpp:100] Creating Layer drop1_a
I1217 12:51:33.996865 24581 net.cpp:434] drop1_a <- pool1
I1217 12:51:33.996870 24581 net.cpp:395] drop1_a -> pool1 (in-place)
I1217 12:51:33.996896 24581 net.cpp:150] Setting up drop1_a
I1217 12:51:33.996903 24581 net.cpp:157] Top shape: 100 96 16 16 (2457600)
I1217 12:51:33.996907 24581 net.cpp:165] Memory required for data: 99534000
I1217 12:51:33.996911 24581 layer_factory.hpp:77] Creating layer relu1
I1217 12:51:33.996918 24581 net.cpp:100] Creating Layer relu1
I1217 12:51:33.996923 24581 net.cpp:434] relu1 <- pool1
I1217 12:51:33.996928 24581 net.cpp:395] relu1 -> pool1 (in-place)
I1217 12:51:33.997097 24581 net.cpp:150] Setting up relu1
I1217 12:51:33.997105 24581 net.cpp:157] Top shape: 100 96 16 16 (2457600)
I1217 12:51:33.997108 24581 net.cpp:165] Memory required for data: 109364400
I1217 12:51:33.997113 24581 layer_factory.hpp:77] Creating layer conv2
I1217 12:51:33.997131 24581 net.cpp:100] Creating Layer conv2
I1217 12:51:33.997138 24581 net.cpp:434] conv2 <- pool1
I1217 12:51:33.997144 24581 net.cpp:408] conv2 -> conv2
I1217 12:51:34.006918 24581 net.cpp:150] Setting up conv2
I1217 12:51:34.006949 24581 net.cpp:157] Top shape: 100 128 16 16 (3276800)
I1217 12:51:34.006953 24581 net.cpp:165] Memory required for data: 122471600
I1217 12:51:34.006970 24581 layer_factory.hpp:77] Creating layer relu2
I1217 12:51:34.006979 24581 net.cpp:100] Creating Layer relu2
I1217 12:51:34.006983 24581 net.cpp:434] relu2 <- conv2
I1217 12:51:34.006999 24581 net.cpp:395] relu2 -> conv2 (in-place)
I1217 12:51:34.007306 24581 net.cpp:150] Setting up relu2
I1217 12:51:34.007318 24581 net.cpp:157] Top shape: 100 128 16 16 (3276800)
I1217 12:51:34.007323 24581 net.cpp:165] Memory required for data: 135578800
I1217 12:51:34.007326 24581 layer_factory.hpp:77] Creating layer drop2
I1217 12:51:34.007333 24581 net.cpp:100] Creating Layer drop2
I1217 12:51:34.007336 24581 net.cpp:434] drop2 <- conv2
I1217 12:51:34.007344 24581 net.cpp:395] drop2 -> conv2 (in-place)
I1217 12:51:34.007369 24581 net.cpp:150] Setting up drop2
I1217 12:51:34.007375 24581 net.cpp:157] Top shape: 100 128 16 16 (3276800)
I1217 12:51:34.007380 24581 net.cpp:165] Memory required for data: 148686000
I1217 12:51:34.007385 24581 layer_factory.hpp:77] Creating layer pool2
I1217 12:51:34.007390 24581 net.cpp:100] Creating Layer pool2
I1217 12:51:34.007393 24581 net.cpp:434] pool2 <- conv2
I1217 12:51:34.007397 24581 net.cpp:408] pool2 -> pool2
I1217 12:51:34.007573 24581 net.cpp:150] Setting up pool2
I1217 12:51:34.007583 24581 net.cpp:157] Top shape: 100 128 8 8 (819200)
I1217 12:51:34.007586 24581 net.cpp:165] Memory required for data: 151962800
I1217 12:51:34.007591 24581 layer_factory.hpp:77] Creating layer drop2_a
I1217 12:51:34.007596 24581 net.cpp:100] Creating Layer drop2_a
I1217 12:51:34.007599 24581 net.cpp:434] drop2_a <- pool2
I1217 12:51:34.007606 24581 net.cpp:395] drop2_a -> pool2 (in-place)
I1217 12:51:34.007639 24581 net.cpp:150] Setting up drop2_a
I1217 12:51:34.007647 24581 net.cpp:157] Top shape: 100 128 8 8 (819200)
I1217 12:51:34.007652 24581 net.cpp:165] Memory required for data: 155239600
I1217 12:51:34.007654 24581 layer_factory.hpp:77] Creating layer conv3
I1217 12:51:34.007673 24581 net.cpp:100] Creating Layer conv3
I1217 12:51:34.007678 24581 net.cpp:434] conv3 <- pool2
I1217 12:51:34.007683 24581 net.cpp:408] conv3 -> conv3
I1217 12:51:34.031509 24581 net.cpp:150] Setting up conv3
I1217 12:51:34.031532 24581 net.cpp:157] Top shape: 100 256 8 8 (1638400)
I1217 12:51:34.031535 24581 net.cpp:165] Memory required for data: 161793200
I1217 12:51:34.031551 24581 layer_factory.hpp:77] Creating layer relu3
I1217 12:51:34.031559 24581 net.cpp:100] Creating Layer relu3
I1217 12:51:34.031563 24581 net.cpp:434] relu3 <- conv3
I1217 12:51:34.031585 24581 net.cpp:395] relu3 -> conv3 (in-place)
I1217 12:51:34.031869 24581 net.cpp:150] Setting up relu3
I1217 12:51:34.031880 24581 net.cpp:157] Top shape: 100 256 8 8 (1638400)
I1217 12:51:34.031883 24581 net.cpp:165] Memory required for data: 168346800
I1217 12:51:34.031888 24581 layer_factory.hpp:77] Creating layer drop3
I1217 12:51:34.031893 24581 net.cpp:100] Creating Layer drop3
I1217 12:51:34.031898 24581 net.cpp:434] drop3 <- conv3
I1217 12:51:34.031903 24581 net.cpp:395] drop3 -> conv3 (in-place)
I1217 12:51:34.031927 24581 net.cpp:150] Setting up drop3
I1217 12:51:34.031934 24581 net.cpp:157] Top shape: 100 256 8 8 (1638400)
I1217 12:51:34.031939 24581 net.cpp:165] Memory required for data: 174900400
I1217 12:51:34.031941 24581 layer_factory.hpp:77] Creating layer pool3
I1217 12:51:34.031946 24581 net.cpp:100] Creating Layer pool3
I1217 12:51:34.031950 24581 net.cpp:434] pool3 <- conv3
I1217 12:51:34.031955 24581 net.cpp:408] pool3 -> pool3
I1217 12:51:34.032115 24581 net.cpp:150] Setting up pool3
I1217 12:51:34.032124 24581 net.cpp:157] Top shape: 100 256 4 4 (409600)
I1217 12:51:34.032127 24581 net.cpp:165] Memory required for data: 176538800
I1217 12:51:34.032131 24581 layer_factory.hpp:77] Creating layer drop3_a
I1217 12:51:34.032140 24581 net.cpp:100] Creating Layer drop3_a
I1217 12:51:34.032143 24581 net.cpp:434] drop3_a <- pool3
I1217 12:51:34.032147 24581 net.cpp:395] drop3_a -> pool3 (in-place)
I1217 12:51:34.032171 24581 net.cpp:150] Setting up drop3_a
I1217 12:51:34.032177 24581 net.cpp:157] Top shape: 100 256 4 4 (409600)
I1217 12:51:34.032181 24581 net.cpp:165] Memory required for data: 178177200
I1217 12:51:34.032184 24581 layer_factory.hpp:77] Creating layer ip1
I1217 12:51:34.032191 24581 net.cpp:100] Creating Layer ip1
I1217 12:51:34.032194 24581 net.cpp:434] ip1 <- pool3
I1217 12:51:34.032199 24581 net.cpp:408] ip1 -> ip1
I1217 12:51:34.290457 24581 net.cpp:150] Setting up ip1
I1217 12:51:34.290503 24581 net.cpp:157] Top shape: 100 2048 (204800)
I1217 12:51:34.290508 24581 net.cpp:165] Memory required for data: 178996400
I1217 12:51:34.290529 24581 layer_factory.hpp:77] Creating layer drop_ip1
I1217 12:51:34.290549 24581 net.cpp:100] Creating Layer drop_ip1
I1217 12:51:34.290557 24581 net.cpp:434] drop_ip1 <- ip1
I1217 12:51:34.290567 24581 net.cpp:395] drop_ip1 -> ip1 (in-place)
I1217 12:51:34.290612 24581 net.cpp:150] Setting up drop_ip1
I1217 12:51:34.290621 24581 net.cpp:157] Top shape: 100 2048 (204800)
I1217 12:51:34.290628 24581 net.cpp:165] Memory required for data: 179815600
I1217 12:51:34.290635 24581 layer_factory.hpp:77] Creating layer ip2
I1217 12:51:34.290648 24581 net.cpp:100] Creating Layer ip2
I1217 12:51:34.290655 24581 net.cpp:434] ip2 <- ip1
I1217 12:51:34.290664 24581 net.cpp:408] ip2 -> ip2
I1217 12:51:34.405457 24581 net.cpp:150] Setting up ip2
I1217 12:51:34.405495 24581 net.cpp:157] Top shape: 100 2048 (204800)
I1217 12:51:34.405499 24581 net.cpp:165] Memory required for data: 180634800
I1217 12:51:34.405519 24581 layer_factory.hpp:77] Creating layer drop_ip2
I1217 12:51:34.405535 24581 net.cpp:100] Creating Layer drop_ip2
I1217 12:51:34.405540 24581 net.cpp:434] drop_ip2 <- ip2
I1217 12:51:34.405547 24581 net.cpp:395] drop_ip2 -> ip2 (in-place)
I1217 12:51:34.405585 24581 net.cpp:150] Setting up drop_ip2
I1217 12:51:34.405592 24581 net.cpp:157] Top shape: 100 2048 (204800)
I1217 12:51:34.405596 24581 net.cpp:165] Memory required for data: 181454000
I1217 12:51:34.405601 24581 layer_factory.hpp:77] Creating layer ip3
I1217 12:51:34.405616 24581 net.cpp:100] Creating Layer ip3
I1217 12:51:34.405622 24581 net.cpp:434] ip3 <- ip2
I1217 12:51:34.405627 24581 net.cpp:408] ip3 -> ip3
I1217 12:51:34.406232 24581 net.cpp:150] Setting up ip3
I1217 12:51:34.406240 24581 net.cpp:157] Top shape: 100 10 (1000)
I1217 12:51:34.406244 24581 net.cpp:165] Memory required for data: 181458000
I1217 12:51:34.406250 24581 layer_factory.hpp:77] Creating layer ip3_ip3_0_split
I1217 12:51:34.406265 24581 net.cpp:100] Creating Layer ip3_ip3_0_split
I1217 12:51:34.406292 24581 net.cpp:434] ip3_ip3_0_split <- ip3
I1217 12:51:34.406297 24581 net.cpp:408] ip3_ip3_0_split -> ip3_ip3_0_split_0
I1217 12:51:34.406302 24581 net.cpp:408] ip3_ip3_0_split -> ip3_ip3_0_split_1
I1217 12:51:34.406335 24581 net.cpp:150] Setting up ip3_ip3_0_split
I1217 12:51:34.406342 24581 net.cpp:157] Top shape: 100 10 (1000)
I1217 12:51:34.406347 24581 net.cpp:157] Top shape: 100 10 (1000)
I1217 12:51:34.406349 24581 net.cpp:165] Memory required for data: 181466000
I1217 12:51:34.406353 24581 layer_factory.hpp:77] Creating layer accuracy
I1217 12:51:34.406373 24581 net.cpp:100] Creating Layer accuracy
I1217 12:51:34.406378 24581 net.cpp:434] accuracy <- ip3_ip3_0_split_0
I1217 12:51:34.406381 24581 net.cpp:434] accuracy <- label_cifar_1_split_0
I1217 12:51:34.406386 24581 net.cpp:408] accuracy -> accuracy
…
