…
I1217 14:16:52.008419 25773 net.cpp:322] The NetState phase (0) differed from the phase (1) specified by a rule in layer accuracy
I1217 14:16:52.008544 25773 net.cpp:58] Initializing net from parameters: 
name: "CIFAR10_full"
state {
  phase: TRAIN
  level: 0
  stage: ""
}
layer {
  name: "cifar"
  type: "Data"
  top: "data"
  top: "label"
  include {
    phase: TRAIN
  }
  transform_param {
    mean_file: "examples/cifar10/mean.binaryproto"
  }
  data_param {
    source: "examples/cifar10/cifar10_train_lmdb"
    batch_size: 100
    backend: LMDB
  }
}
layer {
  name: "conv1"
  type: "Convolution"
  bottom: "data"
  top: "conv1"
  param {
    lr_mult: 1
  }
  param {
    lr_mult: 2
  }
  convolution_param {
    num_output: 96
    pad: 2
    kernel_size: 5
    stride: 1
    weight_filler {
      type: "gaussian"
      std: 0.0001
    }
    bias_filler {
      type: "constant"
    }
  }
}
layer {
  name: "drop1"
  type: "Dropout"
  bottom: "conv1"
  top: "conv1"
  dropout_param {
    dropout_ratio: 0.25
  }
}
layer {
  name: "pool1"
  type: "Pooling"
  bottom: "conv1"
  top: "pool1"
  pooling_param {
    pool: MAX
    kernel_size: 3
    stride: 2
  }
}
layer {
  name: "drop1_a"
  type: "Dropout"
  bottom: "pool1"
  top: "pool1"
  dropout_param {
    dropout_ratio: 0.25
  }
}
layer {
  name: "relu1"
  type: "ReLU"
  bottom: "pool1"
  top: "pool1"
}
layer {
  name: "conv2"
  type: "Convolution"
  bottom: "pool1"
  top: "conv2"
  param {
    lr_mult: 1
  }
  param {
    lr_mult: 2
  }
  convolution_param {
    num_output: 128
    pad: 2
    kernel_size: 5
    stride: 1
    weight_filler {
      type: "gaussian"
      std: 0.01
    }
    bias_filler {
      type: "constant"
    }
  }
}
layer {
  name: "relu2"
  type: "ReLU"
  bottom: "conv2"
  top: "conv2"
}
layer {
  name: "drop2"
  type: "Dropout"
  bottom: "conv2"
  top: "conv2"
  dropout_param {
    dropout_ratio: 0.25
  }
}
layer {
  name: "pool2"
  type: "Pooling"
  bottom: "conv2"
  top: "pool2"
  pooling_param {
    pool: AVE
    kernel_size: 3
    stride: 2
  }
}
layer {
  name: "drop2_a"
  type: "Dropout"
  bottom: "pool2"
  top: "pool2"
  dropout_param {
    dropout_ratio: 0.25
  }
}
layer {
  name: "conv3"
  type: "Convolution"
  bottom: "pool2"
  top: "conv3"
  convolution_param {
    num_output: 256
    pad: 2
    kernel_size: 5
    stride: 1
    weight_filler {
      type: "gaussian"
      std: 0.01
    }
    bias_filler {
      type: "constant"
    }
  }
}
layer {
  name: "relu3"
  type: "ReLU"
  bottom: "conv3"
  top: "conv3"
}
layer {
  name: "drop3"
  type: "Dropout"
  bottom: "conv3"
  top: "conv3"
  dropout_param {
    dropout_ratio: 0.25
  }
}
layer {
  name: "pool3"
  type: "Pooling"
  bottom: "conv3"
  top: "pool3"
  pooling_param {
    pool: AVE
    kernel_size: 3
    stride: 2
  }
}
layer {
  name: "drop3_a"
  type: "Dropout"
  bottom: "pool3"
  top: "pool3"
  dropout_param {
    dropout_ratio: 0.5
  }
}
layer {
  name: "ip1"
  type: "InnerProduct"
  bottom: "pool3"
  top: "ip1"
  param {
    lr_mult: 1
    decay_mult: 250
  }
  param {
    lr_mult: 2
    decay_mult: 0
  }
  inner_product_param {
    num_output: 2048
    weight_filler {
      type: "gaussian"
      std: 0.01
    }
    bias_filler {
      type: "constant"
    }
  }
}
layer {
  name: "drop_ip1"
  type: "Dropout"
  bottom: "ip1"
  top: "ip1"
  dropout_param {
    dropout_ratio: 0.5
  }
}
layer {
  name: "ip2"
  type: "InnerProduct"
  bottom: "ip1"
  top: "ip2"
  param {
    lr_mult: 1
    decay_mult: 250
  }
  param {
    lr_mult: 2
    decay_mult: 0
  }
  inner_product_param {
    num_output: 2048
    weight_filler {
      type: "gaussian"
      std: 0.01
    }
    bias_filler {
      type: "constant"
    }
  }
}
layer {
  name: "drop_ip2"
  type: "Dropout"
  bottom: "ip2"
  top: "ip2"
  dropout_param {
    dropout_ratio: 0.5
  }
}
layer {
  name: "ip3"
  type: "InnerProduct"
  bottom: "ip2"
  top: "ip3"
  param {
    lr_mult: 1
    decay_mult: 250
  }
  param {
    lr_mult: 2
    decay_mult: 0
  }
  inner_product_param {
    num_output: 10
    weight_filler {
      type: "gaussian"
      std: 0.01
    }
    bias_filler {
      type: "constant"
    }
  }
}
layer {
  name: "loss"
  type: "SoftmaxWithLoss"
  bottom: "ip3"
  bottom: "label"
  top: "loss"
}
I1217 14:16:52.008667 25773 layer_factory.hpp:77] Creating layer cifar
I1217 14:16:52.009194 25773 net.cpp:100] Creating Layer cifar
I1217 14:16:52.009214 25773 net.cpp:408] cifar -> data
I1217 14:16:52.009271 25773 net.cpp:408] cifar -> label
I1217 14:16:52.009294 25773 data_transformer.cpp:25] Loading mean file from: examples/cifar10/mean.binaryproto
I1217 14:16:52.010043 25792 db_lmdb.cpp:35] Opened lmdb examples/cifar10/cifar10_train_lmdb
I1217 14:16:52.027710 25773 data_layer.cpp:41] output data size: 100,3,32,32
I1217 14:16:52.030129 25773 net.cpp:150] Setting up cifar
I1217 14:16:52.030158 25773 net.cpp:157] Top shape: 100 3 32 32 (307200)
I1217 14:16:52.030163 25773 net.cpp:157] Top shape: 100 (100)
I1217 14:16:52.030166 25773 net.cpp:165] Memory required for data: 1229200
I1217 14:16:52.030174 25773 layer_factory.hpp:77] Creating layer conv1
I1217 14:16:52.030203 25773 net.cpp:100] Creating Layer conv1
I1217 14:16:52.030210 25773 net.cpp:434] conv1 <- data
I1217 14:16:52.030226 25773 net.cpp:408] conv1 -> conv1
I1217 14:16:52.197530 25773 net.cpp:150] Setting up conv1
I1217 14:16:52.197567 25773 net.cpp:157] Top shape: 100 96 32 32 (9830400)
I1217 14:16:52.197572 25773 net.cpp:165] Memory required for data: 40550800
I1217 14:16:52.197599 25773 layer_factory.hpp:77] Creating layer drop1
I1217 14:16:52.197619 25773 net.cpp:100] Creating Layer drop1
I1217 14:16:52.197626 25773 net.cpp:434] drop1 <- conv1
I1217 14:16:52.197633 25773 net.cpp:395] drop1 -> conv1 (in-place)
I1217 14:16:52.197670 25773 net.cpp:150] Setting up drop1
I1217 14:16:52.197677 25773 net.cpp:157] Top shape: 100 96 32 32 (9830400)
I1217 14:16:52.197680 25773 net.cpp:165] Memory required for data: 79872400
I1217 14:16:52.197687 25773 layer_factory.hpp:77] Creating layer pool1
I1217 14:16:52.197703 25773 net.cpp:100] Creating Layer pool1
I1217 14:16:52.197707 25773 net.cpp:434] pool1 <- conv1
I1217 14:16:52.197712 25773 net.cpp:408] pool1 -> pool1
I1217 14:16:52.197758 25773 net.cpp:150] Setting up pool1
I1217 14:16:52.197765 25773 net.cpp:157] Top shape: 100 96 16 16 (2457600)
I1217 14:16:52.197768 25773 net.cpp:165] Memory required for data: 89702800
I1217 14:16:52.197774 25773 layer_factory.hpp:77] Creating layer drop1_a
I1217 14:16:52.197779 25773 net.cpp:100] Creating Layer drop1_a
I1217 14:16:52.197784 25773 net.cpp:434] drop1_a <- pool1
I1217 14:16:52.197788 25773 net.cpp:395] drop1_a -> pool1 (in-place)
I1217 14:16:52.197813 25773 net.cpp:150] Setting up drop1_a
I1217 14:16:52.197818 25773 net.cpp:157] Top shape: 100 96 16 16 (2457600)
I1217 14:16:52.197821 25773 net.cpp:165] Memory required for data: 99533200
I1217 14:16:52.197825 25773 layer_factory.hpp:77] Creating layer relu1
I1217 14:16:52.197832 25773 net.cpp:100] Creating Layer relu1
I1217 14:16:52.197836 25773 net.cpp:434] relu1 <- pool1
I1217 14:16:52.197840 25773 net.cpp:395] relu1 -> pool1 (in-place)
I1217 14:16:52.198106 25773 net.cpp:150] Setting up relu1
I1217 14:16:52.198115 25773 net.cpp:157] Top shape: 100 96 16 16 (2457600)
I1217 14:16:52.198119 25773 net.cpp:165] Memory required for data: 109363600
I1217 14:16:52.198123 25773 layer_factory.hpp:77] Creating layer conv2
I1217 14:16:52.198163 25773 net.cpp:100] Creating Layer conv2
I1217 14:16:52.198169 25773 net.cpp:434] conv2 <- pool1
I1217 14:16:52.198174 25773 net.cpp:408] conv2 -> conv2
I1217 14:16:52.207002 25773 net.cpp:150] Setting up conv2
I1217 14:16:52.207015 25773 net.cpp:157] Top shape: 100 128 16 16 (3276800)
I1217 14:16:52.207018 25773 net.cpp:165] Memory required for data: 122470800
I1217 14:16:52.207034 25773 layer_factory.hpp:77] Creating layer relu2
I1217 14:16:52.207043 25773 net.cpp:100] Creating Layer relu2
I1217 14:16:52.207047 25773 net.cpp:434] relu2 <- conv2
I1217 14:16:52.207052 25773 net.cpp:395] relu2 -> conv2 (in-place)
I1217 14:16:52.207203 25773 net.cpp:150] Setting up relu2
I1217 14:16:52.207212 25773 net.cpp:157] Top shape: 100 128 16 16 (3276800)
I1217 14:16:52.207236 25773 net.cpp:165] Memory required for data: 135578000
I1217 14:16:52.207239 25773 layer_factory.hpp:77] Creating layer drop2
I1217 14:16:52.207247 25773 net.cpp:100] Creating Layer drop2
I1217 14:16:52.207258 25773 net.cpp:434] drop2 <- conv2
I1217 14:16:52.207263 25773 net.cpp:395] drop2 -> conv2 (in-place)
I1217 14:16:52.207285 25773 net.cpp:150] Setting up drop2
I1217 14:16:52.207291 25773 net.cpp:157] Top shape: 100 128 16 16 (3276800)
I1217 14:16:52.207294 25773 net.cpp:165] Memory required for data: 148685200
I1217 14:16:52.207298 25773 layer_factory.hpp:77] Creating layer pool2
I1217 14:16:52.207304 25773 net.cpp:100] Creating Layer pool2
I1217 14:16:52.207317 25773 net.cpp:434] pool2 <- conv2
I1217 14:16:52.207321 25773 net.cpp:408] pool2 -> pool2
I1217 14:16:52.207609 25773 net.cpp:150] Setting up pool2
I1217 14:16:52.207628 25773 net.cpp:157] Top shape: 100 128 8 8 (819200)
I1217 14:16:52.207631 25773 net.cpp:165] Memory required for data: 151962000
I1217 14:16:52.207634 25773 layer_factory.hpp:77] Creating layer drop2_a
I1217 14:16:52.207641 25773 net.cpp:100] Creating Layer drop2_a
I1217 14:16:52.207653 25773 net.cpp:434] drop2_a <- pool2
I1217 14:16:52.207657 25773 net.cpp:395] drop2_a -> pool2 (in-place)
I1217 14:16:52.207674 25773 net.cpp:150] Setting up drop2_a
I1217 14:16:52.207680 25773 net.cpp:157] Top shape: 100 128 8 8 (819200)
I1217 14:16:52.207684 25773 net.cpp:165] Memory required for data: 155238800
I1217 14:16:52.207686 25773 layer_factory.hpp:77] Creating layer conv3
I1217 14:16:52.207702 25773 net.cpp:100] Creating Layer conv3
I1217 14:16:52.207707 25773 net.cpp:434] conv3 <- pool2
I1217 14:16:52.207713 25773 net.cpp:408] conv3 -> conv3
I1217 14:16:52.229185 25773 net.cpp:150] Setting up conv3
I1217 14:16:52.229205 25773 net.cpp:157] Top shape: 100 256 8 8 (1638400)
I1217 14:16:52.229208 25773 net.cpp:165] Memory required for data: 161792400
I1217 14:16:52.229225 25773 layer_factory.hpp:77] Creating layer relu3
I1217 14:16:52.229233 25773 net.cpp:100] Creating Layer relu3
I1217 14:16:52.229239 25773 net.cpp:434] relu3 <- conv3
I1217 14:16:52.229243 25773 net.cpp:395] relu3 -> conv3 (in-place)
I1217 14:16:52.229506 25773 net.cpp:150] Setting up relu3
I1217 14:16:52.229524 25773 net.cpp:157] Top shape: 100 256 8 8 (1638400)
I1217 14:16:52.229527 25773 net.cpp:165] Memory required for data: 168346000
I1217 14:16:52.229532 25773 layer_factory.hpp:77] Creating layer drop3
I1217 14:16:52.229537 25773 net.cpp:100] Creating Layer drop3
I1217 14:16:52.229542 25773 net.cpp:434] drop3 <- conv3
I1217 14:16:52.229547 25773 net.cpp:395] drop3 -> conv3 (in-place)
I1217 14:16:52.229568 25773 net.cpp:150] Setting up drop3
I1217 14:16:52.229574 25773 net.cpp:157] Top shape: 100 256 8 8 (1638400)
I1217 14:16:52.229578 25773 net.cpp:165] Memory required for data: 174899600
I1217 14:16:52.229580 25773 layer_factory.hpp:77] Creating layer pool3
I1217 14:16:52.229588 25773 net.cpp:100] Creating Layer pool3
I1217 14:16:52.229590 25773 net.cpp:434] pool3 <- conv3
I1217 14:16:52.229598 25773 net.cpp:408] pool3 -> pool3
I1217 14:16:52.229740 25773 net.cpp:150] Setting up pool3
I1217 14:16:52.229749 25773 net.cpp:157] Top shape: 100 256 4 4 (409600)
I1217 14:16:52.229754 25773 net.cpp:165] Memory required for data: 176538000
I1217 14:16:52.229768 25773 layer_factory.hpp:77] Creating layer drop3_a
I1217 14:16:52.229774 25773 net.cpp:100] Creating Layer drop3_a
I1217 14:16:52.229778 25773 net.cpp:434] drop3_a <- pool3
I1217 14:16:52.229782 25773 net.cpp:395] drop3_a -> pool3 (in-place)
I1217 14:16:52.229810 25773 net.cpp:150] Setting up drop3_a
I1217 14:16:52.229816 25773 net.cpp:157] Top shape: 100 256 4 4 (409600)
I1217 14:16:52.229820 25773 net.cpp:165] Memory required for data: 178176400
I1217 14:16:52.229825 25773 layer_factory.hpp:77] Creating layer ip1
I1217 14:16:52.229835 25773 net.cpp:100] Creating Layer ip1
I1217 14:16:52.229840 25773 net.cpp:434] ip1 <- pool3
I1217 14:16:52.229846 25773 net.cpp:408] ip1 -> ip1
I1217 14:16:52.445550 25773 net.cpp:150] Setting up ip1
I1217 14:16:52.445588 25773 net.cpp:157] Top shape: 100 2048 (204800)
I1217 14:16:52.445592 25773 net.cpp:165] Memory required for data: 178995600
I1217 14:16:52.445608 25773 layer_factory.hpp:77] Creating layer drop_ip1
I1217 14:16:52.445631 25773 net.cpp:100] Creating Layer drop_ip1
I1217 14:16:52.445634 25773 net.cpp:434] drop_ip1 <- ip1
I1217 14:16:52.445641 25773 net.cpp:395] drop_ip1 -> ip1 (in-place)
I1217 14:16:52.445673 25773 net.cpp:150] Setting up drop_ip1
I1217 14:16:52.445680 25773 net.cpp:157] Top shape: 100 2048 (204800)
I1217 14:16:52.445693 25773 net.cpp:165] Memory required for data: 179814800
I1217 14:16:52.445695 25773 layer_factory.hpp:77] Creating layer ip2
I1217 14:16:52.445703 25773 net.cpp:100] Creating Layer ip2
I1217 14:16:52.445706 25773 net.cpp:434] ip2 <- ip1
I1217 14:16:52.445711 25773 net.cpp:408] ip2 -> ip2
I1217 14:16:52.552320 25773 net.cpp:150] Setting up ip2
I1217 14:16:52.552356 25773 net.cpp:157] Top shape: 100 2048 (204800)
I1217 14:16:52.552361 25773 net.cpp:165] Memory required for data: 180634000
I1217 14:16:52.552381 25773 layer_factory.hpp:77] Creating layer drop_ip2
I1217 14:16:52.552399 25773 net.cpp:100] Creating Layer drop_ip2
I1217 14:16:52.552404 25773 net.cpp:434] drop_ip2 <- ip2
I1217 14:16:52.552410 25773 net.cpp:395] drop_ip2 -> ip2 (in-place)
I1217 14:16:52.552445 25773 net.cpp:150] Setting up drop_ip2
I1217 14:16:52.552451 25773 net.cpp:157] Top shape: 100 2048 (204800)
I1217 14:16:52.552454 25773 net.cpp:165] Memory required for data: 181453200
I1217 14:16:52.552458 25773 layer_factory.hpp:77] Creating layer ip3
I1217 14:16:52.552474 25773 net.cpp:100] Creating Layer ip3
I1217 14:16:52.552479 25773 net.cpp:434] ip3 <- ip2
I1217 14:16:52.552484 25773 net.cpp:408] ip3 -> ip3
I1217 14:16:52.553490 25773 net.cpp:150] Setting up ip3
I1217 14:16:52.553501 25773 net.cpp:157] Top shape: 100 10 (1000)
I1217 14:16:52.553504 25773 net.cpp:165] Memory required for data: 181457200
I1217 14:16:52.553510 25773 layer_factory.hpp:77] Creating layer loss
I1217 14:16:52.553527 25773 net.cpp:100] Creating Layer loss
I1217 14:16:52.553532 25773 net.cpp:434] loss <- ip3
I1217 14:16:52.553537 25773 net.cpp:434] loss <- label
I1217 14:16:52.553544 25773 net.cpp:408] loss -> loss
I1217 14:16:52.553565 25773 layer_factory.hpp:77] Creating layer loss
…
I1217 14:16:52.554527 25773 solver.cpp:181] Creating test net (#0) specified by net file: examples/cifar10/cifar10_Srivastavaet_train_test.prototxt
I1217 14:16:52.554561 25773 net.cpp:322] The NetState phase (1) differed from the phase (0) specified by a rule in layer cifar
I1217 14:16:52.554679 25773 net.cpp:58] Initializing net from parameters: 
name: "CIFAR10_full"
state {
  phase: TEST
}
layer {
  name: "cifar"
  type: "Data"
  top: "data"
  top: "label"
  include {
    phase: TEST
  }
  transform_param {
    mean_file: "examples/cifar10/mean.binaryproto"
  }
  data_param {
    source: "examples/cifar10/cifar10_test_lmdb"
    batch_size: 100
    backend: LMDB
  }
}
layer {
  name: "conv1"
  type: "Convolution"
  bottom: "data"
  top: "conv1"
  param {
    lr_mult: 1
  }
  param {
    lr_mult: 2
  }
  convolution_param {
    num_output: 96
    pad: 2
    kernel_size: 5
    stride: 1
    weight_filler {
      type: "gaussian"
      std: 0.0001
    }
    bias_filler {
      type: "constant"
    }
  }
}
layer {
  name: "drop1"
  type: "Dropout"
  bottom: "conv1"
  top: "conv1"
  dropout_param {
    dropout_ratio: 0.25
  }
}
layer {
  name: "pool1"
  type: "Pooling"
  bottom: "conv1"
  top: "pool1"
  pooling_param {
    pool: MAX
    kernel_size: 3
    stride: 2
  }
}
layer {
  name: "drop1_a"
  type: "Dropout"
  bottom: "pool1"
  top: "pool1"
  dropout_param {
    dropout_ratio: 0.25
  }
}
layer {
  name: "relu1"
  type: "ReLU"
  bottom: "pool1"
  top: "pool1"
}
layer {
  name: "conv2"
  type: "Convolution"
  bottom: "pool1"
  top: "conv2"
  param {
    lr_mult: 1
  }
  param {
    lr_mult: 2
  }
  convolution_param {
    num_output: 128
    pad: 2
    kernel_size: 5
    stride: 1
    weight_filler {
      type: "gaussian"
      std: 0.01
    }
    bias_filler {
      type: "constant"
    }
  }
}
layer {
  name: "relu2"
  type: "ReLU"
  bottom: "conv2"
  top: "conv2"
}
layer {
  name: "drop2"
  type: "Dropout"
  bottom: "conv2"
  top: "conv2"
  dropout_param {
    dropout_ratio: 0.25
  }
}
layer {
  name: "pool2"
  type: "Pooling"
  bottom: "conv2"
  top: "pool2"
  pooling_param {
    pool: AVE
    kernel_size: 3
    stride: 2
  }
}
layer {
  name: "drop2_a"
  type: "Dropout"
  bottom: "pool2"
  top: "pool2"
  dropout_param {
    dropout_ratio: 0.25
  }
}
layer {
  name: "conv3"
  type: "Convolution"
  bottom: "pool2"
  top: "conv3"
  convolution_param {
    num_output: 256
    pad: 2
    kernel_size: 5
    stride: 1
    weight_filler {
      type: "gaussian"
      std: 0.01
    }
    bias_filler {
      type: "constant"
    }
  }
}
layer {
  name: "relu3"
  type: "ReLU"
  bottom: "conv3"
  top: "conv3"
}
layer {
  name: "drop3"
  type: "Dropout"
  bottom: "conv3"
  top: "conv3"
  dropout_param {
    dropout_ratio: 0.25
  }
}
layer {
  name: "pool3"
  type: "Pooling"
  bottom: "conv3"
  top: "pool3"
  pooling_param {
    pool: AVE
    kernel_size: 3
    stride: 2
  }
}
layer {
  name: "drop3_a"
  type: "Dropout"
  bottom: "pool3"
  top: "pool3"
  dropout_param {
    dropout_ratio: 0.5
  }
}
layer {
  name: "ip1"
  type: "InnerProduct"
  bottom: "pool3"
  top: "ip1"
  param {
    lr_mult: 1
    decay_mult: 250
  }
  param {
    lr_mult: 2
    decay_mult: 0
  }
  inner_product_param {
    num_output: 2048
    weight_filler {
      type: "gaussian"
      std: 0.01
    }
    bias_filler {
      type: "constant"
    }
  }
}
layer {
  name: "drop_ip1"
  type: "Dropout"
  bottom: "ip1"
  top: "ip1"
  dropout_param {
    dropout_ratio: 0.5
  }
}
layer {
  name: "ip2"
  type: "InnerProduct"
  bottom: "ip1"
  top: "ip2"
  param {
    lr_mult: 1
    decay_mult: 250
  }
  param {
    lr_mult: 2
    decay_mult: 0
  }
  inner_product_param {
    num_output: 2048
    weight_filler {
      type: "gaussian"
      std: 0.01
    }
    bias_filler {
      type: "constant"
    }
  }
}
layer {
  name: "drop_ip2"
  type: "Dropout"
  bottom: "ip2"
  top: "ip2"
  dropout_param {
    dropout_ratio: 0.5
  }
}
layer {
  name: "ip3"
  type: "InnerProduct"
  bottom: "ip2"
  top: "ip3"
  param {
    lr_mult: 1
    decay_mult: 250
  }
  param {
    lr_mult: 2
    decay_mult: 0
  }
  inner_product_param {
    num_output: 10
    weight_filler {
      type: "gaussian"
      std: 0.01
    }
    bias_filler {
      type: "constant"
    }
  }
}
layer {
  name: "accuracy"
  type: "Accuracy"
  bottom: "ip3"
  bottom: "label"
  top: "accuracy"
  include {
    phase: TEST
  }
}
layer {
  name: "loss"
  type: "SoftmaxWithLoss"
  bottom: "ip3"
  bottom: "label"
  top: "loss"
}
I1217 14:16:52.554785 25773 layer_factory.hpp:77] Creating layer cifar
I1217 14:16:52.554885 25773 net.cpp:100] Creating Layer cifar
I1217 14:16:52.554913 25773 net.cpp:408] cifar -> data
I1217 14:16:52.554944 25773 net.cpp:408] cifar -> label
I1217 14:16:52.554954 25773 data_transformer.cpp:25] Loading mean file from: examples/cifar10/mean.binaryproto
I1217 14:16:52.556586 25794 db_lmdb.cpp:35] Opened lmdb examples/cifar10/cifar10_test_lmdb
I1217 14:16:52.556713 25773 data_layer.cpp:41] output data size: 100,3,32,32
I1217 14:16:52.559080 25773 net.cpp:150] Setting up cifar
I1217 14:16:52.559092 25773 net.cpp:157] Top shape: 100 3 32 32 (307200)
I1217 14:16:52.559098 25773 net.cpp:157] Top shape: 100 (100)
I1217 14:16:52.559101 25773 net.cpp:165] Memory required for data: 1229200
I1217 14:16:52.559105 25773 layer_factory.hpp:77] Creating layer label_cifar_1_split
I1217 14:16:52.559115 25773 net.cpp:100] Creating Layer label_cifar_1_split
I1217 14:16:52.559120 25773 net.cpp:434] label_cifar_1_split <- label
I1217 14:16:52.559125 25773 net.cpp:408] label_cifar_1_split -> label_cifar_1_split_0
I1217 14:16:52.559135 25773 net.cpp:408] label_cifar_1_split -> label_cifar_1_split_1
I1217 14:16:52.559195 25773 net.cpp:150] Setting up label_cifar_1_split
I1217 14:16:52.559201 25773 net.cpp:157] Top shape: 100 (100)
I1217 14:16:52.559206 25773 net.cpp:157] Top shape: 100 (100)
I1217 14:16:52.559208 25773 net.cpp:165] Memory required for data: 1230000
I1217 14:16:52.559213 25773 layer_factory.hpp:77] Creating layer conv1
I1217 14:16:52.559233 25773 net.cpp:100] Creating Layer conv1
I1217 14:16:52.559238 25773 net.cpp:434] conv1 <- data
I1217 14:16:52.559245 25773 net.cpp:408] conv1 -> conv1
I1217 14:16:52.560525 25773 net.cpp:150] Setting up conv1
I1217 14:16:52.560556 25773 net.cpp:157] Top shape: 100 96 32 32 (9830400)
I1217 14:16:52.560575 25773 net.cpp:165] Memory required for data: 40551600
I1217 14:16:52.560585 25773 layer_factory.hpp:77] Creating layer drop1
I1217 14:16:52.560590 25773 net.cpp:100] Creating Layer drop1
I1217 14:16:52.560593 25773 net.cpp:434] drop1 <- conv1
I1217 14:16:52.560600 25773 net.cpp:395] drop1 -> conv1 (in-place)
I1217 14:16:52.560623 25773 net.cpp:150] Setting up drop1
I1217 14:16:52.560631 25773 net.cpp:157] Top shape: 100 96 32 32 (9830400)
I1217 14:16:52.560633 25773 net.cpp:165] Memory required for data: 79873200
I1217 14:16:52.560637 25773 layer_factory.hpp:77] Creating layer pool1
I1217 14:16:52.560643 25773 net.cpp:100] Creating Layer pool1
I1217 14:16:52.560647 25773 net.cpp:434] pool1 <- conv1
I1217 14:16:52.560652 25773 net.cpp:408] pool1 -> pool1
I1217 14:16:52.560703 25773 net.cpp:150] Setting up pool1
I1217 14:16:52.560711 25773 net.cpp:157] Top shape: 100 96 16 16 (2457600)
I1217 14:16:52.560714 25773 net.cpp:165] Memory required for data: 89703600
I1217 14:16:52.560719 25773 layer_factory.hpp:77] Creating layer drop1_a
I1217 14:16:52.560724 25773 net.cpp:100] Creating Layer drop1_a
I1217 14:16:52.560727 25773 net.cpp:434] drop1_a <- pool1
I1217 14:16:52.560731 25773 net.cpp:395] drop1_a -> pool1 (in-place)
I1217 14:16:52.560755 25773 net.cpp:150] Setting up drop1_a
I1217 14:16:52.560761 25773 net.cpp:157] Top shape: 100 96 16 16 (2457600)
I1217 14:16:52.560765 25773 net.cpp:165] Memory required for data: 99534000
I1217 14:16:52.560768 25773 layer_factory.hpp:77] Creating layer relu1
I1217 14:16:52.560772 25773 net.cpp:100] Creating Layer relu1
I1217 14:16:52.560775 25773 net.cpp:434] relu1 <- pool1
I1217 14:16:52.560781 25773 net.cpp:395] relu1 -> pool1 (in-place)
I1217 14:16:52.560928 25773 net.cpp:150] Setting up relu1
I1217 14:16:52.560938 25773 net.cpp:157] Top shape: 100 96 16 16 (2457600)
I1217 14:16:52.560941 25773 net.cpp:165] Memory required for data: 109364400
I1217 14:16:52.560945 25773 layer_factory.hpp:77] Creating layer conv2
I1217 14:16:52.560962 25773 net.cpp:100] Creating Layer conv2
I1217 14:16:52.560967 25773 net.cpp:434] conv2 <- pool1
I1217 14:16:52.560973 25773 net.cpp:408] conv2 -> conv2
I1217 14:16:52.570402 25773 net.cpp:150] Setting up conv2
I1217 14:16:52.570416 25773 net.cpp:157] Top shape: 100 128 16 16 (3276800)
I1217 14:16:52.570421 25773 net.cpp:165] Memory required for data: 122471600
I1217 14:16:52.570437 25773 layer_factory.hpp:77] Creating layer relu2
I1217 14:16:52.570452 25773 net.cpp:100] Creating Layer relu2
I1217 14:16:52.570456 25773 net.cpp:434] relu2 <- conv2
I1217 14:16:52.570461 25773 net.cpp:395] relu2 -> conv2 (in-place)
I1217 14:16:52.570773 25773 net.cpp:150] Setting up relu2
I1217 14:16:52.570785 25773 net.cpp:157] Top shape: 100 128 16 16 (3276800)
I1217 14:16:52.570788 25773 net.cpp:165] Memory required for data: 135578800
I1217 14:16:52.570793 25773 layer_factory.hpp:77] Creating layer drop2
I1217 14:16:52.570801 25773 net.cpp:100] Creating Layer drop2
I1217 14:16:52.570804 25773 net.cpp:434] drop2 <- conv2
I1217 14:16:52.570811 25773 net.cpp:395] drop2 -> conv2 (in-place)
I1217 14:16:52.570830 25773 net.cpp:150] Setting up drop2
I1217 14:16:52.570835 25773 net.cpp:157] Top shape: 100 128 16 16 (3276800)
I1217 14:16:52.570838 25773 net.cpp:165] Memory required for data: 148686000
I1217 14:16:52.570842 25773 layer_factory.hpp:77] Creating layer pool2
I1217 14:16:52.570847 25773 net.cpp:100] Creating Layer pool2
I1217 14:16:52.570850 25773 net.cpp:434] pool2 <- conv2
I1217 14:16:52.570857 25773 net.cpp:408] pool2 -> pool2
I1217 14:16:52.571063 25773 net.cpp:150] Setting up pool2
I1217 14:16:52.571074 25773 net.cpp:157] Top shape: 100 128 8 8 (819200)
I1217 14:16:52.571079 25773 net.cpp:165] Memory required for data: 151962800
I1217 14:16:52.571082 25773 layer_factory.hpp:77] Creating layer drop2_a
I1217 14:16:52.571089 25773 net.cpp:100] Creating Layer drop2_a
I1217 14:16:52.571092 25773 net.cpp:434] drop2_a <- pool2
I1217 14:16:52.571097 25773 net.cpp:395] drop2_a -> pool2 (in-place)
I1217 14:16:52.571122 25773 net.cpp:150] Setting up drop2_a
I1217 14:16:52.571135 25773 net.cpp:157] Top shape: 100 128 8 8 (819200)
I1217 14:16:52.571138 25773 net.cpp:165] Memory required for data: 155239600
I1217 14:16:52.571141 25773 layer_factory.hpp:77] Creating layer conv3
I1217 14:16:52.571151 25773 net.cpp:100] Creating Layer conv3
I1217 14:16:52.571159 25773 net.cpp:434] conv3 <- pool2
I1217 14:16:52.571166 25773 net.cpp:408] conv3 -> conv3
I1217 14:16:52.594080 25773 net.cpp:150] Setting up conv3
I1217 14:16:52.594100 25773 net.cpp:157] Top shape: 100 256 8 8 (1638400)
I1217 14:16:52.594105 25773 net.cpp:165] Memory required for data: 161793200
I1217 14:16:52.594120 25773 layer_factory.hpp:77] Creating layer relu3
I1217 14:16:52.594130 25773 net.cpp:100] Creating Layer relu3
I1217 14:16:52.594133 25773 net.cpp:434] relu3 <- conv3
I1217 14:16:52.594157 25773 net.cpp:395] relu3 -> conv3 (in-place)
I1217 14:16:52.594434 25773 net.cpp:150] Setting up relu3
I1217 14:16:52.594444 25773 net.cpp:157] Top shape: 100 256 8 8 (1638400)
I1217 14:16:52.594449 25773 net.cpp:165] Memory required for data: 168346800
I1217 14:16:52.594452 25773 layer_factory.hpp:77] Creating layer drop3
I1217 14:16:52.594466 25773 net.cpp:100] Creating Layer drop3
I1217 14:16:52.594472 25773 net.cpp:434] drop3 <- conv3
I1217 14:16:52.594477 25773 net.cpp:395] drop3 -> conv3 (in-place)
I1217 14:16:52.594504 25773 net.cpp:150] Setting up drop3
I1217 14:16:52.594511 25773 net.cpp:157] Top shape: 100 256 8 8 (1638400)
I1217 14:16:52.594514 25773 net.cpp:165] Memory required for data: 174900400
I1217 14:16:52.594517 25773 layer_factory.hpp:77] Creating layer pool3
I1217 14:16:52.594533 25773 net.cpp:100] Creating Layer pool3
I1217 14:16:52.594538 25773 net.cpp:434] pool3 <- conv3
I1217 14:16:52.594543 25773 net.cpp:408] pool3 -> pool3
I1217 14:16:52.594705 25773 net.cpp:150] Setting up pool3
I1217 14:16:52.594714 25773 net.cpp:157] Top shape: 100 256 4 4 (409600)
I1217 14:16:52.594717 25773 net.cpp:165] Memory required for data: 176538800
I1217 14:16:52.594722 25773 layer_factory.hpp:77] Creating layer drop3_a
I1217 14:16:52.594738 25773 net.cpp:100] Creating Layer drop3_a
I1217 14:16:52.594743 25773 net.cpp:434] drop3_a <- pool3
I1217 14:16:52.594748 25773 net.cpp:395] drop3_a -> pool3 (in-place)
I1217 14:16:52.594766 25773 net.cpp:150] Setting up drop3_a
I1217 14:16:52.594772 25773 net.cpp:157] Top shape: 100 256 4 4 (409600)
I1217 14:16:52.594776 25773 net.cpp:165] Memory required for data: 178177200
I1217 14:16:52.594779 25773 layer_factory.hpp:77] Creating layer ip1
I1217 14:16:52.594795 25773 net.cpp:100] Creating Layer ip1
I1217 14:16:52.594800 25773 net.cpp:434] ip1 <- pool3
I1217 14:16:52.594806 25773 net.cpp:408] ip1 -> ip1
I1217 14:16:52.827541 25773 net.cpp:150] Setting up ip1
I1217 14:16:52.827571 25773 net.cpp:157] Top shape: 100 2048 (204800)
I1217 14:16:52.827582 25773 net.cpp:165] Memory required for data: 178996400
I1217 14:16:52.827599 25773 layer_factory.hpp:77] Creating layer drop_ip1
I1217 14:16:52.827610 25773 net.cpp:100] Creating Layer drop_ip1
I1217 14:16:52.827615 25773 net.cpp:434] drop_ip1 <- ip1
I1217 14:16:52.827621 25773 net.cpp:395] drop_ip1 -> ip1 (in-place)
I1217 14:16:52.827654 25773 net.cpp:150] Setting up drop_ip1
I1217 14:16:52.827661 25773 net.cpp:157] Top shape: 100 2048 (204800)
I1217 14:16:52.827664 25773 net.cpp:165] Memory required for data: 179815600
I1217 14:16:52.827667 25773 layer_factory.hpp:77] Creating layer ip2
I1217 14:16:52.827683 25773 net.cpp:100] Creating Layer ip2
I1217 14:16:52.827688 25773 net.cpp:434] ip2 <- ip1
I1217 14:16:52.827693 25773 net.cpp:408] ip2 -> ip2
I1217 14:16:52.942916 25773 net.cpp:150] Setting up ip2
I1217 14:16:52.942944 25773 net.cpp:157] Top shape: 100 2048 (204800)
I1217 14:16:52.942947 25773 net.cpp:165] Memory required for data: 180634800
I1217 14:16:52.942968 25773 layer_factory.hpp:77] Creating layer drop_ip2
I1217 14:16:52.942982 25773 net.cpp:100] Creating Layer drop_ip2
I1217 14:16:52.942996 25773 net.cpp:434] drop_ip2 <- ip2
I1217 14:16:52.943004 25773 net.cpp:395] drop_ip2 -> ip2 (in-place)
I1217 14:16:52.943033 25773 net.cpp:150] Setting up drop_ip2
I1217 14:16:52.943040 25773 net.cpp:157] Top shape: 100 2048 (204800)
I1217 14:16:52.943043 25773 net.cpp:165] Memory required for data: 181454000
I1217 14:16:52.943048 25773 layer_factory.hpp:77] Creating layer ip3
I1217 14:16:52.943063 25773 net.cpp:100] Creating Layer ip3
I1217 14:16:52.943068 25773 net.cpp:434] ip3 <- ip2
I1217 14:16:52.943073 25773 net.cpp:408] ip3 -> ip3
I1217 14:16:52.943725 25773 net.cpp:150] Setting up ip3
I1217 14:16:52.943733 25773 net.cpp:157] Top shape: 100 10 (1000)
I1217 14:16:52.943737 25773 net.cpp:165] Memory required for data: 181458000
I1217 14:16:52.943742 25773 layer_factory.hpp:77] Creating layer ip3_ip3_0_split
I1217 14:16:52.943758 25773 net.cpp:100] Creating Layer ip3_ip3_0_split
I1217 14:16:52.943785 25773 net.cpp:434] ip3_ip3_0_split <- ip3
I1217 14:16:52.943790 25773 net.cpp:408] ip3_ip3_0_split -> ip3_ip3_0_split_0
I1217 14:16:52.943796 25773 net.cpp:408] ip3_ip3_0_split -> ip3_ip3_0_split_1
I1217 14:16:52.943836 25773 net.cpp:150] Setting up ip3_ip3_0_split
I1217 14:16:52.943842 25773 net.cpp:157] Top shape: 100 10 (1000)
I1217 14:16:52.943846 25773 net.cpp:157] Top shape: 100 10 (1000)
I1217 14:16:52.943850 25773 net.cpp:165] Memory required for data: 181466000
I1217 14:16:52.943853 25773 layer_factory.hpp:77] Creating layer accuracy
I1217 14:16:52.943871 25773 net.cpp:100] Creating Layer accuracy
I1217 14:16:52.943876 25773 net.cpp:434] accuracy <- ip3_ip3_0_split_0
I1217 14:16:52.943881 25773 net.cpp:434] accuracy <- label_cifar_1_split_0
I1217 14:16:52.943886 25773 net.cpp:408] accuracy -> accuracy
…
