…
I0213 18:23:40.531090   943 net.cpp:322] The NetState phase (0) differed from the phase (1) specified by a rule in layer cifar
I0213 18:23:40.531253   943 net.cpp:58] Initializing net from parameters: 
name: "CIFAR10_full"
state {
  phase: TRAIN
  level: 0
  stage: ""
}
layer {
  name: "cifar"
  type: "Data"
  top: "data"
  top: "label"
  include {
    phase: TRAIN
  }
  transform_param {
    mean_file: "examples/cifar10/mean.binaryproto"
  }
  data_param {
    source: "examples/cifar10/cifar10_train_lmdb"
    batch_size: 100
    mirror: true
    backend: LMDB
  }
}
layer {
  name: "conv1"
  type: "Convolution"
  bottom: "data"
  top: "conv1"
  convolution_param {
    num_output: 96
    pad: 2
    kernel_size: 5
    weight_filler {
      type: "gaussian"
      std: 0.0001
    }
    bias_filler {
      type: "constant"
    }
  }
}
layer {
  name: "apl1"
  type: "APL"
  bottom: "conv1"
  top: "conv1"
  apl_param {
    sums: 5
    slope_filler {
      type: "uniform"
      min: -0.5
      max: 0.5
    }
    offset_filler {
      type: "gaussian"
      std: 0.5
    }
  }
}
layer {
  name: "drop1_c"
  type: "Dropout"
  bottom: "conv1"
  top: "conv1"
  dropout_param {
    dropout_ratio: 0.25
  }
}
layer {
  name: "pool1"
  type: "Pooling"
  bottom: "conv1"
  top: "pool1"
  pooling_param {
    pool: MAX
    kernel_size: 3
    stride: 2
  }
}
layer {
  name: "drop1"
  type: "Dropout"
  bottom: "pool1"
  top: "pool1_d"
  dropout_param {
    dropout_ratio: 0.25
  }
}
layer {
  name: "conv2"
  type: "Convolution"
  bottom: "pool1_d"
  top: "conv2"
  convolution_param {
    num_output: 128
    pad: 2
    kernel_size: 5
    weight_filler {
      type: "gaussian"
      std: 0.01
    }
    bias_filler {
      type: "constant"
    }
  }
}
layer {
  name: "apl2"
  type: "APL"
  bottom: "conv2"
  top: "conv2"
  apl_param {
    sums: 5
    slope_filler {
      type: "uniform"
      min: -0.5
      max: 0.5
    }
    offset_filler {
      type: "gaussian"
      std: 0.5
    }
  }
}
layer {
  name: "drop2_c"
  type: "Dropout"
  bottom: "conv2"
  top: "conv2"
  dropout_param {
    dropout_ratio: 0.25
  }
}
layer {
  name: "pool2"
  type: "Pooling"
  bottom: "conv2"
  top: "pool2"
  pooling_param {
    pool: AVE
    kernel_size: 3
    stride: 2
  }
}
layer {
  name: "drop2"
  type: "Dropout"
  bottom: "pool2"
  top: "pool2_d"
  dropout_param {
    dropout_ratio: 0.25
  }
}
layer {
  name: "conv3"
  type: "Convolution"
  bottom: "pool2_d"
  top: "conv3"
  convolution_param {
    num_output: 256
    pad: 2
    kernel_size: 5
    weight_filler {
      type: "gaussian"
      std: 0.01
    }
    bias_filler {
      type: "constant"
    }
  }
}
layer {
  name: "apl3"
  type: "APL"
  bottom: "conv3"
  top: "conv3"
  apl_param {
    sums: 5
    slope_filler {
      type: "uniform"
      min: -0.5
      max: 0.5
    }
    offset_filler {
      type: "gaussian"
      std: 0.5
    }
  }
}
layer {
  name: "drop3_c"
  type: "Dropout"
  bottom: "conv3"
  top: "conv3"
  dropout_param {
    dropout_ratio: 0.25
  }
}
layer {
  name: "pool3"
  type: "Pooling"
  bottom: "conv3"
  top: "pool3"
  pooling_param {
    pool: AVE
    kernel_size: 3
    stride: 2
  }
}
layer {
  name: "drop3"
  type: "Dropout"
  bottom: "pool3"
  top: "pool3_d"
  dropout_param {
    dropout_ratio: 0.5
  }
}
layer {
  name: "ip1"
  type: "InnerProduct"
  bottom: "pool3_d"
  top: "ip1"
  inner_product_param {
    num_output: 2048
    weight_filler {
      type: "gaussian"
      std: 0.01
    }
    bias_filler {
      type: "constant"
    }
  }
}
layer {
  name: "apl4"
  type: "APL"
  bottom: "ip1"
  top: "ip1"
  apl_param {
    sums: 5
    slope_filler {
      type: "uniform"
      min: -0.5
      max: 0.5
    }
    offset_filler {
      type: "gaussian"
      std: 0.5
    }
  }
}
layer {
  name: "dropip1"
  type: "Dropout"
  bottom: "ip1"
  top: "ip1"
  dropout_param {
    dropout_ratio: 0.5
  }
}
layer {
  name: "ip2"
  type: "InnerProduct"
  bottom: "ip1"
  top: "ip2"
  inner_product_param {
    num_output: 2048
    weight_filler {
      type: "gaussian"
      std: 0.01
    }
    bias_filler {
      type: "constant"
    }
  }
}
layer {
  name: "apl5"
  type: "APL"
  bottom: "ip2"
  top: "ip2"
  apl_param {
    sums: 5
    slope_filler {
      type: "uniform"
      min: -0.5
      max: 0.5
    }
    offset_filler {
      type: "gaussian"
      std: 0.5
    }
  }
}
layer {
  name: "dropip2"
  type: "Dropout"
  bottom: "ip2"
  top: "ip2"
  dropout_param {
    dropout_ratio: 0.5
  }
}
layer {
  name: "ip3"
  type: "InnerProduct"
  bottom: "ip2"
  top: "ip3"
  inner_product_param {
    num_output: 10
    weight_filler {
      type: "gaussian"
      std: 0.01
    }
    bias_filler {
      type: "constant"
    }
  }
}
layer {
  name: "accuracy"
  type: "Accuracy"
  bottom: "ip3"
  bottom: "label"
  top: "accuracy"
}
layer {
  name: "loss"
  type: "SoftmaxWithLoss"
  bottom: "ip3"
  bottom: "label"
  top: "loss"
}
I0213 18:23:40.531401   943 layer_factory.hpp:77] Creating layer cifar
I0213 18:23:40.531908   943 net.cpp:100] Creating Layer cifar
I0213 18:23:40.531922   943 net.cpp:408] cifar -> data
I0213 18:23:40.532023   943 net.cpp:408] cifar -> label
I0213 18:23:40.532040   943 data_transformer.cpp:25] Loading mean file from: examples/cifar10/mean.binaryproto
I0213 18:23:40.532889   963 db_lmdb.cpp:35] Opened lmdb examples/cifar10/cifar10_train_lmdb
I0213 18:23:40.549691   943 data_layer.cpp:41] output data size: 100,3,32,32
I0213 18:23:40.552215   943 net.cpp:150] Setting up cifar
I0213 18:23:40.552243   943 net.cpp:157] Top shape: 100 3 32 32 (307200)
I0213 18:23:40.552253   943 net.cpp:157] Top shape: 100 (100)
I0213 18:23:40.552256   943 net.cpp:165] Memory required for data: 1229200
I0213 18:23:40.552268   943 layer_factory.hpp:77] Creating layer label_cifar_1_split
I0213 18:23:40.552289   943 net.cpp:100] Creating Layer label_cifar_1_split
I0213 18:23:40.552294   943 net.cpp:434] label_cifar_1_split <- label
I0213 18:23:40.552314   943 net.cpp:408] label_cifar_1_split -> label_cifar_1_split_0
I0213 18:23:40.552325   943 net.cpp:408] label_cifar_1_split -> label_cifar_1_split_1
I0213 18:23:40.552371   943 net.cpp:150] Setting up label_cifar_1_split
I0213 18:23:40.552377   943 net.cpp:157] Top shape: 100 (100)
I0213 18:23:40.552381   943 net.cpp:157] Top shape: 100 (100)
I0213 18:23:40.552384   943 net.cpp:165] Memory required for data: 1230000
I0213 18:23:40.552388   943 layer_factory.hpp:77] Creating layer conv1
I0213 18:23:40.552403   943 net.cpp:100] Creating Layer conv1
I0213 18:23:40.552408   943 net.cpp:434] conv1 <- data
I0213 18:23:40.552414   943 net.cpp:408] conv1 -> conv1
I0213 18:23:40.717700   943 net.cpp:150] Setting up conv1
I0213 18:23:40.717743   943 net.cpp:157] Top shape: 100 96 32 32 (9830400)
I0213 18:23:40.717747   943 net.cpp:165] Memory required for data: 40551600
I0213 18:23:40.717772   943 layer_factory.hpp:77] Creating layer apl1
I0213 18:23:40.717792   943 net.cpp:100] Creating Layer apl1
I0213 18:23:40.717797   943 net.cpp:434] apl1 <- conv1
I0213 18:23:40.717803   943 net.cpp:395] apl1 -> conv1 (in-place)
I0213 18:23:40.735004   943 apl_layer.cpp:96]  Sums: 5
I0213 18:23:40.735054   943 net.cpp:150] Setting up apl1
I0213 18:23:40.735062   943 net.cpp:157] Top shape: 100 96 32 32 (9830400)
I0213 18:23:40.735067   943 net.cpp:165] Memory required for data: 79873200
I0213 18:23:40.735088   943 layer_factory.hpp:77] Creating layer drop1_c
I0213 18:23:40.735136   943 net.cpp:100] Creating Layer drop1_c
I0213 18:23:40.735141   943 net.cpp:434] drop1_c <- conv1
I0213 18:23:40.735147   943 net.cpp:395] drop1_c -> conv1 (in-place)
I0213 18:23:40.735175   943 net.cpp:150] Setting up drop1_c
I0213 18:23:40.735183   943 net.cpp:157] Top shape: 100 96 32 32 (9830400)
I0213 18:23:40.735185   943 net.cpp:165] Memory required for data: 119194800
I0213 18:23:40.735189   943 layer_factory.hpp:77] Creating layer pool1
I0213 18:23:40.735206   943 net.cpp:100] Creating Layer pool1
I0213 18:23:40.735210   943 net.cpp:434] pool1 <- conv1
I0213 18:23:40.735215   943 net.cpp:408] pool1 -> pool1
I0213 18:23:40.735262   943 net.cpp:150] Setting up pool1
I0213 18:23:40.735270   943 net.cpp:157] Top shape: 100 96 16 16 (2457600)
I0213 18:23:40.735273   943 net.cpp:165] Memory required for data: 129025200
I0213 18:23:40.735276   943 layer_factory.hpp:77] Creating layer drop1
I0213 18:23:40.735281   943 net.cpp:100] Creating Layer drop1
I0213 18:23:40.735285   943 net.cpp:434] drop1 <- pool1
I0213 18:23:40.735291   943 net.cpp:408] drop1 -> pool1_d
I0213 18:23:40.735316   943 net.cpp:150] Setting up drop1
I0213 18:23:40.735322   943 net.cpp:157] Top shape: 100 96 16 16 (2457600)
I0213 18:23:40.735327   943 net.cpp:165] Memory required for data: 138855600
I0213 18:23:40.735329   943 layer_factory.hpp:77] Creating layer conv2
I0213 18:23:40.735347   943 net.cpp:100] Creating Layer conv2
I0213 18:23:40.735352   943 net.cpp:434] conv2 <- pool1_d
I0213 18:23:40.735357   943 net.cpp:408] conv2 -> conv2
I0213 18:23:40.744817   943 net.cpp:150] Setting up conv2
I0213 18:23:40.744858   943 net.cpp:157] Top shape: 100 128 16 16 (3276800)
I0213 18:23:40.744863   943 net.cpp:165] Memory required for data: 151962800
I0213 18:23:40.744880   943 layer_factory.hpp:77] Creating layer apl2
I0213 18:23:40.744897   943 net.cpp:100] Creating Layer apl2
I0213 18:23:40.744901   943 net.cpp:434] apl2 <- conv2
I0213 18:23:40.744907   943 net.cpp:395] apl2 -> conv2 (in-place)
I0213 18:23:40.750679   943 apl_layer.cpp:96]  Sums: 5
I0213 18:23:40.750717   943 net.cpp:150] Setting up apl2
I0213 18:23:40.750723   943 net.cpp:157] Top shape: 100 128 16 16 (3276800)
I0213 18:23:40.750727   943 net.cpp:165] Memory required for data: 165070000
I0213 18:23:40.750741   943 layer_factory.hpp:77] Creating layer drop2_c
I0213 18:23:40.750747   943 net.cpp:100] Creating Layer drop2_c
I0213 18:23:40.750751   943 net.cpp:434] drop2_c <- conv2
I0213 18:23:40.750756   943 net.cpp:395] drop2_c -> conv2 (in-place)
I0213 18:23:40.750783   943 net.cpp:150] Setting up drop2_c
I0213 18:23:40.750790   943 net.cpp:157] Top shape: 100 128 16 16 (3276800)
I0213 18:23:40.750802   943 net.cpp:165] Memory required for data: 178177200
I0213 18:23:40.750805   943 layer_factory.hpp:77] Creating layer pool2
I0213 18:23:40.750810   943 net.cpp:100] Creating Layer pool2
I0213 18:23:40.750814   943 net.cpp:434] pool2 <- conv2
I0213 18:23:40.750819   943 net.cpp:408] pool2 -> pool2
I0213 18:23:40.751133   943 net.cpp:150] Setting up pool2
I0213 18:23:40.751153   943 net.cpp:157] Top shape: 100 128 8 8 (819200)
I0213 18:23:40.751157   943 net.cpp:165] Memory required for data: 181454000
I0213 18:23:40.751161   943 layer_factory.hpp:77] Creating layer drop2
I0213 18:23:40.751168   943 net.cpp:100] Creating Layer drop2
I0213 18:23:40.751170   943 net.cpp:434] drop2 <- pool2
I0213 18:23:40.751176   943 net.cpp:408] drop2 -> pool2_d
I0213 18:23:40.751212   943 net.cpp:150] Setting up drop2
I0213 18:23:40.751220   943 net.cpp:157] Top shape: 100 128 8 8 (819200)
I0213 18:23:40.751224   943 net.cpp:165] Memory required for data: 184730800
I0213 18:23:40.751227   943 layer_factory.hpp:77] Creating layer conv3
I0213 18:23:40.751243   943 net.cpp:100] Creating Layer conv3
I0213 18:23:40.751250   943 net.cpp:434] conv3 <- pool2_d
I0213 18:23:40.751255   943 net.cpp:408] conv3 -> conv3
I0213 18:23:40.772931   943 net.cpp:150] Setting up conv3
I0213 18:23:40.772951   943 net.cpp:157] Top shape: 100 256 8 8 (1638400)
I0213 18:23:40.772984   943 net.cpp:165] Memory required for data: 191284400
I0213 18:23:40.773001   943 layer_factory.hpp:77] Creating layer apl3
I0213 18:23:40.773008   943 net.cpp:100] Creating Layer apl3
I0213 18:23:40.773011   943 net.cpp:434] apl3 <- conv3
I0213 18:23:40.773017   943 net.cpp:395] apl3 -> conv3 (in-place)
I0213 18:23:40.775554   943 apl_layer.cpp:96]  Sums: 5
I0213 18:23:40.775591   943 net.cpp:150] Setting up apl3
I0213 18:23:40.775598   943 net.cpp:157] Top shape: 100 256 8 8 (1638400)
I0213 18:23:40.775601   943 net.cpp:165] Memory required for data: 197838000
I0213 18:23:40.775607   943 layer_factory.hpp:77] Creating layer drop3_c
I0213 18:23:40.775614   943 net.cpp:100] Creating Layer drop3_c
I0213 18:23:40.775617   943 net.cpp:434] drop3_c <- conv3
I0213 18:23:40.775622   943 net.cpp:395] drop3_c -> conv3 (in-place)
I0213 18:23:40.775647   943 net.cpp:150] Setting up drop3_c
I0213 18:23:40.775665   943 net.cpp:157] Top shape: 100 256 8 8 (1638400)
I0213 18:23:40.775668   943 net.cpp:165] Memory required for data: 204391600
I0213 18:23:40.775672   943 layer_factory.hpp:77] Creating layer pool3
I0213 18:23:40.775677   943 net.cpp:100] Creating Layer pool3
I0213 18:23:40.775681   943 net.cpp:434] pool3 <- conv3
I0213 18:23:40.775686   943 net.cpp:408] pool3 -> pool3
I0213 18:23:40.775985   943 net.cpp:150] Setting up pool3
I0213 18:23:40.776013   943 net.cpp:157] Top shape: 100 256 4 4 (409600)
I0213 18:23:40.776036   943 net.cpp:165] Memory required for data: 206030000
I0213 18:23:40.776041   943 layer_factory.hpp:77] Creating layer drop3
I0213 18:23:40.776057   943 net.cpp:100] Creating Layer drop3
I0213 18:23:40.776060   943 net.cpp:434] drop3 <- pool3
I0213 18:23:40.776065   943 net.cpp:408] drop3 -> pool3_d
I0213 18:23:40.776096   943 net.cpp:150] Setting up drop3
I0213 18:23:40.776104   943 net.cpp:157] Top shape: 100 256 4 4 (409600)
I0213 18:23:40.776108   943 net.cpp:165] Memory required for data: 207668400
I0213 18:23:40.776110   943 layer_factory.hpp:77] Creating layer ip1
I0213 18:23:40.776120   943 net.cpp:100] Creating Layer ip1
I0213 18:23:40.776129   943 net.cpp:434] ip1 <- pool3_d
I0213 18:23:40.776135   943 net.cpp:408] ip1 -> ip1
I0213 18:23:40.997866   943 net.cpp:150] Setting up ip1
I0213 18:23:40.997905   943 net.cpp:157] Top shape: 100 2048 (204800)
I0213 18:23:40.997910   943 net.cpp:165] Memory required for data: 208487600
I0213 18:23:40.997920   943 layer_factory.hpp:77] Creating layer apl4
I0213 18:23:40.997938   943 net.cpp:100] Creating Layer apl4
I0213 18:23:40.997943   943 net.cpp:434] apl4 <- ip1
I0213 18:23:40.997959   943 net.cpp:395] apl4 -> ip1 (in-place)
I0213 18:23:40.998375   943 apl_layer.cpp:96]  Sums: 5
I0213 18:23:40.998402   943 net.cpp:150] Setting up apl4
I0213 18:23:40.998407   943 net.cpp:157] Top shape: 100 2048 (204800)
I0213 18:23:40.998410   943 net.cpp:165] Memory required for data: 209306800
I0213 18:23:40.998426   943 layer_factory.hpp:77] Creating layer dropip1
I0213 18:23:40.998433   943 net.cpp:100] Creating Layer dropip1
I0213 18:23:40.998458   943 net.cpp:434] dropip1 <- ip1
I0213 18:23:40.998463   943 net.cpp:395] dropip1 -> ip1 (in-place)
I0213 18:23:40.998487   943 net.cpp:150] Setting up dropip1
I0213 18:23:40.998502   943 net.cpp:157] Top shape: 100 2048 (204800)
I0213 18:23:40.998505   943 net.cpp:165] Memory required for data: 210126000
I0213 18:23:40.998509   943 layer_factory.hpp:77] Creating layer ip2
I0213 18:23:40.998525   943 net.cpp:100] Creating Layer ip2
I0213 18:23:40.998530   943 net.cpp:434] ip2 <- ip1
I0213 18:23:40.998536   943 net.cpp:408] ip2 -> ip2
I0213 18:23:41.107064   943 net.cpp:150] Setting up ip2
I0213 18:23:41.107112   943 net.cpp:157] Top shape: 100 2048 (204800)
I0213 18:23:41.107116   943 net.cpp:165] Memory required for data: 210945200
I0213 18:23:41.107136   943 layer_factory.hpp:77] Creating layer apl5
I0213 18:23:41.107154   943 net.cpp:100] Creating Layer apl5
I0213 18:23:41.107158   943 net.cpp:434] apl5 <- ip2
I0213 18:23:41.107174   943 net.cpp:395] apl5 -> ip2 (in-place)
I0213 18:23:41.107604   943 apl_layer.cpp:96]  Sums: 5
I0213 18:23:41.107659   943 net.cpp:150] Setting up apl5
I0213 18:23:41.107666   943 net.cpp:157] Top shape: 100 2048 (204800)
I0213 18:23:41.107668   943 net.cpp:165] Memory required for data: 211764400
I0213 18:23:41.107674   943 layer_factory.hpp:77] Creating layer dropip2
I0213 18:23:41.107681   943 net.cpp:100] Creating Layer dropip2
I0213 18:23:41.107692   943 net.cpp:434] dropip2 <- ip2
I0213 18:23:41.107697   943 net.cpp:395] dropip2 -> ip2 (in-place)
I0213 18:23:41.107727   943 net.cpp:150] Setting up dropip2
I0213 18:23:41.107733   943 net.cpp:157] Top shape: 100 2048 (204800)
I0213 18:23:41.107736   943 net.cpp:165] Memory required for data: 212583600
I0213 18:23:41.107740   943 layer_factory.hpp:77] Creating layer ip3
I0213 18:23:41.107755   943 net.cpp:100] Creating Layer ip3
I0213 18:23:41.107761   943 net.cpp:434] ip3 <- ip2
I0213 18:23:41.107767   943 net.cpp:408] ip3 -> ip3
I0213 18:23:41.108827   943 net.cpp:150] Setting up ip3
I0213 18:23:41.108844   943 net.cpp:157] Top shape: 100 10 (1000)
I0213 18:23:41.108868   943 net.cpp:165] Memory required for data: 212587600
I0213 18:23:41.108875   943 layer_factory.hpp:77] Creating layer ip3_ip3_0_split
I0213 18:23:41.108891   943 net.cpp:100] Creating Layer ip3_ip3_0_split
I0213 18:23:41.108896   943 net.cpp:434] ip3_ip3_0_split <- ip3
I0213 18:23:41.108901   943 net.cpp:408] ip3_ip3_0_split -> ip3_ip3_0_split_0
I0213 18:23:41.108916   943 net.cpp:408] ip3_ip3_0_split -> ip3_ip3_0_split_1
I0213 18:23:41.108958   943 net.cpp:150] Setting up ip3_ip3_0_split
I0213 18:23:41.108965   943 net.cpp:157] Top shape: 100 10 (1000)
I0213 18:23:41.108969   943 net.cpp:157] Top shape: 100 10 (1000)
I0213 18:23:41.108973   943 net.cpp:165] Memory required for data: 212595600
I0213 18:23:41.108976   943 layer_factory.hpp:77] Creating layer accuracy
I0213 18:23:41.108995   943 net.cpp:100] Creating Layer accuracy
I0213 18:23:41.109000   943 net.cpp:434] accuracy <- ip3_ip3_0_split_0
I0213 18:23:41.109005   943 net.cpp:434] accuracy <- label_cifar_1_split_0
I0213 18:23:41.109010   943 net.cpp:408] accuracy -> accuracy
…
