…
I0211 15:38:18.691534 29857 net.cpp:322] The NetState phase (0) differed from the phase (1) specified by a rule in layer cifar
I0211 15:38:18.691695 29857 net.cpp:58] Initializing net from parameters: 
name: "CIFAR10_full"
state {
  phase: TRAIN
  level: 0
  stage: ""
}
layer {
  name: "cifar"
  type: "Data"
  top: "data"
  top: "label"
  include {
    phase: TRAIN
  }
  transform_param {
    mean_file: "examples/cifar10/mean.binaryproto"
  }
  data_param {
    source: "examples/cifar10/cifar10_train_lmdb"
    batch_size: 100
    mirror: true
    backend: LMDB
  }
}
layer {
  name: "conv1"
  type: "Convolution"
  bottom: "data"
  top: "conv1"
  param {
    lr_mult: 1
  }
  param {
    lr_mult: 2
  }
  convolution_param {
    num_output: 96
    pad: 2
    kernel_size: 5
    stride: 1
    weight_filler {
      type: "msra"
    }
    bias_filler {
      type: "constant"
    }
  }
}
layer {
  name: "drop1"
  type: "Dropout"
  bottom: "conv1"
  top: "conv1"
  dropout_param {
    dropout_ratio: 0.25
  }
}
layer {
  name: "pool1"
  type: "Pooling"
  bottom: "conv1"
  top: "pool1"
  pooling_param {
    pool: MAX
    kernel_size: 3
    stride: 2
  }
}
layer {
  name: "drop1_a"
  type: "Dropout"
  bottom: "pool1"
  top: "pool1"
  dropout_param {
    dropout_ratio: 0.25
  }
}
layer {
  name: "apl1"
  type: "APL"
  bottom: "pool1"
  top: "pool1"
  param {
    lr_mult: 1
  }
  param {
    lr_mult: 2
  }
  apl_param {
    sums: 2
    slope_filler {
      type: "constant"
      value: 1
    }
    offset_filler {
      type: "constant"
      value: 0
    }
  }
}
layer {
  name: "conv2"
  type: "Convolution"
  bottom: "pool1"
  top: "conv2"
  param {
    lr_mult: 1
  }
  param {
    lr_mult: 2
  }
  convolution_param {
    num_output: 128
    pad: 2
    kernel_size: 5
    stride: 1
    weight_filler {
      type: "msra"
    }
    bias_filler {
      type: "constant"
    }
  }
}
layer {
  name: "apl2"
  type: "APL"
  bottom: "conv2"
  top: "conv2"
  param {
    lr_mult: 1
  }
  param {
    lr_mult: 2
  }
  apl_param {
    sums: 2
    slope_filler {
      type: "constant"
      value: 1
    }
    offset_filler {
      type: "constant"
      value: 0
    }
  }
}
layer {
  name: "drop2"
  type: "Dropout"
  bottom: "conv2"
  top: "conv2"
  dropout_param {
    dropout_ratio: 0.25
  }
}
layer {
  name: "pool2"
  type: "Pooling"
  bottom: "conv2"
  top: "pool2"
  pooling_param {
    pool: AVE
    kernel_size: 3
    stride: 2
  }
}
layer {
  name: "drop2_a"
  type: "Dropout"
  bottom: "pool2"
  top: "pool2"
  dropout_param {
    dropout_ratio: 0.25
  }
}
layer {
  name: "conv3"
  type: "Convolution"
  bottom: "pool2"
  top: "conv3"
  convolution_param {
    num_output: 256
    pad: 2
    kernel_size: 5
    stride: 1
    weight_filler {
      type: "msra"
    }
    bias_filler {
      type: "constant"
    }
  }
}
layer {
  name: "apl3"
  type: "APL"
  bottom: "conv3"
  top: "conv3"
  param {
    lr_mult: 1
  }
  param {
    lr_mult: 2
  }
  apl_param {
    sums: 2
    slope_filler {
      type: "constant"
      value: 1
    }
    offset_filler {
      type: "constant"
      value: 0
    }
  }
}
layer {
  name: "drop3"
  type: "Dropout"
  bottom: "conv3"
  top: "conv3"
  dropout_param {
    dropout_ratio: 0.25
  }
}
layer {
  name: "pool3"
  type: "Pooling"
  bottom: "conv3"
  top: "pool3"
  pooling_param {
    pool: AVE
    kernel_size: 3
    stride: 2
  }
}
layer {
  name: "drop3_a"
  type: "Dropout"
  bottom: "pool3"
  top: "pool3"
  dropout_param {
    dropout_ratio: 0.5
  }
}
layer {
  name: "ip1"
  type: "InnerProduct"
  bottom: "pool3"
  top: "ip1"
  param {
    lr_mult: 1
    decay_mult: 1
  }
  param {
    lr_mult: 2
    decay_mult: 0
  }
  inner_product_param {
    num_output: 2048
    weight_filler {
      type: "gaussian"
      std: 0.01
    }
    bias_filler {
      type: "constant"
    }
  }
}
layer {
  name: "drop_ip1"
  type: "Dropout"
  bottom: "ip1"
  top: "ip1"
  dropout_param {
    dropout_ratio: 0.5
  }
}
layer {
  name: "ip2"
  type: "InnerProduct"
  bottom: "ip1"
  top: "ip2"
  param {
    lr_mult: 1
    decay_mult: 1
  }
  param {
    lr_mult: 2
    decay_mult: 0
  }
  inner_product_param {
    num_output: 2048
    weight_filler {
      type: "gaussian"
      std: 0.01
    }
    bias_filler {
      type: "constant"
    }
  }
}
layer {
  name: "drop_ip2"
  type: "Dropout"
  bottom: "ip2"
  top: "ip2"
  dropout_param {
    dropout_ratio: 0.5
  }
}
layer {
  name: "ip3"
  type: "InnerProduct"
  bottom: "ip2"
  top: "ip3"
  param {
    lr_mult: 1
    decay_mult: 1
  }
  param {
    lr_mult: 2
    decay_mult: 0
  }
  inner_product_param {
    num_output: 10
    weight_filler {
      type: "gaussian"
      std: 0.01
    }
    bias_filler {
      type: "constant"
    }
  }
}
layer {
  name: "accuracy"
  type: "Accuracy"
  bottom: "ip3"
  bottom: "label"
  top: "accuracy"
}
layer {
  name: "loss"
  type: "SoftmaxWithLoss"
  bottom: "ip3"
  bottom: "label"
  top: "loss"
}
I0211 15:38:18.691838 29857 layer_factory.hpp:77] Creating layer cifar
I0211 15:38:18.692342 29857 net.cpp:100] Creating Layer cifar
I0211 15:38:18.692354 29857 net.cpp:408] cifar -> data
I0211 15:38:18.692416 29857 net.cpp:408] cifar -> label
I0211 15:38:18.692440 29857 data_transformer.cpp:25] Loading mean file from: examples/cifar10/mean.binaryproto
I0211 15:38:18.693226 29876 db_lmdb.cpp:35] Opened lmdb examples/cifar10/cifar10_train_lmdb
I0211 15:38:18.710492 29857 data_layer.cpp:41] output data size: 100,3,32,32
I0211 15:38:18.712954 29857 net.cpp:150] Setting up cifar
I0211 15:38:18.712982 29857 net.cpp:157] Top shape: 100 3 32 32 (307200)
I0211 15:38:18.712990 29857 net.cpp:157] Top shape: 100 (100)
I0211 15:38:18.712993 29857 net.cpp:165] Memory required for data: 1229200
I0211 15:38:18.713009 29857 layer_factory.hpp:77] Creating layer label_cifar_1_split
I0211 15:38:18.713029 29857 net.cpp:100] Creating Layer label_cifar_1_split
I0211 15:38:18.713037 29857 net.cpp:434] label_cifar_1_split <- label
I0211 15:38:18.713055 29857 net.cpp:408] label_cifar_1_split -> label_cifar_1_split_0
I0211 15:38:18.713065 29857 net.cpp:408] label_cifar_1_split -> label_cifar_1_split_1
I0211 15:38:18.713109 29857 net.cpp:150] Setting up label_cifar_1_split
I0211 15:38:18.713117 29857 net.cpp:157] Top shape: 100 (100)
I0211 15:38:18.713121 29857 net.cpp:157] Top shape: 100 (100)
I0211 15:38:18.713124 29857 net.cpp:165] Memory required for data: 1230000
I0211 15:38:18.713129 29857 layer_factory.hpp:77] Creating layer conv1
I0211 15:38:18.713145 29857 net.cpp:100] Creating Layer conv1
I0211 15:38:18.713150 29857 net.cpp:434] conv1 <- data
I0211 15:38:18.713155 29857 net.cpp:408] conv1 -> conv1
I0211 15:38:18.878991 29857 net.cpp:150] Setting up conv1
I0211 15:38:18.879032 29857 net.cpp:157] Top shape: 100 96 32 32 (9830400)
I0211 15:38:18.879039 29857 net.cpp:165] Memory required for data: 40551600
I0211 15:38:18.879065 29857 layer_factory.hpp:77] Creating layer drop1
I0211 15:38:18.879086 29857 net.cpp:100] Creating Layer drop1
I0211 15:38:18.879091 29857 net.cpp:434] drop1 <- conv1
I0211 15:38:18.879099 29857 net.cpp:395] drop1 -> conv1 (in-place)
I0211 15:38:18.879138 29857 net.cpp:150] Setting up drop1
I0211 15:38:18.879156 29857 net.cpp:157] Top shape: 100 96 32 32 (9830400)
I0211 15:38:18.879160 29857 net.cpp:165] Memory required for data: 79873200
I0211 15:38:18.879164 29857 layer_factory.hpp:77] Creating layer pool1
I0211 15:38:18.879181 29857 net.cpp:100] Creating Layer pool1
I0211 15:38:18.879186 29857 net.cpp:434] pool1 <- conv1
I0211 15:38:18.879215 29857 net.cpp:408] pool1 -> pool1
I0211 15:38:18.879274 29857 net.cpp:150] Setting up pool1
I0211 15:38:18.879281 29857 net.cpp:157] Top shape: 100 96 16 16 (2457600)
I0211 15:38:18.879286 29857 net.cpp:165] Memory required for data: 89703600
I0211 15:38:18.879288 29857 layer_factory.hpp:77] Creating layer drop1_a
I0211 15:38:18.879293 29857 net.cpp:100] Creating Layer drop1_a
I0211 15:38:18.879297 29857 net.cpp:434] drop1_a <- pool1
I0211 15:38:18.879302 29857 net.cpp:395] drop1_a -> pool1 (in-place)
I0211 15:38:18.879324 29857 net.cpp:150] Setting up drop1_a
I0211 15:38:18.879330 29857 net.cpp:157] Top shape: 100 96 16 16 (2457600)
I0211 15:38:18.879334 29857 net.cpp:165] Memory required for data: 99534000
I0211 15:38:18.879338 29857 layer_factory.hpp:77] Creating layer apl1
I0211 15:38:18.879354 29857 net.cpp:100] Creating Layer apl1
I0211 15:38:18.879359 29857 net.cpp:434] apl1 <- pool1
I0211 15:38:18.879364 29857 net.cpp:395] apl1 -> pool1 (in-place)
I0211 15:38:18.879914 29857 apl_layer.cpp:96]  Sums: 2
I0211 15:38:18.879950 29857 net.cpp:150] Setting up apl1
I0211 15:38:18.879956 29857 net.cpp:157] Top shape: 100 96 16 16 (2457600)
I0211 15:38:18.879958 29857 net.cpp:165] Memory required for data: 109364400
I0211 15:38:18.879976 29857 layer_factory.hpp:77] Creating layer conv2
I0211 15:38:18.879994 29857 net.cpp:100] Creating Layer conv2
I0211 15:38:18.879999 29857 net.cpp:434] conv2 <- pool1
I0211 15:38:18.880005 29857 net.cpp:408] conv2 -> conv2
I0211 15:38:18.889328 29857 net.cpp:150] Setting up conv2
I0211 15:38:18.889341 29857 net.cpp:157] Top shape: 100 128 16 16 (3276800)
I0211 15:38:18.889346 29857 net.cpp:165] Memory required for data: 122471600
I0211 15:38:18.889361 29857 layer_factory.hpp:77] Creating layer apl2
I0211 15:38:18.889372 29857 net.cpp:100] Creating Layer apl2
I0211 15:38:18.889376 29857 net.cpp:434] apl2 <- conv2
I0211 15:38:18.889381 29857 net.cpp:395] apl2 -> conv2 (in-place)
I0211 15:38:18.889513 29857 apl_layer.cpp:96]  Sums: 2
I0211 15:38:18.889539 29857 net.cpp:150] Setting up apl2
I0211 15:38:18.889547 29857 net.cpp:157] Top shape: 100 128 16 16 (3276800)
I0211 15:38:18.889550 29857 net.cpp:165] Memory required for data: 135578800
I0211 15:38:18.889556 29857 layer_factory.hpp:77] Creating layer drop2
I0211 15:38:18.889562 29857 net.cpp:100] Creating Layer drop2
I0211 15:38:18.889566 29857 net.cpp:434] drop2 <- conv2
I0211 15:38:18.889571 29857 net.cpp:395] drop2 -> conv2 (in-place)
I0211 15:38:18.889595 29857 net.cpp:150] Setting up drop2
I0211 15:38:18.889601 29857 net.cpp:157] Top shape: 100 128 16 16 (3276800)
I0211 15:38:18.889605 29857 net.cpp:165] Memory required for data: 148686000
I0211 15:38:18.889608 29857 layer_factory.hpp:77] Creating layer pool2
I0211 15:38:18.889613 29857 net.cpp:100] Creating Layer pool2
I0211 15:38:18.889617 29857 net.cpp:434] pool2 <- conv2
I0211 15:38:18.889622 29857 net.cpp:408] pool2 -> pool2
I0211 15:38:18.889922 29857 net.cpp:150] Setting up pool2
I0211 15:38:18.889960 29857 net.cpp:157] Top shape: 100 128 8 8 (819200)
I0211 15:38:18.889983 29857 net.cpp:165] Memory required for data: 151962800
I0211 15:38:18.889988 29857 layer_factory.hpp:77] Creating layer drop2_a
I0211 15:38:18.889994 29857 net.cpp:100] Creating Layer drop2_a
I0211 15:38:18.889997 29857 net.cpp:434] drop2_a <- pool2
I0211 15:38:18.890002 29857 net.cpp:395] drop2_a -> pool2 (in-place)
I0211 15:38:18.890030 29857 net.cpp:150] Setting up drop2_a
I0211 15:38:18.890036 29857 net.cpp:157] Top shape: 100 128 8 8 (819200)
I0211 15:38:18.890040 29857 net.cpp:165] Memory required for data: 155239600
I0211 15:38:18.890044 29857 layer_factory.hpp:77] Creating layer conv3
I0211 15:38:18.890060 29857 net.cpp:100] Creating Layer conv3
I0211 15:38:18.890065 29857 net.cpp:434] conv3 <- pool2
I0211 15:38:18.890070 29857 net.cpp:408] conv3 -> conv3
I0211 15:38:18.911799 29857 net.cpp:150] Setting up conv3
I0211 15:38:18.911830 29857 net.cpp:157] Top shape: 100 256 8 8 (1638400)
I0211 15:38:18.911835 29857 net.cpp:165] Memory required for data: 161793200
I0211 15:38:18.911870 29857 layer_factory.hpp:77] Creating layer apl3
I0211 15:38:18.911886 29857 net.cpp:100] Creating Layer apl3
I0211 15:38:18.911892 29857 net.cpp:434] apl3 <- conv3
I0211 15:38:18.911897 29857 net.cpp:395] apl3 -> conv3 (in-place)
I0211 15:38:18.912425 29857 apl_layer.cpp:96]  Sums: 2
I0211 15:38:18.912461 29857 net.cpp:150] Setting up apl3
I0211 15:38:18.912467 29857 net.cpp:157] Top shape: 100 256 8 8 (1638400)
I0211 15:38:18.912470 29857 net.cpp:165] Memory required for data: 168346800
I0211 15:38:18.912477 29857 layer_factory.hpp:77] Creating layer drop3
I0211 15:38:18.912493 29857 net.cpp:100] Creating Layer drop3
I0211 15:38:18.912497 29857 net.cpp:434] drop3 <- conv3
I0211 15:38:18.912503 29857 net.cpp:395] drop3 -> conv3 (in-place)
I0211 15:38:18.912523 29857 net.cpp:150] Setting up drop3
I0211 15:38:18.912530 29857 net.cpp:157] Top shape: 100 256 8 8 (1638400)
I0211 15:38:18.912533 29857 net.cpp:165] Memory required for data: 174900400
I0211 15:38:18.912538 29857 layer_factory.hpp:77] Creating layer pool3
I0211 15:38:18.912542 29857 net.cpp:100] Creating Layer pool3
I0211 15:38:18.912547 29857 net.cpp:434] pool3 <- conv3
I0211 15:38:18.912552 29857 net.cpp:408] pool3 -> pool3
I0211 15:38:18.912837 29857 net.cpp:150] Setting up pool3
I0211 15:38:18.912849 29857 net.cpp:157] Top shape: 100 256 4 4 (409600)
I0211 15:38:18.912853 29857 net.cpp:165] Memory required for data: 176538800
I0211 15:38:18.912858 29857 layer_factory.hpp:77] Creating layer drop3_a
I0211 15:38:18.912873 29857 net.cpp:100] Creating Layer drop3_a
I0211 15:38:18.912879 29857 net.cpp:434] drop3_a <- pool3
I0211 15:38:18.912884 29857 net.cpp:395] drop3_a -> pool3 (in-place)
I0211 15:38:18.912905 29857 net.cpp:150] Setting up drop3_a
I0211 15:38:18.912912 29857 net.cpp:157] Top shape: 100 256 4 4 (409600)
I0211 15:38:18.912919 29857 net.cpp:165] Memory required for data: 178177200
I0211 15:38:18.912924 29857 layer_factory.hpp:77] Creating layer ip1
I0211 15:38:18.912942 29857 net.cpp:100] Creating Layer ip1
I0211 15:38:18.912947 29857 net.cpp:434] ip1 <- pool3
I0211 15:38:18.912952 29857 net.cpp:408] ip1 -> ip1
I0211 15:38:19.137013 29857 net.cpp:150] Setting up ip1
I0211 15:38:19.137063 29857 net.cpp:157] Top shape: 100 2048 (204800)
I0211 15:38:19.137068 29857 net.cpp:165] Memory required for data: 178996400
I0211 15:38:19.137085 29857 layer_factory.hpp:77] Creating layer drop_ip1
I0211 15:38:19.137104 29857 net.cpp:100] Creating Layer drop_ip1
I0211 15:38:19.137111 29857 net.cpp:434] drop_ip1 <- ip1
I0211 15:38:19.137118 29857 net.cpp:395] drop_ip1 -> ip1 (in-place)
I0211 15:38:19.137152 29857 net.cpp:150] Setting up drop_ip1
I0211 15:38:19.137159 29857 net.cpp:157] Top shape: 100 2048 (204800)
I0211 15:38:19.137163 29857 net.cpp:165] Memory required for data: 179815600
I0211 15:38:19.137166 29857 layer_factory.hpp:77] Creating layer ip2
I0211 15:38:19.137182 29857 net.cpp:100] Creating Layer ip2
I0211 15:38:19.137188 29857 net.cpp:434] ip2 <- ip1
I0211 15:38:19.137194 29857 net.cpp:408] ip2 -> ip2
I0211 15:38:19.245535 29857 net.cpp:150] Setting up ip2
I0211 15:38:19.245571 29857 net.cpp:157] Top shape: 100 2048 (204800)
I0211 15:38:19.245578 29857 net.cpp:165] Memory required for data: 180634800
I0211 15:38:19.245597 29857 layer_factory.hpp:77] Creating layer drop_ip2
I0211 15:38:19.245615 29857 net.cpp:100] Creating Layer drop_ip2
I0211 15:38:19.245620 29857 net.cpp:434] drop_ip2 <- ip2
I0211 15:38:19.245627 29857 net.cpp:395] drop_ip2 -> ip2 (in-place)
I0211 15:38:19.245652 29857 net.cpp:150] Setting up drop_ip2
I0211 15:38:19.245659 29857 net.cpp:157] Top shape: 100 2048 (204800)
I0211 15:38:19.245662 29857 net.cpp:165] Memory required for data: 181454000
I0211 15:38:19.245666 29857 layer_factory.hpp:77] Creating layer ip3
I0211 15:38:19.245674 29857 net.cpp:100] Creating Layer ip3
I0211 15:38:19.245677 29857 net.cpp:434] ip3 <- ip2
I0211 15:38:19.245683 29857 net.cpp:408] ip3 -> ip3
I0211 15:38:19.246307 29857 net.cpp:150] Setting up ip3
I0211 15:38:19.246315 29857 net.cpp:157] Top shape: 100 10 (1000)
I0211 15:38:19.246326 29857 net.cpp:165] Memory required for data: 181458000
I0211 15:38:19.246367 29857 layer_factory.hpp:77] Creating layer ip3_ip3_0_split
I0211 15:38:19.246376 29857 net.cpp:100] Creating Layer ip3_ip3_0_split
I0211 15:38:19.246379 29857 net.cpp:434] ip3_ip3_0_split <- ip3
I0211 15:38:19.246384 29857 net.cpp:408] ip3_ip3_0_split -> ip3_ip3_0_split_0
I0211 15:38:19.246392 29857 net.cpp:408] ip3_ip3_0_split -> ip3_ip3_0_split_1
I0211 15:38:19.246430 29857 net.cpp:150] Setting up ip3_ip3_0_split
I0211 15:38:19.246438 29857 net.cpp:157] Top shape: 100 10 (1000)
I0211 15:38:19.246441 29857 net.cpp:157] Top shape: 100 10 (1000)
I0211 15:38:19.246444 29857 net.cpp:165] Memory required for data: 181466000
I0211 15:38:19.246448 29857 layer_factory.hpp:77] Creating layer accuracy
I0211 15:38:19.246467 29857 net.cpp:100] Creating Layer accuracy
I0211 15:38:19.246472 29857 net.cpp:434] accuracy <- ip3_ip3_0_split_0
I0211 15:38:19.246477 29857 net.cpp:434] accuracy <- label_cifar_1_split_0
I0211 15:38:19.246484 29857 net.cpp:408] accuracy -> accuracy
…
