…
I0121 19:38:27.805285 16105 net.cpp:322] The NetState phase (0) differed from the phase (1) specified by a rule in layer accuracy
I0121 19:38:27.805410 16105 net.cpp:58] Initializing net from parameters: 
name: "CIFAR10_full"
state {
  phase: TRAIN
  level: 0
  stage: ""
}
layer {
  name: "cifar"
  type: "Data"
  top: "data"
  top: "label"
  include {
    phase: TRAIN
  }
  transform_param {
    mean_file: "examples/cifar10/mean.binaryproto"
  }
  data_param {
    source: "examples/cifar10/cifar10_train_lmdb"
    batch_size: 100
    backend: LMDB
  }
}
layer {
  name: "conv1"
  type: "Convolution"
  bottom: "data"
  top: "conv1"
  param {
    lr_mult: 1
  }
  param {
    lr_mult: 2
  }
  convolution_param {
    num_output: 96
    pad: 2
    kernel_size: 5
    stride: 1
    weight_filler {
      type: "gaussian"
      std: 0.0001
    }
    bias_filler {
      type: "constant"
    }
  }
}
layer {
  name: "drop1"
  type: "Dropout"
  bottom: "conv1"
  top: "conv1"
  dropout_param {
    dropout_ratio: 0.25
  }
}
layer {
  name: "pool1"
  type: "Pooling"
  bottom: "conv1"
  top: "pool1"
  pooling_param {
    pool: MAX
    kernel_size: 3
    stride: 2
  }
}
layer {
  name: "drop1_a"
  type: "Dropout"
  bottom: "pool1"
  top: "pool1"
  dropout_param {
    dropout_ratio: 0.25
  }
}
layer {
  name: "apl1"
  type: "APL"
  bottom: "pool1"
  top: "pool1"
  apl_param {
    sums: 2
    slope_filler {
      type: "constant"
      value: 1
    }
    offset_filler {
      type: "constant"
      value: 0
    }
  }
}
layer {
  name: "conv2"
  type: "Convolution"
  bottom: "pool1"
  top: "conv2"
  param {
    lr_mult: 1
  }
  param {
    lr_mult: 2
  }
  convolution_param {
    num_output: 128
    pad: 2
    kernel_size: 5
    stride: 1
    weight_filler {
      type: "gaussian"
      std: 0.01
    }
    bias_filler {
      type: "constant"
    }
  }
}
layer {
  name: "apl2"
  type: "APL"
  bottom: "conv2"
  top: "conv2"
  apl_param {
    sums: 2
    slope_filler {
      type: "constant"
      value: 1
    }
    offset_filler {
      type: "constant"
      value: 0
    }
  }
}
layer {
  name: "drop2"
  type: "Dropout"
  bottom: "conv2"
  top: "conv2"
  dropout_param {
    dropout_ratio: 0.25
  }
}
layer {
  name: "pool2"
  type: "Pooling"
  bottom: "conv2"
  top: "pool2"
  pooling_param {
    pool: AVE
    kernel_size: 3
    stride: 2
  }
}
layer {
  name: "drop2_a"
  type: "Dropout"
  bottom: "pool2"
  top: "pool2"
  dropout_param {
    dropout_ratio: 0.25
  }
}
layer {
  name: "conv3"
  type: "Convolution"
  bottom: "pool2"
  top: "conv3"
  convolution_param {
    num_output: 256
    pad: 2
    kernel_size: 5
    stride: 1
    weight_filler {
      type: "gaussian"
      std: 0.01
    }
    bias_filler {
      type: "constant"
    }
  }
}
layer {
  name: "apl3"
  type: "APL"
  bottom: "conv3"
  top: "conv3"
  apl_param {
    sums: 2
    slope_filler {
      type: "constant"
      value: 1
    }
    offset_filler {
      type: "constant"
      value: 0
    }
  }
}
layer {
  name: "drop3"
  type: "Dropout"
  bottom: "conv3"
  top: "conv3"
  dropout_param {
    dropout_ratio: 0.25
  }
}
layer {
  name: "pool3"
  type: "Pooling"
  bottom: "conv3"
  top: "pool3"
  pooling_param {
    pool: AVE
    kernel_size: 3
    stride: 2
  }
}
layer {
  name: "drop3_a"
  type: "Dropout"
  bottom: "pool3"
  top: "pool3"
  dropout_param {
    dropout_ratio: 0.5
  }
}
layer {
  name: "ip1"
  type: "InnerProduct"
  bottom: "pool3"
  top: "ip1"
  param {
    lr_mult: 1
    decay_mult: 1
  }
  param {
    lr_mult: 2
    decay_mult: 0
  }
  inner_product_param {
    num_output: 2048
    weight_filler {
      type: "gaussian"
      std: 0.01
    }
    bias_filler {
      type: "constant"
    }
  }
}
layer {
  name: "drop_ip1"
  type: "Dropout"
  bottom: "ip1"
  top: "ip1"
  dropout_param {
    dropout_ratio: 0.5
  }
}
layer {
  name: "ip2"
  type: "InnerProduct"
  bottom: "ip1"
  top: "ip2"
  param {
    lr_mult: 1
    decay_mult: 1
  }
  param {
    lr_mult: 2
    decay_mult: 0
  }
  inner_product_param {
    num_output: 2048
    weight_filler {
      type: "gaussian"
      std: 0.01
    }
    bias_filler {
      type: "constant"
    }
  }
}
layer {
  name: "drop_ip2"
  type: "Dropout"
  bottom: "ip2"
  top: "ip2"
  dropout_param {
    dropout_ratio: 0.5
  }
}
layer {
  name: "ip3"
  type: "InnerProduct"
  bottom: "ip2"
  top: "ip3"
  param {
    lr_mult: 1
    decay_mult: 1
  }
  param {
    lr_mult: 2
    decay_mult: 0
  }
  inner_product_param {
    num_output: 10
    weight_filler {
      type: "gaussian"
      std: 0.01
    }
    bias_filler {
      type: "constant"
    }
  }
}
layer {
  name: "loss"
  type: "SoftmaxWithLoss"
  bottom: "ip3"
  bottom: "label"
  top: "loss"
}
I0121 19:38:27.805527 16105 layer_factory.hpp:77] Creating layer cifar
I0121 19:38:27.806185 16105 net.cpp:100] Creating Layer cifar
I0121 19:38:27.806217 16105 net.cpp:408] cifar -> data
I0121 19:38:27.806275 16105 net.cpp:408] cifar -> label
I0121 19:38:27.806296 16105 data_transformer.cpp:25] Loading mean file from: examples/cifar10/mean.binaryproto
I0121 19:38:27.807063 16124 db_lmdb.cpp:35] Opened lmdb examples/cifar10/cifar10_train_lmdb
I0121 19:38:27.826421 16105 data_layer.cpp:41] output data size: 100,3,32,32
I0121 19:38:27.828883 16105 net.cpp:150] Setting up cifar
I0121 19:38:27.828904 16105 net.cpp:157] Top shape: 100 3 32 32 (307200)
I0121 19:38:27.828910 16105 net.cpp:157] Top shape: 100 (100)
I0121 19:38:27.828914 16105 net.cpp:165] Memory required for data: 1229200
I0121 19:38:27.828922 16105 layer_factory.hpp:77] Creating layer conv1
I0121 19:38:27.828951 16105 net.cpp:100] Creating Layer conv1
I0121 19:38:27.828958 16105 net.cpp:434] conv1 <- data
I0121 19:38:27.828974 16105 net.cpp:408] conv1 -> conv1
I0121 19:38:27.989492 16105 net.cpp:150] Setting up conv1
I0121 19:38:27.989545 16105 net.cpp:157] Top shape: 100 96 32 32 (9830400)
I0121 19:38:27.989549 16105 net.cpp:165] Memory required for data: 40550800
I0121 19:38:27.989576 16105 layer_factory.hpp:77] Creating layer drop1
I0121 19:38:27.989599 16105 net.cpp:100] Creating Layer drop1
I0121 19:38:27.989606 16105 net.cpp:434] drop1 <- conv1
I0121 19:38:27.989612 16105 net.cpp:395] drop1 -> conv1 (in-place)
I0121 19:38:27.989653 16105 net.cpp:150] Setting up drop1
I0121 19:38:27.989660 16105 net.cpp:157] Top shape: 100 96 32 32 (9830400)
I0121 19:38:27.989663 16105 net.cpp:165] Memory required for data: 79872400
I0121 19:38:27.989670 16105 layer_factory.hpp:77] Creating layer pool1
I0121 19:38:27.989686 16105 net.cpp:100] Creating Layer pool1
I0121 19:38:27.989691 16105 net.cpp:434] pool1 <- conv1
I0121 19:38:27.989696 16105 net.cpp:408] pool1 -> pool1
I0121 19:38:27.989743 16105 net.cpp:150] Setting up pool1
I0121 19:38:27.989750 16105 net.cpp:157] Top shape: 100 96 16 16 (2457600)
I0121 19:38:27.989753 16105 net.cpp:165] Memory required for data: 89702800
I0121 19:38:27.989759 16105 layer_factory.hpp:77] Creating layer drop1_a
I0121 19:38:27.989764 16105 net.cpp:100] Creating Layer drop1_a
I0121 19:38:27.989769 16105 net.cpp:434] drop1_a <- pool1
I0121 19:38:27.989774 16105 net.cpp:395] drop1_a -> pool1 (in-place)
I0121 19:38:27.989790 16105 net.cpp:150] Setting up drop1_a
I0121 19:38:27.989796 16105 net.cpp:157] Top shape: 100 96 16 16 (2457600)
I0121 19:38:27.989799 16105 net.cpp:165] Memory required for data: 99533200
I0121 19:38:27.989802 16105 layer_factory.hpp:77] Creating layer apl1
I0121 19:38:27.989832 16105 net.cpp:100] Creating Layer apl1
I0121 19:38:27.989837 16105 net.cpp:434] apl1 <- pool1
I0121 19:38:27.989842 16105 net.cpp:395] apl1 -> pool1 (in-place)
I0121 19:38:27.990371 16105 apl_layer.cpp:95]  Sums: 2
I0121 19:38:27.990401 16105 net.cpp:150] Setting up apl1
I0121 19:38:27.990408 16105 net.cpp:157] Top shape: 100 96 16 16 (2457600)
I0121 19:38:27.990412 16105 net.cpp:165] Memory required for data: 109363600
I0121 19:38:27.990422 16105 layer_factory.hpp:77] Creating layer conv2
I0121 19:38:27.990434 16105 net.cpp:100] Creating Layer conv2
I0121 19:38:27.990439 16105 net.cpp:434] conv2 <- pool1
I0121 19:38:27.990444 16105 net.cpp:408] conv2 -> conv2
I0121 19:38:27.999743 16105 net.cpp:150] Setting up conv2
I0121 19:38:27.999757 16105 net.cpp:157] Top shape: 100 128 16 16 (3276800)
I0121 19:38:27.999763 16105 net.cpp:165] Memory required for data: 122470800
I0121 19:38:27.999779 16105 layer_factory.hpp:77] Creating layer apl2
I0121 19:38:27.999788 16105 net.cpp:100] Creating Layer apl2
I0121 19:38:27.999794 16105 net.cpp:434] apl2 <- conv2
I0121 19:38:27.999799 16105 net.cpp:395] apl2 -> conv2 (in-place)
I0121 19:38:27.999932 16105 apl_layer.cpp:95]  Sums: 2
I0121 19:38:27.999951 16105 net.cpp:150] Setting up apl2
I0121 19:38:27.999958 16105 net.cpp:157] Top shape: 100 128 16 16 (3276800)
I0121 19:38:27.999961 16105 net.cpp:165] Memory required for data: 135578000
I0121 19:38:27.999969 16105 layer_factory.hpp:77] Creating layer drop2
I0121 19:38:27.999984 16105 net.cpp:100] Creating Layer drop2
I0121 19:38:27.999989 16105 net.cpp:434] drop2 <- conv2
I0121 19:38:27.999994 16105 net.cpp:395] drop2 -> conv2 (in-place)
I0121 19:38:28.000011 16105 net.cpp:150] Setting up drop2
I0121 19:38:28.000025 16105 net.cpp:157] Top shape: 100 128 16 16 (3276800)
I0121 19:38:28.000028 16105 net.cpp:165] Memory required for data: 148685200
I0121 19:38:28.000031 16105 layer_factory.hpp:77] Creating layer pool2
I0121 19:38:28.000038 16105 net.cpp:100] Creating Layer pool2
I0121 19:38:28.000042 16105 net.cpp:434] pool2 <- conv2
I0121 19:38:28.000047 16105 net.cpp:408] pool2 -> pool2
I0121 19:38:28.000350 16105 net.cpp:150] Setting up pool2
I0121 19:38:28.000361 16105 net.cpp:157] Top shape: 100 128 8 8 (819200)
I0121 19:38:28.000366 16105 net.cpp:165] Memory required for data: 151962000
I0121 19:38:28.000370 16105 layer_factory.hpp:77] Creating layer drop2_a
I0121 19:38:28.000377 16105 net.cpp:100] Creating Layer drop2_a
I0121 19:38:28.000382 16105 net.cpp:434] drop2_a <- pool2
I0121 19:38:28.000387 16105 net.cpp:395] drop2_a -> pool2 (in-place)
I0121 19:38:28.000416 16105 net.cpp:150] Setting up drop2_a
I0121 19:38:28.000422 16105 net.cpp:157] Top shape: 100 128 8 8 (819200)
I0121 19:38:28.000425 16105 net.cpp:165] Memory required for data: 155238800
I0121 19:38:28.000429 16105 layer_factory.hpp:77] Creating layer conv3
I0121 19:38:28.000437 16105 net.cpp:100] Creating Layer conv3
I0121 19:38:28.000442 16105 net.cpp:434] conv3 <- pool2
I0121 19:38:28.000447 16105 net.cpp:408] conv3 -> conv3
I0121 19:38:28.023273 16105 net.cpp:150] Setting up conv3
I0121 19:38:28.023286 16105 net.cpp:157] Top shape: 100 256 8 8 (1638400)
I0121 19:38:28.023290 16105 net.cpp:165] Memory required for data: 161792400
I0121 19:38:28.023301 16105 layer_factory.hpp:77] Creating layer apl3
I0121 19:38:28.023309 16105 net.cpp:100] Creating Layer apl3
I0121 19:38:28.023315 16105 net.cpp:434] apl3 <- conv3
I0121 19:38:28.023320 16105 net.cpp:395] apl3 -> conv3 (in-place)
I0121 19:38:28.023834 16105 apl_layer.cpp:95]  Sums: 2
I0121 19:38:28.023864 16105 net.cpp:150] Setting up apl3
I0121 19:38:28.023870 16105 net.cpp:157] Top shape: 100 256 8 8 (1638400)
I0121 19:38:28.023874 16105 net.cpp:165] Memory required for data: 168346000
I0121 19:38:28.023882 16105 layer_factory.hpp:77] Creating layer drop3
I0121 19:38:28.023890 16105 net.cpp:100] Creating Layer drop3
I0121 19:38:28.023895 16105 net.cpp:434] drop3 <- conv3
I0121 19:38:28.023900 16105 net.cpp:395] drop3 -> conv3 (in-place)
I0121 19:38:28.023924 16105 net.cpp:150] Setting up drop3
I0121 19:38:28.023948 16105 net.cpp:157] Top shape: 100 256 8 8 (1638400)
I0121 19:38:28.023952 16105 net.cpp:165] Memory required for data: 174899600
I0121 19:38:28.023957 16105 layer_factory.hpp:77] Creating layer pool3
I0121 19:38:28.023962 16105 net.cpp:100] Creating Layer pool3
I0121 19:38:28.023967 16105 net.cpp:434] pool3 <- conv3
I0121 19:38:28.023972 16105 net.cpp:408] pool3 -> pool3
I0121 19:38:28.024260 16105 net.cpp:150] Setting up pool3
I0121 19:38:28.024271 16105 net.cpp:157] Top shape: 100 256 4 4 (409600)
I0121 19:38:28.024276 16105 net.cpp:165] Memory required for data: 176538000
I0121 19:38:28.024279 16105 layer_factory.hpp:77] Creating layer drop3_a
I0121 19:38:28.024286 16105 net.cpp:100] Creating Layer drop3_a
I0121 19:38:28.024291 16105 net.cpp:434] drop3_a <- pool3
I0121 19:38:28.024296 16105 net.cpp:395] drop3_a -> pool3 (in-place)
I0121 19:38:28.024323 16105 net.cpp:150] Setting up drop3_a
I0121 19:38:28.024330 16105 net.cpp:157] Top shape: 100 256 4 4 (409600)
I0121 19:38:28.024333 16105 net.cpp:165] Memory required for data: 178176400
I0121 19:38:28.024338 16105 layer_factory.hpp:77] Creating layer ip1
I0121 19:38:28.024353 16105 net.cpp:100] Creating Layer ip1
I0121 19:38:28.024358 16105 net.cpp:434] ip1 <- pool3
I0121 19:38:28.024363 16105 net.cpp:408] ip1 -> ip1
I0121 19:38:28.252585 16105 net.cpp:150] Setting up ip1
I0121 19:38:28.252617 16105 net.cpp:157] Top shape: 100 2048 (204800)
I0121 19:38:28.252622 16105 net.cpp:165] Memory required for data: 178995600
I0121 19:38:28.252631 16105 layer_factory.hpp:77] Creating layer drop_ip1
I0121 19:38:28.252656 16105 net.cpp:100] Creating Layer drop_ip1
I0121 19:38:28.252662 16105 net.cpp:434] drop_ip1 <- ip1
I0121 19:38:28.252670 16105 net.cpp:395] drop_ip1 -> ip1 (in-place)
I0121 19:38:28.252704 16105 net.cpp:150] Setting up drop_ip1
I0121 19:38:28.252710 16105 net.cpp:157] Top shape: 100 2048 (204800)
I0121 19:38:28.252714 16105 net.cpp:165] Memory required for data: 179814800
I0121 19:38:28.252720 16105 layer_factory.hpp:77] Creating layer ip2
I0121 19:38:28.252737 16105 net.cpp:100] Creating Layer ip2
I0121 19:38:28.252741 16105 net.cpp:434] ip2 <- ip1
I0121 19:38:28.252748 16105 net.cpp:408] ip2 -> ip2
I0121 19:38:28.365682 16105 net.cpp:150] Setting up ip2
I0121 19:38:28.365713 16105 net.cpp:157] Top shape: 100 2048 (204800)
I0121 19:38:28.365717 16105 net.cpp:165] Memory required for data: 180634000
I0121 19:38:28.365734 16105 layer_factory.hpp:77] Creating layer drop_ip2
I0121 19:38:28.365748 16105 net.cpp:100] Creating Layer drop_ip2
I0121 19:38:28.365761 16105 net.cpp:434] drop_ip2 <- ip2
I0121 19:38:28.365767 16105 net.cpp:395] drop_ip2 -> ip2 (in-place)
I0121 19:38:28.365803 16105 net.cpp:150] Setting up drop_ip2
I0121 19:38:28.365808 16105 net.cpp:157] Top shape: 100 2048 (204800)
I0121 19:38:28.365811 16105 net.cpp:165] Memory required for data: 181453200
I0121 19:38:28.365815 16105 layer_factory.hpp:77] Creating layer ip3
I0121 19:38:28.365825 16105 net.cpp:100] Creating Layer ip3
I0121 19:38:28.365829 16105 net.cpp:434] ip3 <- ip2
I0121 19:38:28.365834 16105 net.cpp:408] ip3 -> ip3
I0121 19:38:28.366458 16105 net.cpp:150] Setting up ip3
I0121 19:38:28.366466 16105 net.cpp:157] Top shape: 100 10 (1000)
I0121 19:38:28.366469 16105 net.cpp:165] Memory required for data: 181457200
I0121 19:38:28.366479 16105 layer_factory.hpp:77] Creating layer loss
I0121 19:38:28.366492 16105 net.cpp:100] Creating Layer loss
I0121 19:38:28.366497 16105 net.cpp:434] loss <- ip3
I0121 19:38:28.366502 16105 net.cpp:434] loss <- label
I0121 19:38:28.366509 16105 net.cpp:408] loss -> loss
I0121 19:38:28.366533 16105 layer_factory.hpp:77] Creating layer loss
…
I0121 19:38:28.367401 16105 solver.cpp:181] Creating test net (#0) specified by net file: examples/cifar10/apl/cifar10_Srivastavaet_APL_train_test.prototxt
I0121 19:38:28.367446 16105 net.cpp:322] The NetState phase (1) differed from the phase (0) specified by a rule in layer cifar
I0121 19:38:28.367575 16105 net.cpp:58] Initializing net from parameters: 
name: "CIFAR10_full"
state {
  phase: TEST
}
layer {
  name: "cifar"
  type: "Data"
  top: "data"
  top: "label"
  include {
    phase: TEST
  }
  transform_param {
    mean_file: "examples/cifar10/mean.binaryproto"
  }
  data_param {
    source: "examples/cifar10/cifar10_test_lmdb"
    batch_size: 100
    backend: LMDB
  }
}
layer {
  name: "conv1"
  type: "Convolution"
  bottom: "data"
  top: "conv1"
  param {
    lr_mult: 1
  }
  param {
    lr_mult: 2
  }
  convolution_param {
    num_output: 96
    pad: 2
    kernel_size: 5
    stride: 1
    weight_filler {
      type: "gaussian"
      std: 0.0001
    }
    bias_filler {
      type: "constant"
    }
  }
}
layer {
  name: "drop1"
  type: "Dropout"
  bottom: "conv1"
  top: "conv1"
  dropout_param {
    dropout_ratio: 0.25
  }
}
layer {
  name: "pool1"
  type: "Pooling"
  bottom: "conv1"
  top: "pool1"
  pooling_param {
    pool: MAX
    kernel_size: 3
    stride: 2
  }
}
layer {
  name: "drop1_a"
  type: "Dropout"
  bottom: "pool1"
  top: "pool1"
  dropout_param {
    dropout_ratio: 0.25
  }
}
layer {
  name: "apl1"
  type: "APL"
  bottom: "pool1"
  top: "pool1"
  apl_param {
    sums: 2
    slope_filler {
      type: "constant"
      value: 1
    }
    offset_filler {
      type: "constant"
      value: 0
    }
  }
}
layer {
  name: "conv2"
  type: "Convolution"
  bottom: "pool1"
  top: "conv2"
  param {
    lr_mult: 1
  }
  param {
    lr_mult: 2
  }
  convolution_param {
    num_output: 128
    pad: 2
    kernel_size: 5
    stride: 1
    weight_filler {
      type: "gaussian"
      std: 0.01
    }
    bias_filler {
      type: "constant"
    }
  }
}
layer {
  name: "apl2"
  type: "APL"
  bottom: "conv2"
  top: "conv2"
  apl_param {
    sums: 2
    slope_filler {
      type: "constant"
      value: 1
    }
    offset_filler {
      type: "constant"
      value: 0
    }
  }
}
layer {
  name: "drop2"
  type: "Dropout"
  bottom: "conv2"
  top: "conv2"
  dropout_param {
    dropout_ratio: 0.25
  }
}
layer {
  name: "pool2"
  type: "Pooling"
  bottom: "conv2"
  top: "pool2"
  pooling_param {
    pool: AVE
    kernel_size: 3
    stride: 2
  }
}
layer {
  name: "drop2_a"
  type: "Dropout"
  bottom: "pool2"
  top: "pool2"
  dropout_param {
    dropout_ratio: 0.25
  }
}
layer {
  name: "conv3"
  type: "Convolution"
  bottom: "pool2"
  top: "conv3"
  convolution_param {
    num_output: 256
    pad: 2
    kernel_size: 5
    stride: 1
    weight_filler {
      type: "gaussian"
      std: 0.01
    }
    bias_filler {
      type: "constant"
    }
  }
}
layer {
  name: "apl3"
  type: "APL"
  bottom: "conv3"
  top: "conv3"
  apl_param {
    sums: 2
    slope_filler {
      type: "constant"
      value: 1
    }
    offset_filler {
      type: "constant"
      value: 0
    }
  }
}
layer {
  name: "drop3"
  type: "Dropout"
  bottom: "conv3"
  top: "conv3"
  dropout_param {
    dropout_ratio: 0.25
  }
}
layer {
  name: "pool3"
  type: "Pooling"
  bottom: "conv3"
  top: "pool3"
  pooling_param {
    pool: AVE
    kernel_size: 3
    stride: 2
  }
}
layer {
  name: "drop3_a"
  type: "Dropout"
  bottom: "pool3"
  top: "pool3"
  dropout_param {
    dropout_ratio: 0.5
  }
}
layer {
  name: "ip1"
  type: "InnerProduct"
  bottom: "pool3"
  top: "ip1"
  param {
    lr_mult: 1
    decay_mult: 1
  }
  param {
    lr_mult: 2
    decay_mult: 0
  }
  inner_product_param {
    num_output: 2048
    weight_filler {
      type: "gaussian"
      std: 0.01
    }
    bias_filler {
      type: "constant"
    }
  }
}
layer {
  name: "drop_ip1"
  type: "Dropout"
  bottom: "ip1"
  top: "ip1"
  dropout_param {
    dropout_ratio: 0.5
  }
}
layer {
  name: "ip2"
  type: "InnerProduct"
  bottom: "ip1"
  top: "ip2"
  param {
    lr_mult: 1
    decay_mult: 1
  }
  param {
    lr_mult: 2
    decay_mult: 0
  }
  inner_product_param {
    num_output: 2048
    weight_filler {
      type: "gaussian"
      std: 0.01
    }
    bias_filler {
      type: "constant"
    }
  }
}
layer {
  name: "drop_ip2"
  type: "Dropout"
  bottom: "ip2"
  top: "ip2"
  dropout_param {
    dropout_ratio: 0.5
  }
}
layer {
  name: "ip3"
  type: "InnerProduct"
  bottom: "ip2"
  top: "ip3"
  param {
    lr_mult: 1
    decay_mult: 1
  }
  param {
    lr_mult: 2
    decay_mult: 0
  }
  inner_product_param {
    num_output: 10
    weight_filler {
      type: "gaussian"
      std: 0.01
    }
    bias_filler {
      type: "constant"
    }
  }
}
layer {
  name: "accuracy"
  type: "Accuracy"
  bottom: "ip3"
  bottom: "label"
  top: "accuracy"
  include {
    phase: TEST
  }
}
layer {
  name: "loss"
  type: "SoftmaxWithLoss"
  bottom: "ip3"
  bottom: "label"
  top: "loss"
}
I0121 19:38:28.367679 16105 layer_factory.hpp:77] Creating layer cifar
I0121 19:38:28.367785 16105 net.cpp:100] Creating Layer cifar
I0121 19:38:28.367794 16105 net.cpp:408] cifar -> data
I0121 19:38:28.367810 16105 net.cpp:408] cifar -> label
I0121 19:38:28.367818 16105 data_transformer.cpp:25] Loading mean file from: examples/cifar10/mean.binaryproto
I0121 19:38:28.368912 16126 db_lmdb.cpp:35] Opened lmdb examples/cifar10/cifar10_test_lmdb
I0121 19:38:28.369022 16105 data_layer.cpp:41] output data size: 100,3,32,32
I0121 19:38:28.371640 16105 net.cpp:150] Setting up cifar
I0121 19:38:28.371660 16105 net.cpp:157] Top shape: 100 3 32 32 (307200)
I0121 19:38:28.371665 16105 net.cpp:157] Top shape: 100 (100)
I0121 19:38:28.371670 16105 net.cpp:165] Memory required for data: 1229200
I0121 19:38:28.371675 16105 layer_factory.hpp:77] Creating layer label_cifar_1_split
I0121 19:38:28.371685 16105 net.cpp:100] Creating Layer label_cifar_1_split
I0121 19:38:28.371688 16105 net.cpp:434] label_cifar_1_split <- label
I0121 19:38:28.371693 16105 net.cpp:408] label_cifar_1_split -> label_cifar_1_split_0
I0121 19:38:28.371708 16105 net.cpp:408] label_cifar_1_split -> label_cifar_1_split_1
I0121 19:38:28.371796 16105 net.cpp:150] Setting up label_cifar_1_split
I0121 19:38:28.371804 16105 net.cpp:157] Top shape: 100 (100)
I0121 19:38:28.371809 16105 net.cpp:157] Top shape: 100 (100)
I0121 19:38:28.371811 16105 net.cpp:165] Memory required for data: 1230000
I0121 19:38:28.371815 16105 layer_factory.hpp:77] Creating layer conv1
I0121 19:38:28.371845 16105 net.cpp:100] Creating Layer conv1
I0121 19:38:28.371848 16105 net.cpp:434] conv1 <- data
I0121 19:38:28.371855 16105 net.cpp:408] conv1 -> conv1
I0121 19:38:28.373267 16105 net.cpp:150] Setting up conv1
I0121 19:38:28.373281 16105 net.cpp:157] Top shape: 100 96 32 32 (9830400)
I0121 19:38:28.373284 16105 net.cpp:165] Memory required for data: 40551600
I0121 19:38:28.373293 16105 layer_factory.hpp:77] Creating layer drop1
I0121 19:38:28.373301 16105 net.cpp:100] Creating Layer drop1
I0121 19:38:28.373304 16105 net.cpp:434] drop1 <- conv1
I0121 19:38:28.373309 16105 net.cpp:395] drop1 -> conv1 (in-place)
I0121 19:38:28.373348 16105 net.cpp:150] Setting up drop1
I0121 19:38:28.373356 16105 net.cpp:157] Top shape: 100 96 32 32 (9830400)
I0121 19:38:28.373360 16105 net.cpp:165] Memory required for data: 79873200
I0121 19:38:28.373363 16105 layer_factory.hpp:77] Creating layer pool1
I0121 19:38:28.373370 16105 net.cpp:100] Creating Layer pool1
I0121 19:38:28.373373 16105 net.cpp:434] pool1 <- conv1
I0121 19:38:28.373379 16105 net.cpp:408] pool1 -> pool1
I0121 19:38:28.373409 16105 net.cpp:150] Setting up pool1
I0121 19:38:28.373419 16105 net.cpp:157] Top shape: 100 96 16 16 (2457600)
I0121 19:38:28.373422 16105 net.cpp:165] Memory required for data: 89703600
I0121 19:38:28.373426 16105 layer_factory.hpp:77] Creating layer drop1_a
I0121 19:38:28.373432 16105 net.cpp:100] Creating Layer drop1_a
I0121 19:38:28.373437 16105 net.cpp:434] drop1_a <- pool1
I0121 19:38:28.373442 16105 net.cpp:395] drop1_a -> pool1 (in-place)
I0121 19:38:28.373459 16105 net.cpp:150] Setting up drop1_a
I0121 19:38:28.373466 16105 net.cpp:157] Top shape: 100 96 16 16 (2457600)
I0121 19:38:28.373471 16105 net.cpp:165] Memory required for data: 99534000
I0121 19:38:28.373474 16105 layer_factory.hpp:77] Creating layer apl1
I0121 19:38:28.373479 16105 net.cpp:100] Creating Layer apl1
I0121 19:38:28.373483 16105 net.cpp:434] apl1 <- pool1
I0121 19:38:28.373491 16105 net.cpp:395] apl1 -> pool1 (in-place)
I0121 19:38:28.373694 16105 apl_layer.cpp:95]  Sums: 2
I0121 19:38:28.373715 16105 net.cpp:150] Setting up apl1
I0121 19:38:28.373721 16105 net.cpp:157] Top shape: 100 96 16 16 (2457600)
I0121 19:38:28.373728 16105 net.cpp:165] Memory required for data: 109364400
I0121 19:38:28.373735 16105 layer_factory.hpp:77] Creating layer conv2
I0121 19:38:28.373749 16105 net.cpp:100] Creating Layer conv2
I0121 19:38:28.373752 16105 net.cpp:434] conv2 <- pool1
I0121 19:38:28.373759 16105 net.cpp:408] conv2 -> conv2
I0121 19:38:28.384917 16105 net.cpp:150] Setting up conv2
I0121 19:38:28.384948 16105 net.cpp:157] Top shape: 100 128 16 16 (3276800)
I0121 19:38:28.384953 16105 net.cpp:165] Memory required for data: 122471600
I0121 19:38:28.384961 16105 layer_factory.hpp:77] Creating layer apl2
I0121 19:38:28.384979 16105 net.cpp:100] Creating Layer apl2
I0121 19:38:28.384984 16105 net.cpp:434] apl2 <- conv2
I0121 19:38:28.384989 16105 net.cpp:395] apl2 -> conv2 (in-place)
I0121 19:38:28.385632 16105 apl_layer.cpp:95]  Sums: 2
I0121 19:38:28.385668 16105 net.cpp:150] Setting up apl2
I0121 19:38:28.385675 16105 net.cpp:157] Top shape: 100 128 16 16 (3276800)
I0121 19:38:28.385679 16105 net.cpp:165] Memory required for data: 135578800
I0121 19:38:28.385696 16105 layer_factory.hpp:77] Creating layer drop2
I0121 19:38:28.385704 16105 net.cpp:100] Creating Layer drop2
I0121 19:38:28.385721 16105 net.cpp:434] drop2 <- conv2
I0121 19:38:28.385726 16105 net.cpp:395] drop2 -> conv2 (in-place)
I0121 19:38:28.385751 16105 net.cpp:150] Setting up drop2
I0121 19:38:28.385759 16105 net.cpp:157] Top shape: 100 128 16 16 (3276800)
I0121 19:38:28.385763 16105 net.cpp:165] Memory required for data: 148686000
I0121 19:38:28.385766 16105 layer_factory.hpp:77] Creating layer pool2
I0121 19:38:28.385772 16105 net.cpp:100] Creating Layer pool2
I0121 19:38:28.385777 16105 net.cpp:434] pool2 <- conv2
I0121 19:38:28.385783 16105 net.cpp:408] pool2 -> pool2
I0121 19:38:28.386122 16105 net.cpp:150] Setting up pool2
I0121 19:38:28.386142 16105 net.cpp:157] Top shape: 100 128 8 8 (819200)
I0121 19:38:28.386157 16105 net.cpp:165] Memory required for data: 151962800
I0121 19:38:28.386162 16105 layer_factory.hpp:77] Creating layer drop2_a
I0121 19:38:28.386168 16105 net.cpp:100] Creating Layer drop2_a
I0121 19:38:28.386180 16105 net.cpp:434] drop2_a <- pool2
I0121 19:38:28.386198 16105 net.cpp:395] drop2_a -> pool2 (in-place)
I0121 19:38:28.386236 16105 net.cpp:150] Setting up drop2_a
I0121 19:38:28.386245 16105 net.cpp:157] Top shape: 100 128 8 8 (819200)
I0121 19:38:28.386250 16105 net.cpp:165] Memory required for data: 155239600
I0121 19:38:28.386253 16105 layer_factory.hpp:77] Creating layer conv3
I0121 19:38:28.386270 16105 net.cpp:100] Creating Layer conv3
I0121 19:38:28.386276 16105 net.cpp:434] conv3 <- pool2
I0121 19:38:28.386283 16105 net.cpp:408] conv3 -> conv3
I0121 19:38:28.409194 16105 net.cpp:150] Setting up conv3
I0121 19:38:28.409214 16105 net.cpp:157] Top shape: 100 256 8 8 (1638400)
I0121 19:38:28.409219 16105 net.cpp:165] Memory required for data: 161793200
I0121 19:38:28.409226 16105 layer_factory.hpp:77] Creating layer apl3
I0121 19:38:28.409241 16105 net.cpp:100] Creating Layer apl3
I0121 19:38:28.409245 16105 net.cpp:434] apl3 <- conv3
I0121 19:38:28.409251 16105 net.cpp:395] apl3 -> conv3 (in-place)
I0121 19:38:28.409353 16105 apl_layer.cpp:95]  Sums: 2
I0121 19:38:28.409380 16105 net.cpp:150] Setting up apl3
I0121 19:38:28.409395 16105 net.cpp:157] Top shape: 100 256 8 8 (1638400)
I0121 19:38:28.409399 16105 net.cpp:165] Memory required for data: 168346800
I0121 19:38:28.409404 16105 layer_factory.hpp:77] Creating layer drop3
I0121 19:38:28.409409 16105 net.cpp:100] Creating Layer drop3
I0121 19:38:28.409413 16105 net.cpp:434] drop3 <- conv3
I0121 19:38:28.409418 16105 net.cpp:395] drop3 -> conv3 (in-place)
I0121 19:38:28.409442 16105 net.cpp:150] Setting up drop3
I0121 19:38:28.409448 16105 net.cpp:157] Top shape: 100 256 8 8 (1638400)
I0121 19:38:28.409451 16105 net.cpp:165] Memory required for data: 174900400
I0121 19:38:28.409454 16105 layer_factory.hpp:77] Creating layer pool3
I0121 19:38:28.409459 16105 net.cpp:100] Creating Layer pool3
I0121 19:38:28.409463 16105 net.cpp:434] pool3 <- conv3
I0121 19:38:28.409468 16105 net.cpp:408] pool3 -> pool3
I0121 19:38:28.409771 16105 net.cpp:150] Setting up pool3
I0121 19:38:28.409791 16105 net.cpp:157] Top shape: 100 256 4 4 (409600)
I0121 19:38:28.409795 16105 net.cpp:165] Memory required for data: 176538800
I0121 19:38:28.409798 16105 layer_factory.hpp:77] Creating layer drop3_a
I0121 19:38:28.409806 16105 net.cpp:100] Creating Layer drop3_a
I0121 19:38:28.409811 16105 net.cpp:434] drop3_a <- pool3
I0121 19:38:28.409816 16105 net.cpp:395] drop3_a -> pool3 (in-place)
I0121 19:38:28.409844 16105 net.cpp:150] Setting up drop3_a
I0121 19:38:28.409859 16105 net.cpp:157] Top shape: 100 256 4 4 (409600)
I0121 19:38:28.409863 16105 net.cpp:165] Memory required for data: 178177200
I0121 19:38:28.409867 16105 layer_factory.hpp:77] Creating layer ip1
I0121 19:38:28.409873 16105 net.cpp:100] Creating Layer ip1
I0121 19:38:28.409876 16105 net.cpp:434] ip1 <- pool3
I0121 19:38:28.409881 16105 net.cpp:408] ip1 -> ip1
I0121 19:38:28.637650 16105 net.cpp:150] Setting up ip1
I0121 19:38:28.637689 16105 net.cpp:157] Top shape: 100 2048 (204800)
I0121 19:38:28.637692 16105 net.cpp:165] Memory required for data: 178996400
I0121 19:38:28.637701 16105 layer_factory.hpp:77] Creating layer drop_ip1
I0121 19:38:28.637719 16105 net.cpp:100] Creating Layer drop_ip1
I0121 19:38:28.637725 16105 net.cpp:434] drop_ip1 <- ip1
I0121 19:38:28.637742 16105 net.cpp:395] drop_ip1 -> ip1 (in-place)
I0121 19:38:28.637771 16105 net.cpp:150] Setting up drop_ip1
I0121 19:38:28.637786 16105 net.cpp:157] Top shape: 100 2048 (204800)
I0121 19:38:28.637789 16105 net.cpp:165] Memory required for data: 179815600
I0121 19:38:28.637794 16105 layer_factory.hpp:77] Creating layer ip2
I0121 19:38:28.637800 16105 net.cpp:100] Creating Layer ip2
I0121 19:38:28.637804 16105 net.cpp:434] ip2 <- ip1
I0121 19:38:28.637809 16105 net.cpp:408] ip2 -> ip2
I0121 19:38:28.750490 16105 net.cpp:150] Setting up ip2
I0121 19:38:28.750524 16105 net.cpp:157] Top shape: 100 2048 (204800)
I0121 19:38:28.750527 16105 net.cpp:165] Memory required for data: 180634800
I0121 19:38:28.750535 16105 layer_factory.hpp:77] Creating layer drop_ip2
I0121 19:38:28.750550 16105 net.cpp:100] Creating Layer drop_ip2
I0121 19:38:28.750555 16105 net.cpp:434] drop_ip2 <- ip2
I0121 19:38:28.750571 16105 net.cpp:395] drop_ip2 -> ip2 (in-place)
I0121 19:38:28.750602 16105 net.cpp:150] Setting up drop_ip2
I0121 19:38:28.750610 16105 net.cpp:157] Top shape: 100 2048 (204800)
I0121 19:38:28.750613 16105 net.cpp:165] Memory required for data: 181454000
I0121 19:38:28.750617 16105 layer_factory.hpp:77] Creating layer ip3
I0121 19:38:28.750633 16105 net.cpp:100] Creating Layer ip3
I0121 19:38:28.750638 16105 net.cpp:434] ip3 <- ip2
I0121 19:38:28.750643 16105 net.cpp:408] ip3 -> ip3
I0121 19:38:28.751289 16105 net.cpp:150] Setting up ip3
I0121 19:38:28.751296 16105 net.cpp:157] Top shape: 100 10 (1000)
I0121 19:38:28.751307 16105 net.cpp:165] Memory required for data: 181458000
I0121 19:38:28.751324 16105 layer_factory.hpp:77] Creating layer ip3_ip3_0_split
I0121 19:38:28.751330 16105 net.cpp:100] Creating Layer ip3_ip3_0_split
I0121 19:38:28.751334 16105 net.cpp:434] ip3_ip3_0_split <- ip3
I0121 19:38:28.751338 16105 net.cpp:408] ip3_ip3_0_split -> ip3_ip3_0_split_0
I0121 19:38:28.751344 16105 net.cpp:408] ip3_ip3_0_split -> ip3_ip3_0_split_1
I0121 19:38:28.751385 16105 net.cpp:150] Setting up ip3_ip3_0_split
I0121 19:38:28.751392 16105 net.cpp:157] Top shape: 100 10 (1000)
I0121 19:38:28.751396 16105 net.cpp:157] Top shape: 100 10 (1000)
I0121 19:38:28.751399 16105 net.cpp:165] Memory required for data: 181466000
I0121 19:38:28.751402 16105 layer_factory.hpp:77] Creating layer accuracy
I0121 19:38:28.751422 16105 net.cpp:100] Creating Layer accuracy
I0121 19:38:28.751428 16105 net.cpp:434] accuracy <- ip3_ip3_0_split_0
I0121 19:38:28.751432 16105 net.cpp:434] accuracy <- label_cifar_1_split_0
I0121 19:38:28.751437 16105 net.cpp:408] accuracy -> accuracy
…
