…
I1217 20:32:52.813235 31355 net.cpp:322] The NetState phase (0) differed from the phase (1) specified by a rule in layer accuracy
I1217 20:32:52.813359 31355 net.cpp:58] Initializing net from parameters: 
name: "CIFAR10_full"
state {
  phase: TRAIN
  level: 0
  stage: ""
}
layer {
  name: "cifar"
  type: "Data"
  top: "data"
  top: "label"
  include {
    phase: TRAIN
  }
  transform_param {
    mean_file: "examples/cifar10/mean.binaryproto"
  }
  data_param {
    source: "examples/cifar10/cifar10_train_lmdb"
    batch_size: 100
    backend: LMDB
  }
}
layer {
  name: "conv1"
  type: "Convolution"
  bottom: "data"
  top: "conv1"
  param {
    lr_mult: 1
  }
  param {
    lr_mult: 2
  }
  convolution_param {
    num_output: 96
    pad: 2
    kernel_size: 5
    stride: 1
    weight_filler {
      type: "gaussian"
      std: 0.0001
    }
    bias_filler {
      type: "constant"
    }
  }
}
layer {
  name: "drop1"
  type: "Dropout"
  bottom: "conv1"
  top: "conv1"
  dropout_param {
    dropout_ratio: 0.25
  }
}
layer {
  name: "pool1"
  type: "Pooling"
  bottom: "conv1"
  top: "pool1"
  pooling_param {
    pool: MAX
    kernel_size: 3
    stride: 2
  }
}
layer {
  name: "drop1_a"
  type: "Dropout"
  bottom: "pool1"
  top: "pool1"
  dropout_param {
    dropout_ratio: 0.25
  }
}
layer {
  name: "relu1"
  type: "ReLU"
  bottom: "pool1"
  top: "pool1"
}
layer {
  name: "conv2"
  type: "Convolution"
  bottom: "pool1"
  top: "conv2"
  param {
    lr_mult: 1
  }
  param {
    lr_mult: 2
  }
  convolution_param {
    num_output: 128
    pad: 2
    kernel_size: 5
    stride: 1
    weight_filler {
      type: "gaussian"
      std: 0.01
    }
    bias_filler {
      type: "constant"
    }
  }
}
layer {
  name: "relu2"
  type: "ReLU"
  bottom: "conv2"
  top: "conv2"
}
layer {
  name: "drop2"
  type: "Dropout"
  bottom: "conv2"
  top: "conv2"
  dropout_param {
    dropout_ratio: 0.25
  }
}
layer {
  name: "pool2"
  type: "Pooling"
  bottom: "conv2"
  top: "pool2"
  pooling_param {
    pool: AVE
    kernel_size: 3
    stride: 2
  }
}
layer {
  name: "drop2_a"
  type: "Dropout"
  bottom: "pool2"
  top: "pool2"
  dropout_param {
    dropout_ratio: 0.25
  }
}
layer {
  name: "conv3"
  type: "Convolution"
  bottom: "pool2"
  top: "conv3"
  convolution_param {
    num_output: 256
    pad: 2
    kernel_size: 5
    stride: 1
    weight_filler {
      type: "gaussian"
      std: 0.01
    }
    bias_filler {
      type: "constant"
    }
  }
}
layer {
  name: "relu3"
  type: "ReLU"
  bottom: "conv3"
  top: "conv3"
}
layer {
  name: "drop3"
  type: "Dropout"
  bottom: "conv3"
  top: "conv3"
  dropout_param {
    dropout_ratio: 0.25
  }
}
layer {
  name: "pool3"
  type: "Pooling"
  bottom: "conv3"
  top: "pool3"
  pooling_param {
    pool: AVE
    kernel_size: 3
    stride: 2
  }
}
layer {
  name: "drop3_a"
  type: "Dropout"
  bottom: "pool3"
  top: "pool3"
  dropout_param {
    dropout_ratio: 0.5
  }
}
layer {
  name: "ip1"
  type: "InnerProduct"
  bottom: "pool3"
  top: "ip1"
  param {
    lr_mult: 1
    decay_mult: 1
  }
  param {
    lr_mult: 2
    decay_mult: 0
  }
  inner_product_param {
    num_output: 2048
    weight_filler {
      type: "gaussian"
      std: 0.01
    }
    bias_filler {
      type: "constant"
    }
  }
}
layer {
  name: "drop_ip1"
  type: "Dropout"
  bottom: "ip1"
  top: "ip1"
  dropout_param {
    dropout_ratio: 0.5
  }
}
layer {
  name: "ip2"
  type: "InnerProduct"
  bottom: "ip1"
  top: "ip2"
  param {
    lr_mult: 1
    decay_mult: 1
  }
  param {
    lr_mult: 2
    decay_mult: 0
  }
  inner_product_param {
    num_output: 2048
    weight_filler {
      type: "gaussian"
      std: 0.01
    }
    bias_filler {
      type: "constant"
    }
  }
}
layer {
  name: "drop_ip2"
  type: "Dropout"
  bottom: "ip2"
  top: "ip2"
  dropout_param {
    dropout_ratio: 0.5
  }
}
layer {
  name: "ip3"
  type: "InnerProduct"
  bottom: "ip2"
  top: "ip3"
  param {
    lr_mult: 1
    decay_mult: 1
  }
  param {
    lr_mult: 2
    decay_mult: 0
  }
  inner_product_param {
    num_output: 10
    weight_filler {
      type: "gaussian"
      std: 0.01
    }
    bias_filler {
      type: "constant"
    }
  }
}
layer {
  name: "loss"
  type: "SoftmaxWithLoss"
  bottom: "ip3"
  bottom: "label"
  top: "loss"
}
I1217 20:32:52.813485 31355 layer_factory.hpp:77] Creating layer cifar
I1217 20:32:52.813972 31355 net.cpp:100] Creating Layer cifar
I1217 20:32:52.813997 31355 net.cpp:408] cifar -> data
I1217 20:32:52.814038 31355 net.cpp:408] cifar -> label
I1217 20:32:52.814059 31355 data_transformer.cpp:25] Loading mean file from: examples/cifar10/mean.binaryproto
I1217 20:32:52.815356 31374 db_lmdb.cpp:35] Opened lmdb examples/cifar10/cifar10_train_lmdb
I1217 20:32:52.831370 31355 data_layer.cpp:41] output data size: 100,3,32,32
I1217 20:32:52.833629 31355 net.cpp:150] Setting up cifar
I1217 20:32:52.833662 31355 net.cpp:157] Top shape: 100 3 32 32 (307200)
I1217 20:32:52.833670 31355 net.cpp:157] Top shape: 100 (100)
I1217 20:32:52.833676 31355 net.cpp:165] Memory required for data: 1229200
I1217 20:32:52.833688 31355 layer_factory.hpp:77] Creating layer conv1
I1217 20:32:52.833716 31355 net.cpp:100] Creating Layer conv1
I1217 20:32:52.833724 31355 net.cpp:434] conv1 <- data
I1217 20:32:52.833745 31355 net.cpp:408] conv1 -> conv1
I1217 20:32:52.987136 31355 net.cpp:150] Setting up conv1
I1217 20:32:52.987184 31355 net.cpp:157] Top shape: 100 96 32 32 (9830400)
I1217 20:32:52.987188 31355 net.cpp:165] Memory required for data: 40550800
I1217 20:32:52.987218 31355 layer_factory.hpp:77] Creating layer drop1
I1217 20:32:52.987244 31355 net.cpp:100] Creating Layer drop1
I1217 20:32:52.987252 31355 net.cpp:434] drop1 <- conv1
I1217 20:32:52.987268 31355 net.cpp:395] drop1 -> conv1 (in-place)
I1217 20:32:52.987336 31355 net.cpp:150] Setting up drop1
I1217 20:32:52.987344 31355 net.cpp:157] Top shape: 100 96 32 32 (9830400)
I1217 20:32:52.987349 31355 net.cpp:165] Memory required for data: 79872400
I1217 20:32:52.987357 31355 layer_factory.hpp:77] Creating layer pool1
I1217 20:32:52.987371 31355 net.cpp:100] Creating Layer pool1
I1217 20:32:52.987377 31355 net.cpp:434] pool1 <- conv1
I1217 20:32:52.987385 31355 net.cpp:408] pool1 -> pool1
I1217 20:32:52.987442 31355 net.cpp:150] Setting up pool1
I1217 20:32:52.987450 31355 net.cpp:157] Top shape: 100 96 16 16 (2457600)
I1217 20:32:52.987455 31355 net.cpp:165] Memory required for data: 89702800
I1217 20:32:52.987460 31355 layer_factory.hpp:77] Creating layer drop1_a
I1217 20:32:52.987468 31355 net.cpp:100] Creating Layer drop1_a
I1217 20:32:52.987474 31355 net.cpp:434] drop1_a <- pool1
I1217 20:32:52.987480 31355 net.cpp:395] drop1_a -> pool1 (in-place)
I1217 20:32:52.987505 31355 net.cpp:150] Setting up drop1_a
I1217 20:32:52.987514 31355 net.cpp:157] Top shape: 100 96 16 16 (2457600)
I1217 20:32:52.987517 31355 net.cpp:165] Memory required for data: 99533200
I1217 20:32:52.987524 31355 layer_factory.hpp:77] Creating layer relu1
I1217 20:32:52.987534 31355 net.cpp:100] Creating Layer relu1
I1217 20:32:52.987540 31355 net.cpp:434] relu1 <- pool1
I1217 20:32:52.987545 31355 net.cpp:395] relu1 -> pool1 (in-place)
I1217 20:32:52.987821 31355 net.cpp:150] Setting up relu1
I1217 20:32:52.987833 31355 net.cpp:157] Top shape: 100 96 16 16 (2457600)
I1217 20:32:52.987838 31355 net.cpp:165] Memory required for data: 109363600
I1217 20:32:52.987843 31355 layer_factory.hpp:77] Creating layer conv2
I1217 20:32:52.987882 31355 net.cpp:100] Creating Layer conv2
I1217 20:32:52.987890 31355 net.cpp:434] conv2 <- pool1
I1217 20:32:52.987905 31355 net.cpp:408] conv2 -> conv2
I1217 20:32:52.996749 31355 net.cpp:150] Setting up conv2
I1217 20:32:52.996763 31355 net.cpp:157] Top shape: 100 128 16 16 (3276800)
I1217 20:32:52.996768 31355 net.cpp:165] Memory required for data: 122470800
I1217 20:32:52.996788 31355 layer_factory.hpp:77] Creating layer relu2
I1217 20:32:52.996798 31355 net.cpp:100] Creating Layer relu2
I1217 20:32:52.996803 31355 net.cpp:434] relu2 <- conv2
I1217 20:32:52.996810 31355 net.cpp:395] relu2 -> conv2 (in-place)
I1217 20:32:52.996970 31355 net.cpp:150] Setting up relu2
I1217 20:32:52.996981 31355 net.cpp:157] Top shape: 100 128 16 16 (3276800)
I1217 20:32:52.996985 31355 net.cpp:165] Memory required for data: 135578000
I1217 20:32:52.996991 31355 layer_factory.hpp:77] Creating layer drop2
I1217 20:32:52.997011 31355 net.cpp:100] Creating Layer drop2
I1217 20:32:52.997018 31355 net.cpp:434] drop2 <- conv2
I1217 20:32:52.997025 31355 net.cpp:395] drop2 -> conv2 (in-place)
I1217 20:32:52.997063 31355 net.cpp:150] Setting up drop2
I1217 20:32:52.997071 31355 net.cpp:157] Top shape: 100 128 16 16 (3276800)
I1217 20:32:52.997076 31355 net.cpp:165] Memory required for data: 148685200
I1217 20:32:52.997081 31355 layer_factory.hpp:77] Creating layer pool2
I1217 20:32:52.997088 31355 net.cpp:100] Creating Layer pool2
I1217 20:32:52.997094 31355 net.cpp:434] pool2 <- conv2
I1217 20:32:52.997110 31355 net.cpp:408] pool2 -> pool2
I1217 20:32:52.997416 31355 net.cpp:150] Setting up pool2
I1217 20:32:52.997427 31355 net.cpp:157] Top shape: 100 128 8 8 (819200)
I1217 20:32:52.997432 31355 net.cpp:165] Memory required for data: 151962000
I1217 20:32:52.997438 31355 layer_factory.hpp:77] Creating layer drop2_a
I1217 20:32:52.997447 31355 net.cpp:100] Creating Layer drop2_a
I1217 20:32:52.997457 31355 net.cpp:434] drop2_a <- pool2
I1217 20:32:52.997463 31355 net.cpp:395] drop2_a -> pool2 (in-place)
I1217 20:32:52.997509 31355 net.cpp:150] Setting up drop2_a
I1217 20:32:52.997515 31355 net.cpp:157] Top shape: 100 128 8 8 (819200)
I1217 20:32:52.997520 31355 net.cpp:165] Memory required for data: 155238800
I1217 20:32:52.997526 31355 layer_factory.hpp:77] Creating layer conv3
I1217 20:32:52.997540 31355 net.cpp:100] Creating Layer conv3
I1217 20:32:52.997545 31355 net.cpp:434] conv3 <- pool2
I1217 20:32:52.997560 31355 net.cpp:408] conv3 -> conv3
I1217 20:32:53.019521 31355 net.cpp:150] Setting up conv3
I1217 20:32:53.019544 31355 net.cpp:157] Top shape: 100 256 8 8 (1638400)
I1217 20:32:53.019551 31355 net.cpp:165] Memory required for data: 161792400
I1217 20:32:53.019572 31355 layer_factory.hpp:77] Creating layer relu3
I1217 20:32:53.019582 31355 net.cpp:100] Creating Layer relu3
I1217 20:32:53.019590 31355 net.cpp:434] relu3 <- conv3
I1217 20:32:53.019600 31355 net.cpp:395] relu3 -> conv3 (in-place)
I1217 20:32:53.019878 31355 net.cpp:150] Setting up relu3
I1217 20:32:53.019891 31355 net.cpp:157] Top shape: 100 256 8 8 (1638400)
I1217 20:32:53.019896 31355 net.cpp:165] Memory required for data: 168346000
I1217 20:32:53.019901 31355 layer_factory.hpp:77] Creating layer drop3
I1217 20:32:53.019913 31355 net.cpp:100] Creating Layer drop3
I1217 20:32:53.019919 31355 net.cpp:434] drop3 <- conv3
I1217 20:32:53.019927 31355 net.cpp:395] drop3 -> conv3 (in-place)
I1217 20:32:53.019973 31355 net.cpp:150] Setting up drop3
I1217 20:32:53.019980 31355 net.cpp:157] Top shape: 100 256 8 8 (1638400)
I1217 20:32:53.019984 31355 net.cpp:165] Memory required for data: 174899600
I1217 20:32:53.019990 31355 layer_factory.hpp:77] Creating layer pool3
I1217 20:32:53.020009 31355 net.cpp:100] Creating Layer pool3
I1217 20:32:53.020015 31355 net.cpp:434] pool3 <- conv3
I1217 20:32:53.020021 31355 net.cpp:408] pool3 -> pool3
I1217 20:32:53.020179 31355 net.cpp:150] Setting up pool3
I1217 20:32:53.020190 31355 net.cpp:157] Top shape: 100 256 4 4 (409600)
I1217 20:32:53.020195 31355 net.cpp:165] Memory required for data: 176538000
I1217 20:32:53.020216 31355 layer_factory.hpp:77] Creating layer drop3_a
I1217 20:32:53.020226 31355 net.cpp:100] Creating Layer drop3_a
I1217 20:32:53.020231 31355 net.cpp:434] drop3_a <- pool3
I1217 20:32:53.020247 31355 net.cpp:395] drop3_a -> pool3 (in-place)
I1217 20:32:53.020284 31355 net.cpp:150] Setting up drop3_a
I1217 20:32:53.020294 31355 net.cpp:157] Top shape: 100 256 4 4 (409600)
I1217 20:32:53.020299 31355 net.cpp:165] Memory required for data: 178176400
I1217 20:32:53.020304 31355 layer_factory.hpp:77] Creating layer ip1
I1217 20:32:53.020324 31355 net.cpp:100] Creating Layer ip1
I1217 20:32:53.020331 31355 net.cpp:434] ip1 <- pool3
I1217 20:32:53.020349 31355 net.cpp:408] ip1 -> ip1
I1217 20:32:53.242503 31355 net.cpp:150] Setting up ip1
I1217 20:32:53.242542 31355 net.cpp:157] Top shape: 100 2048 (204800)
I1217 20:32:53.242547 31355 net.cpp:165] Memory required for data: 178995600
I1217 20:32:53.242565 31355 layer_factory.hpp:77] Creating layer drop_ip1
I1217 20:32:53.242586 31355 net.cpp:100] Creating Layer drop_ip1
I1217 20:32:53.242596 31355 net.cpp:434] drop_ip1 <- ip1
I1217 20:32:53.242614 31355 net.cpp:395] drop_ip1 -> ip1 (in-place)
I1217 20:32:53.242656 31355 net.cpp:150] Setting up drop_ip1
I1217 20:32:53.242663 31355 net.cpp:157] Top shape: 100 2048 (204800)
I1217 20:32:53.242668 31355 net.cpp:165] Memory required for data: 179814800
I1217 20:32:53.242676 31355 layer_factory.hpp:77] Creating layer ip2
I1217 20:32:53.242698 31355 net.cpp:100] Creating Layer ip2
I1217 20:32:53.242704 31355 net.cpp:434] ip2 <- ip1
I1217 20:32:53.242720 31355 net.cpp:408] ip2 -> ip2
I1217 20:32:53.349798 31355 net.cpp:150] Setting up ip2
I1217 20:32:53.349822 31355 net.cpp:157] Top shape: 100 2048 (204800)
I1217 20:32:53.349846 31355 net.cpp:165] Memory required for data: 180634000
I1217 20:32:53.349864 31355 layer_factory.hpp:77] Creating layer drop_ip2
I1217 20:32:53.349880 31355 net.cpp:100] Creating Layer drop_ip2
I1217 20:32:53.349886 31355 net.cpp:434] drop_ip2 <- ip2
I1217 20:32:53.349905 31355 net.cpp:395] drop_ip2 -> ip2 (in-place)
I1217 20:32:53.349939 31355 net.cpp:150] Setting up drop_ip2
I1217 20:32:53.349949 31355 net.cpp:157] Top shape: 100 2048 (204800)
I1217 20:32:53.349958 31355 net.cpp:165] Memory required for data: 181453200
I1217 20:32:53.349967 31355 layer_factory.hpp:77] Creating layer ip3
I1217 20:32:53.349980 31355 net.cpp:100] Creating Layer ip3
I1217 20:32:53.349987 31355 net.cpp:434] ip3 <- ip2
I1217 20:32:53.349998 31355 net.cpp:408] ip3 -> ip3
I1217 20:32:53.351111 31355 net.cpp:150] Setting up ip3
I1217 20:32:53.351124 31355 net.cpp:157] Top shape: 100 10 (1000)
I1217 20:32:53.351127 31355 net.cpp:165] Memory required for data: 181457200
I1217 20:32:53.351145 31355 layer_factory.hpp:77] Creating layer loss
I1217 20:32:53.351166 31355 net.cpp:100] Creating Layer loss
I1217 20:32:53.351172 31355 net.cpp:434] loss <- ip3
I1217 20:32:53.351178 31355 net.cpp:434] loss <- label
I1217 20:32:53.351188 31355 net.cpp:408] loss -> loss
I1217 20:32:53.351212 31355 layer_factory.hpp:77] Creating layer loss
…
I1217 20:32:53.352228 31355 solver.cpp:181] Creating test net (#0) specified by net file: examples/cifar10/cifar10_Srivastavaet_train_test.prototxt
I1217 20:32:53.352279 31355 net.cpp:322] The NetState phase (1) differed from the phase (0) specified by a rule in layer cifar
I1217 20:32:53.352406 31355 net.cpp:58] Initializing net from parameters: 
name: "CIFAR10_full"
state {
  phase: TEST
}
layer {
  name: "cifar"
  type: "Data"
  top: "data"
  top: "label"
  include {
    phase: TEST
  }
  transform_param {
    mean_file: "examples/cifar10/mean.binaryproto"
  }
  data_param {
    source: "examples/cifar10/cifar10_test_lmdb"
    batch_size: 100
    backend: LMDB
  }
}
layer {
  name: "conv1"
  type: "Convolution"
  bottom: "data"
  top: "conv1"
  param {
    lr_mult: 1
  }
  param {
    lr_mult: 2
  }
  convolution_param {
    num_output: 96
    pad: 2
    kernel_size: 5
    stride: 1
    weight_filler {
      type: "gaussian"
      std: 0.0001
    }
    bias_filler {
      type: "constant"
    }
  }
}
layer {
  name: "drop1"
  type: "Dropout"
  bottom: "conv1"
  top: "conv1"
  dropout_param {
    dropout_ratio: 0.25
  }
}
layer {
  name: "pool1"
  type: "Pooling"
  bottom: "conv1"
  top: "pool1"
  pooling_param {
    pool: MAX
    kernel_size: 3
    stride: 2
  }
}
layer {
  name: "drop1_a"
  type: "Dropout"
  bottom: "pool1"
  top: "pool1"
  dropout_param {
    dropout_ratio: 0.25
  }
}
layer {
  name: "relu1"
  type: "ReLU"
  bottom: "pool1"
  top: "pool1"
}
layer {
  name: "conv2"
  type: "Convolution"
  bottom: "pool1"
  top: "conv2"
  param {
    lr_mult: 1
  }
  param {
    lr_mult: 2
  }
  convolution_param {
    num_output: 128
    pad: 2
    kernel_size: 5
    stride: 1
    weight_filler {
      type: "gaussian"
      std: 0.01
    }
    bias_filler {
      type: "constant"
    }
  }
}
layer {
  name: "relu2"
  type: "ReLU"
  bottom: "conv2"
  top: "conv2"
}
layer {
  name: "drop2"
  type: "Dropout"
  bottom: "conv2"
  top: "conv2"
  dropout_param {
    dropout_ratio: 0.25
  }
}
layer {
  name: "pool2"
  type: "Pooling"
  bottom: "conv2"
  top: "pool2"
  pooling_param {
    pool: AVE
    kernel_size: 3
    stride: 2
  }
}
layer {
  name: "drop2_a"
  type: "Dropout"
  bottom: "pool2"
  top: "pool2"
  dropout_param {
    dropout_ratio: 0.25
  }
}
layer {
  name: "conv3"
  type: "Convolution"
  bottom: "pool2"
  top: "conv3"
  convolution_param {
    num_output: 256
    pad: 2
    kernel_size: 5
    stride: 1
    weight_filler {
      type: "gaussian"
      std: 0.01
    }
    bias_filler {
      type: "constant"
    }
  }
}
layer {
  name: "relu3"
  type: "ReLU"
  bottom: "conv3"
  top: "conv3"
}
layer {
  name: "drop3"
  type: "Dropout"
  bottom: "conv3"
  top: "conv3"
  dropout_param {
    dropout_ratio: 0.25
  }
}
layer {
  name: "pool3"
  type: "Pooling"
  bottom: "conv3"
  top: "pool3"
  pooling_param {
    pool: AVE
    kernel_size: 3
    stride: 2
  }
}
layer {
  name: "drop3_a"
  type: "Dropout"
  bottom: "pool3"
  top: "pool3"
  dropout_param {
    dropout_ratio: 0.5
  }
}
layer {
  name: "ip1"
  type: "InnerProduct"
  bottom: "pool3"
  top: "ip1"
  param {
    lr_mult: 1
    decay_mult: 1
  }
  param {
    lr_mult: 2
    decay_mult: 0
  }
  inner_product_param {
    num_output: 2048
    weight_filler {
      type: "gaussian"
      std: 0.01
    }
    bias_filler {
      type: "constant"
    }
  }
}
layer {
  name: "drop_ip1"
  type: "Dropout"
  bottom: "ip1"
  top: "ip1"
  dropout_param {
    dropout_ratio: 0.5
  }
}
layer {
  name: "ip2"
  type: "InnerProduct"
  bottom: "ip1"
  top: "ip2"
  param {
    lr_mult: 1
    decay_mult: 1
  }
  param {
    lr_mult: 2
    decay_mult: 0
  }
  inner_product_param {
    num_output: 2048
    weight_filler {
      type: "gaussian"
      std: 0.01
    }
    bias_filler {
      type: "constant"
    }
  }
}
layer {
  name: "drop_ip2"
  type: "Dropout"
  bottom: "ip2"
  top: "ip2"
  dropout_param {
    dropout_ratio: 0.5
  }
}
layer {
  name: "ip3"
  type: "InnerProduct"
  bottom: "ip2"
  top: "ip3"
  param {
    lr_mult: 1
    decay_mult: 1
  }
  param {
    lr_mult: 2
    decay_mult: 0
  }
  inner_product_param {
    num_output: 10
    weight_filler {
      type: "gaussian"
      std: 0.01
    }
    bias_filler {
      type: "constant"
    }
  }
}
layer {
  name: "accuracy"
  type: "Accuracy"
  bottom: "ip3"
  bottom: "label"
  top: "accuracy"
  include {
    phase: TEST
  }
}
layer {
  name: "loss"
  type: "SoftmaxWithLoss"
  bottom: "ip3"
  bottom: "label"
  top: "loss"
}
I1217 20:32:53.352530 31355 layer_factory.hpp:77] Creating layer cifar
I1217 20:32:53.352644 31355 net.cpp:100] Creating Layer cifar
I1217 20:32:53.352654 31355 net.cpp:408] cifar -> data
I1217 20:32:53.352674 31355 net.cpp:408] cifar -> label
I1217 20:32:53.352684 31355 data_transformer.cpp:25] Loading mean file from: examples/cifar10/mean.binaryproto
I1217 20:32:53.353979 31376 db_lmdb.cpp:35] Opened lmdb examples/cifar10/cifar10_test_lmdb
I1217 20:32:53.354099 31355 data_layer.cpp:41] output data size: 100,3,32,32
I1217 20:32:53.356454 31355 net.cpp:150] Setting up cifar
I1217 20:32:53.356467 31355 net.cpp:157] Top shape: 100 3 32 32 (307200)
I1217 20:32:53.356475 31355 net.cpp:157] Top shape: 100 (100)
I1217 20:32:53.356487 31355 net.cpp:165] Memory required for data: 1229200
I1217 20:32:53.356493 31355 layer_factory.hpp:77] Creating layer label_cifar_1_split
I1217 20:32:53.356565 31355 net.cpp:100] Creating Layer label_cifar_1_split
I1217 20:32:53.356572 31355 net.cpp:434] label_cifar_1_split <- label
I1217 20:32:53.356587 31355 net.cpp:408] label_cifar_1_split -> label_cifar_1_split_0
I1217 20:32:53.356609 31355 net.cpp:408] label_cifar_1_split -> label_cifar_1_split_1
I1217 20:32:53.356796 31355 net.cpp:150] Setting up label_cifar_1_split
I1217 20:32:53.356807 31355 net.cpp:157] Top shape: 100 (100)
I1217 20:32:53.356813 31355 net.cpp:157] Top shape: 100 (100)
I1217 20:32:53.356818 31355 net.cpp:165] Memory required for data: 1230000
I1217 20:32:53.356824 31355 layer_factory.hpp:77] Creating layer conv1
I1217 20:32:53.356840 31355 net.cpp:100] Creating Layer conv1
I1217 20:32:53.356845 31355 net.cpp:434] conv1 <- data
I1217 20:32:53.356863 31355 net.cpp:408] conv1 -> conv1
I1217 20:32:53.358052 31355 net.cpp:150] Setting up conv1
I1217 20:32:53.358064 31355 net.cpp:157] Top shape: 100 96 32 32 (9830400)
I1217 20:32:53.358069 31355 net.cpp:165] Memory required for data: 40551600
I1217 20:32:53.358083 31355 layer_factory.hpp:77] Creating layer drop1
I1217 20:32:53.358094 31355 net.cpp:100] Creating Layer drop1
I1217 20:32:53.358103 31355 net.cpp:434] drop1 <- conv1
I1217 20:32:53.358109 31355 net.cpp:395] drop1 -> conv1 (in-place)
I1217 20:32:53.358214 31355 net.cpp:150] Setting up drop1
I1217 20:32:53.358223 31355 net.cpp:157] Top shape: 100 96 32 32 (9830400)
I1217 20:32:53.358228 31355 net.cpp:165] Memory required for data: 79873200
I1217 20:32:53.358234 31355 layer_factory.hpp:77] Creating layer pool1
I1217 20:32:53.358247 31355 net.cpp:100] Creating Layer pool1
I1217 20:32:53.358253 31355 net.cpp:434] pool1 <- conv1
I1217 20:32:53.358260 31355 net.cpp:408] pool1 -> pool1
I1217 20:32:53.358312 31355 net.cpp:150] Setting up pool1
I1217 20:32:53.358321 31355 net.cpp:157] Top shape: 100 96 16 16 (2457600)
I1217 20:32:53.358325 31355 net.cpp:165] Memory required for data: 89703600
I1217 20:32:53.358330 31355 layer_factory.hpp:77] Creating layer drop1_a
I1217 20:32:53.358338 31355 net.cpp:100] Creating Layer drop1_a
I1217 20:32:53.358346 31355 net.cpp:434] drop1_a <- pool1
I1217 20:32:53.358362 31355 net.cpp:395] drop1_a -> pool1 (in-place)
I1217 20:32:53.358394 31355 net.cpp:150] Setting up drop1_a
I1217 20:32:53.358402 31355 net.cpp:157] Top shape: 100 96 16 16 (2457600)
I1217 20:32:53.358407 31355 net.cpp:165] Memory required for data: 99534000
I1217 20:32:53.358413 31355 layer_factory.hpp:77] Creating layer relu1
I1217 20:32:53.358422 31355 net.cpp:100] Creating Layer relu1
I1217 20:32:53.358430 31355 net.cpp:434] relu1 <- pool1
I1217 20:32:53.358438 31355 net.cpp:395] relu1 -> pool1 (in-place)
I1217 20:32:53.358583 31355 net.cpp:150] Setting up relu1
I1217 20:32:53.358594 31355 net.cpp:157] Top shape: 100 96 16 16 (2457600)
I1217 20:32:53.358599 31355 net.cpp:165] Memory required for data: 109364400
I1217 20:32:53.358604 31355 layer_factory.hpp:77] Creating layer conv2
I1217 20:32:53.358626 31355 net.cpp:100] Creating Layer conv2
I1217 20:32:53.358634 31355 net.cpp:434] conv2 <- pool1
I1217 20:32:53.358652 31355 net.cpp:408] conv2 -> conv2
I1217 20:32:53.369681 31355 net.cpp:150] Setting up conv2
I1217 20:32:53.369698 31355 net.cpp:157] Top shape: 100 128 16 16 (3276800)
I1217 20:32:53.369704 31355 net.cpp:165] Memory required for data: 122471600
I1217 20:32:53.369725 31355 layer_factory.hpp:77] Creating layer relu2
I1217 20:32:53.369741 31355 net.cpp:100] Creating Layer relu2
I1217 20:32:53.369750 31355 net.cpp:434] relu2 <- conv2
I1217 20:32:53.369767 31355 net.cpp:395] relu2 -> conv2 (in-place)
I1217 20:32:53.370084 31355 net.cpp:150] Setting up relu2
I1217 20:32:53.370097 31355 net.cpp:157] Top shape: 100 128 16 16 (3276800)
I1217 20:32:53.370103 31355 net.cpp:165] Memory required for data: 135578800
I1217 20:32:53.370110 31355 layer_factory.hpp:77] Creating layer drop2
I1217 20:32:53.370127 31355 net.cpp:100] Creating Layer drop2
I1217 20:32:53.370136 31355 net.cpp:434] drop2 <- conv2
I1217 20:32:53.370151 31355 net.cpp:395] drop2 -> conv2 (in-place)
I1217 20:32:53.370198 31355 net.cpp:150] Setting up drop2
I1217 20:32:53.370208 31355 net.cpp:157] Top shape: 100 128 16 16 (3276800)
I1217 20:32:53.370213 31355 net.cpp:165] Memory required for data: 148686000
I1217 20:32:53.370219 31355 layer_factory.hpp:77] Creating layer pool2
I1217 20:32:53.370239 31355 net.cpp:100] Creating Layer pool2
I1217 20:32:53.370249 31355 net.cpp:434] pool2 <- conv2
I1217 20:32:53.370265 31355 net.cpp:408] pool2 -> pool2
I1217 20:32:53.370455 31355 net.cpp:150] Setting up pool2
I1217 20:32:53.370466 31355 net.cpp:157] Top shape: 100 128 8 8 (819200)
I1217 20:32:53.370472 31355 net.cpp:165] Memory required for data: 151962800
I1217 20:32:53.370478 31355 layer_factory.hpp:77] Creating layer drop2_a
I1217 20:32:53.370491 31355 net.cpp:100] Creating Layer drop2_a
I1217 20:32:53.370498 31355 net.cpp:434] drop2_a <- pool2
I1217 20:32:53.370515 31355 net.cpp:395] drop2_a -> pool2 (in-place)
I1217 20:32:53.370560 31355 net.cpp:150] Setting up drop2_a
I1217 20:32:53.370573 31355 net.cpp:157] Top shape: 100 128 8 8 (819200)
I1217 20:32:53.370579 31355 net.cpp:165] Memory required for data: 155239600
I1217 20:32:53.370585 31355 layer_factory.hpp:77] Creating layer conv3
I1217 20:32:53.370599 31355 net.cpp:100] Creating Layer conv3
I1217 20:32:53.370607 31355 net.cpp:434] conv3 <- pool2
I1217 20:32:53.370623 31355 net.cpp:408] conv3 -> conv3
I1217 20:32:53.392699 31355 net.cpp:150] Setting up conv3
I1217 20:32:53.392712 31355 net.cpp:157] Top shape: 100 256 8 8 (1638400)
I1217 20:32:53.392719 31355 net.cpp:165] Memory required for data: 161793200
I1217 20:32:53.392737 31355 layer_factory.hpp:77] Creating layer relu3
I1217 20:32:53.392747 31355 net.cpp:100] Creating Layer relu3
I1217 20:32:53.392755 31355 net.cpp:434] relu3 <- conv3
I1217 20:32:53.392792 31355 net.cpp:395] relu3 -> conv3 (in-place)
I1217 20:32:53.393079 31355 net.cpp:150] Setting up relu3
I1217 20:32:53.393090 31355 net.cpp:157] Top shape: 100 256 8 8 (1638400)
I1217 20:32:53.393095 31355 net.cpp:165] Memory required for data: 168346800
I1217 20:32:53.393100 31355 layer_factory.hpp:77] Creating layer drop3
I1217 20:32:53.393112 31355 net.cpp:100] Creating Layer drop3
I1217 20:32:53.393118 31355 net.cpp:434] drop3 <- conv3
I1217 20:32:53.393136 31355 net.cpp:395] drop3 -> conv3 (in-place)
I1217 20:32:53.393175 31355 net.cpp:150] Setting up drop3
I1217 20:32:53.393183 31355 net.cpp:157] Top shape: 100 256 8 8 (1638400)
I1217 20:32:53.393188 31355 net.cpp:165] Memory required for data: 174900400
I1217 20:32:53.393194 31355 layer_factory.hpp:77] Creating layer pool3
I1217 20:32:53.393205 31355 net.cpp:100] Creating Layer pool3
I1217 20:32:53.393210 31355 net.cpp:434] pool3 <- conv3
I1217 20:32:53.393227 31355 net.cpp:408] pool3 -> pool3
I1217 20:32:53.393398 31355 net.cpp:150] Setting up pool3
I1217 20:32:53.393407 31355 net.cpp:157] Top shape: 100 256 4 4 (409600)
I1217 20:32:53.393412 31355 net.cpp:165] Memory required for data: 176538800
I1217 20:32:53.393417 31355 layer_factory.hpp:77] Creating layer drop3_a
I1217 20:32:53.393430 31355 net.cpp:100] Creating Layer drop3_a
I1217 20:32:53.393435 31355 net.cpp:434] drop3_a <- pool3
I1217 20:32:53.393442 31355 net.cpp:395] drop3_a -> pool3 (in-place)
I1217 20:32:53.393478 31355 net.cpp:150] Setting up drop3_a
I1217 20:32:53.393486 31355 net.cpp:157] Top shape: 100 256 4 4 (409600)
I1217 20:32:53.393491 31355 net.cpp:165] Memory required for data: 178177200
I1217 20:32:53.393496 31355 layer_factory.hpp:77] Creating layer ip1
I1217 20:32:53.393507 31355 net.cpp:100] Creating Layer ip1
I1217 20:32:53.393513 31355 net.cpp:434] ip1 <- pool3
I1217 20:32:53.393520 31355 net.cpp:408] ip1 -> ip1
I1217 20:32:53.609576 31355 net.cpp:150] Setting up ip1
I1217 20:32:53.609623 31355 net.cpp:157] Top shape: 100 2048 (204800)
I1217 20:32:53.609629 31355 net.cpp:165] Memory required for data: 178996400
I1217 20:32:53.609649 31355 layer_factory.hpp:77] Creating layer drop_ip1
I1217 20:32:53.609684 31355 net.cpp:100] Creating Layer drop_ip1
I1217 20:32:53.609691 31355 net.cpp:434] drop_ip1 <- ip1
I1217 20:32:53.609709 31355 net.cpp:395] drop_ip1 -> ip1 (in-place)
I1217 20:32:53.609757 31355 net.cpp:150] Setting up drop_ip1
I1217 20:32:53.609766 31355 net.cpp:157] Top shape: 100 2048 (204800)
I1217 20:32:53.609771 31355 net.cpp:165] Memory required for data: 179815600
I1217 20:32:53.609779 31355 layer_factory.hpp:77] Creating layer ip2
I1217 20:32:53.609793 31355 net.cpp:100] Creating Layer ip2
I1217 20:32:53.609798 31355 net.cpp:434] ip2 <- ip1
I1217 20:32:53.609814 31355 net.cpp:408] ip2 -> ip2
I1217 20:32:53.717984 31355 net.cpp:150] Setting up ip2
I1217 20:32:53.718019 31355 net.cpp:157] Top shape: 100 2048 (204800)
I1217 20:32:53.718024 31355 net.cpp:165] Memory required for data: 180634800
I1217 20:32:53.718047 31355 layer_factory.hpp:77] Creating layer drop_ip2
I1217 20:32:53.718068 31355 net.cpp:100] Creating Layer drop_ip2
I1217 20:32:53.718076 31355 net.cpp:434] drop_ip2 <- ip2
I1217 20:32:53.718092 31355 net.cpp:395] drop_ip2 -> ip2 (in-place)
I1217 20:32:53.718135 31355 net.cpp:150] Setting up drop_ip2
I1217 20:32:53.718143 31355 net.cpp:157] Top shape: 100 2048 (204800)
I1217 20:32:53.718148 31355 net.cpp:165] Memory required for data: 181454000
I1217 20:32:53.718155 31355 layer_factory.hpp:77] Creating layer ip3
I1217 20:32:53.718170 31355 net.cpp:100] Creating Layer ip3
I1217 20:32:53.718175 31355 net.cpp:434] ip3 <- ip2
I1217 20:32:53.718192 31355 net.cpp:408] ip3 -> ip3
I1217 20:32:53.718806 31355 net.cpp:150] Setting up ip3
I1217 20:32:53.718814 31355 net.cpp:157] Top shape: 100 10 (1000)
I1217 20:32:53.718819 31355 net.cpp:165] Memory required for data: 181458000
I1217 20:32:53.718835 31355 layer_factory.hpp:77] Creating layer ip3_ip3_0_split
I1217 20:32:53.718844 31355 net.cpp:100] Creating Layer ip3_ip3_0_split
I1217 20:32:53.718870 31355 net.cpp:434] ip3_ip3_0_split <- ip3
I1217 20:32:53.718878 31355 net.cpp:408] ip3_ip3_0_split -> ip3_ip3_0_split_0
I1217 20:32:53.718895 31355 net.cpp:408] ip3_ip3_0_split -> ip3_ip3_0_split_1
I1217 20:32:53.718963 31355 net.cpp:150] Setting up ip3_ip3_0_split
I1217 20:32:53.718972 31355 net.cpp:157] Top shape: 100 10 (1000)
I1217 20:32:53.718978 31355 net.cpp:157] Top shape: 100 10 (1000)
I1217 20:32:53.718982 31355 net.cpp:165] Memory required for data: 181466000
I1217 20:32:53.718989 31355 layer_factory.hpp:77] Creating layer accuracy
I1217 20:32:53.719010 31355 net.cpp:100] Creating Layer accuracy
I1217 20:32:53.719017 31355 net.cpp:434] accuracy <- ip3_ip3_0_split_0
I1217 20:32:53.719023 31355 net.cpp:434] accuracy <- label_cifar_1_split_0
I1217 20:32:53.719030 31355 net.cpp:408] accuracy -> accuracy
…
