…
I1217 17:46:13.959321 28421 net.cpp:322] The NetState phase (0) differed from the phase (1) specified by a rule in layer accuracy
I1217 17:46:13.959452 28421 net.cpp:58] Initializing net from parameters: 
name: "CIFAR10_full"
state {
  phase: TRAIN
  level: 0
  stage: ""
}
layer {
  name: "cifar"
  type: "Data"
  top: "data"
  top: "label"
  include {
    phase: TRAIN
  }
  transform_param {
    mean_file: "examples/cifar10/mean.binaryproto"
  }
  data_param {
    source: "examples/cifar10/cifar10_train_lmdb"
    batch_size: 100
    backend: LMDB
  }
}
layer {
  name: "conv1"
  type: "Convolution"
  bottom: "data"
  top: "conv1"
  param {
    lr_mult: 1
  }
  param {
    lr_mult: 2
  }
  convolution_param {
    num_output: 96
    pad: 2
    kernel_size: 5
    stride: 1
    weight_filler {
      type: "gaussian"
      std: 0.0001
    }
    bias_filler {
      type: "constant"
    }
  }
}
layer {
  name: "drop1"
  type: "Dropout"
  bottom: "conv1"
  top: "conv1"
  dropout_param {
    dropout_ratio: 0.25
  }
}
layer {
  name: "pool1"
  type: "Pooling"
  bottom: "conv1"
  top: "pool1"
  pooling_param {
    pool: MAX
    kernel_size: 3
    stride: 2
  }
}
layer {
  name: "drop1_a"
  type: "Dropout"
  bottom: "pool1"
  top: "pool1"
  dropout_param {
    dropout_ratio: 0.25
  }
}
layer {
  name: "relu1"
  type: "ReLU"
  bottom: "pool1"
  top: "pool1"
}
layer {
  name: "conv2"
  type: "Convolution"
  bottom: "pool1"
  top: "conv2"
  param {
    lr_mult: 1
  }
  param {
    lr_mult: 2
  }
  convolution_param {
    num_output: 128
    pad: 2
    kernel_size: 5
    stride: 1
    weight_filler {
      type: "gaussian"
      std: 0.01
    }
    bias_filler {
      type: "constant"
    }
  }
}
layer {
  name: "relu2"
  type: "ReLU"
  bottom: "conv2"
  top: "conv2"
}
layer {
  name: "drop2"
  type: "Dropout"
  bottom: "conv2"
  top: "conv2"
  dropout_param {
    dropout_ratio: 0.25
  }
}
layer {
  name: "pool2"
  type: "Pooling"
  bottom: "conv2"
  top: "pool2"
  pooling_param {
    pool: AVE
    kernel_size: 3
    stride: 2
  }
}
layer {
  name: "drop2_a"
  type: "Dropout"
  bottom: "pool2"
  top: "pool2"
  dropout_param {
    dropout_ratio: 0.25
  }
}
layer {
  name: "conv3"
  type: "Convolution"
  bottom: "pool2"
  top: "conv3"
  convolution_param {
    num_output: 256
    pad: 2
    kernel_size: 5
    stride: 1
    weight_filler {
      type: "gaussian"
      std: 0.01
    }
    bias_filler {
      type: "constant"
    }
  }
}
layer {
  name: "relu3"
  type: "ReLU"
  bottom: "conv3"
  top: "conv3"
}
layer {
  name: "drop3"
  type: "Dropout"
  bottom: "conv3"
  top: "conv3"
  dropout_param {
    dropout_ratio: 0.25
  }
}
layer {
  name: "pool3"
  type: "Pooling"
  bottom: "conv3"
  top: "pool3"
  pooling_param {
    pool: AVE
    kernel_size: 3
    stride: 2
  }
}
layer {
  name: "drop3_a"
  type: "Dropout"
  bottom: "pool3"
  top: "pool3"
  dropout_param {
    dropout_ratio: 0.5
  }
}
layer {
  name: "ip1"
  type: "InnerProduct"
  bottom: "pool3"
  top: "ip1"
  param {
    lr_mult: 1
    decay_mult: 250
  }
  param {
    lr_mult: 2
    decay_mult: 0
  }
  inner_product_param {
    num_output: 2048
    weight_filler {
      type: "gaussian"
      std: 0.01
    }
    bias_filler {
      type: "constant"
    }
  }
}
layer {
  name: "drop_ip1"
  type: "Dropout"
  bottom: "ip1"
  top: "ip1"
  dropout_param {
    dropout_ratio: 0.5
  }
}
layer {
  name: "ip2"
  type: "InnerProduct"
  bottom: "ip1"
  top: "ip2"
  param {
    lr_mult: 1
    decay_mult: 250
  }
  param {
    lr_mult: 2
    decay_mult: 0
  }
  inner_product_param {
    num_output: 2048
    weight_filler {
      type: "gaussian"
      std: 0.01
    }
    bias_filler {
      type: "constant"
    }
  }
}
layer {
  name: "drop_ip2"
  type: "Dropout"
  bottom: "ip2"
  top: "ip2"
  dropout_param {
    dropout_ratio: 0.5
  }
}
layer {
  name: "ip3"
  type: "InnerProduct"
  bottom: "ip2"
  top: "ip3"
  param {
    lr_mult: 1
    decay_mult: 250
  }
  param {
    lr_mult: 2
    decay_mult: 0
  }
  inner_product_param {
    num_output: 10
    weight_filler {
      type: "gaussian"
      std: 0.01
    }
    bias_filler {
      type: "constant"
    }
  }
}
layer {
  name: "loss"
  type: "SoftmaxWithLoss"
  bottom: "ip3"
  bottom: "label"
  top: "loss"
}
I1217 17:46:13.959579 28421 layer_factory.hpp:77] Creating layer cifar
I1217 17:46:13.960330 28421 net.cpp:100] Creating Layer cifar
I1217 17:46:13.960351 28421 net.cpp:408] cifar -> data
I1217 17:46:13.960404 28421 net.cpp:408] cifar -> label
I1217 17:46:13.960427 28421 data_transformer.cpp:25] Loading mean file from: examples/cifar10/mean.binaryproto
I1217 17:46:13.961206 28440 db_lmdb.cpp:35] Opened lmdb examples/cifar10/cifar10_train_lmdb
I1217 17:46:13.978998 28421 data_layer.cpp:41] output data size: 100,3,32,32
I1217 17:46:13.981729 28421 net.cpp:150] Setting up cifar
I1217 17:46:13.981760 28421 net.cpp:157] Top shape: 100 3 32 32 (307200)
I1217 17:46:13.981765 28421 net.cpp:157] Top shape: 100 (100)
I1217 17:46:13.981770 28421 net.cpp:165] Memory required for data: 1229200
I1217 17:46:13.981778 28421 layer_factory.hpp:77] Creating layer conv1
I1217 17:46:13.981803 28421 net.cpp:100] Creating Layer conv1
I1217 17:46:13.981812 28421 net.cpp:434] conv1 <- data
I1217 17:46:13.981828 28421 net.cpp:408] conv1 -> conv1
I1217 17:46:14.139665 28421 net.cpp:150] Setting up conv1
I1217 17:46:14.139717 28421 net.cpp:157] Top shape: 100 96 32 32 (9830400)
I1217 17:46:14.139721 28421 net.cpp:165] Memory required for data: 40550800
I1217 17:46:14.139747 28421 layer_factory.hpp:77] Creating layer drop1
I1217 17:46:14.139767 28421 net.cpp:100] Creating Layer drop1
I1217 17:46:14.139776 28421 net.cpp:434] drop1 <- conv1
I1217 17:46:14.139782 28421 net.cpp:395] drop1 -> conv1 (in-place)
I1217 17:46:14.139811 28421 net.cpp:150] Setting up drop1
I1217 17:46:14.139818 28421 net.cpp:157] Top shape: 100 96 32 32 (9830400)
I1217 17:46:14.139822 28421 net.cpp:165] Memory required for data: 79872400
I1217 17:46:14.139825 28421 layer_factory.hpp:77] Creating layer pool1
I1217 17:46:14.139842 28421 net.cpp:100] Creating Layer pool1
I1217 17:46:14.139847 28421 net.cpp:434] pool1 <- conv1
I1217 17:46:14.139852 28421 net.cpp:408] pool1 -> pool1
I1217 17:46:14.139897 28421 net.cpp:150] Setting up pool1
I1217 17:46:14.139904 28421 net.cpp:157] Top shape: 100 96 16 16 (2457600)
I1217 17:46:14.139907 28421 net.cpp:165] Memory required for data: 89702800
I1217 17:46:14.139911 28421 layer_factory.hpp:77] Creating layer drop1_a
I1217 17:46:14.139917 28421 net.cpp:100] Creating Layer drop1_a
I1217 17:46:14.139920 28421 net.cpp:434] drop1_a <- pool1
I1217 17:46:14.139925 28421 net.cpp:395] drop1_a -> pool1 (in-place)
I1217 17:46:14.139947 28421 net.cpp:150] Setting up drop1_a
I1217 17:46:14.139953 28421 net.cpp:157] Top shape: 100 96 16 16 (2457600)
I1217 17:46:14.139957 28421 net.cpp:165] Memory required for data: 99533200
I1217 17:46:14.139961 28421 layer_factory.hpp:77] Creating layer relu1
I1217 17:46:14.139966 28421 net.cpp:100] Creating Layer relu1
I1217 17:46:14.139979 28421 net.cpp:434] relu1 <- pool1
I1217 17:46:14.139984 28421 net.cpp:395] relu1 -> pool1 (in-place)
I1217 17:46:14.140254 28421 net.cpp:150] Setting up relu1
I1217 17:46:14.140271 28421 net.cpp:157] Top shape: 100 96 16 16 (2457600)
I1217 17:46:14.140275 28421 net.cpp:165] Memory required for data: 109363600
I1217 17:46:14.140280 28421 layer_factory.hpp:77] Creating layer conv2
I1217 17:46:14.140321 28421 net.cpp:100] Creating Layer conv2
I1217 17:46:14.140326 28421 net.cpp:434] conv2 <- pool1
I1217 17:46:14.140331 28421 net.cpp:408] conv2 -> conv2
I1217 17:46:14.149574 28421 net.cpp:150] Setting up conv2
I1217 17:46:14.149587 28421 net.cpp:157] Top shape: 100 128 16 16 (3276800)
I1217 17:46:14.149591 28421 net.cpp:165] Memory required for data: 122470800
I1217 17:46:14.149600 28421 layer_factory.hpp:77] Creating layer relu2
I1217 17:46:14.149606 28421 net.cpp:100] Creating Layer relu2
I1217 17:46:14.149610 28421 net.cpp:434] relu2 <- conv2
I1217 17:46:14.149615 28421 net.cpp:395] relu2 -> conv2 (in-place)
I1217 17:46:14.149757 28421 net.cpp:150] Setting up relu2
I1217 17:46:14.149765 28421 net.cpp:157] Top shape: 100 128 16 16 (3276800)
I1217 17:46:14.149770 28421 net.cpp:165] Memory required for data: 135578000
I1217 17:46:14.149773 28421 layer_factory.hpp:77] Creating layer drop2
I1217 17:46:14.149780 28421 net.cpp:100] Creating Layer drop2
I1217 17:46:14.149793 28421 net.cpp:434] drop2 <- conv2
I1217 17:46:14.149798 28421 net.cpp:395] drop2 -> conv2 (in-place)
I1217 17:46:14.149821 28421 net.cpp:150] Setting up drop2
I1217 17:46:14.149828 28421 net.cpp:157] Top shape: 100 128 16 16 (3276800)
I1217 17:46:14.149832 28421 net.cpp:165] Memory required for data: 148685200
I1217 17:46:14.149835 28421 layer_factory.hpp:77] Creating layer pool2
I1217 17:46:14.149840 28421 net.cpp:100] Creating Layer pool2
I1217 17:46:14.149843 28421 net.cpp:434] pool2 <- conv2
I1217 17:46:14.149848 28421 net.cpp:408] pool2 -> pool2
I1217 17:46:14.150115 28421 net.cpp:150] Setting up pool2
I1217 17:46:14.150126 28421 net.cpp:157] Top shape: 100 128 8 8 (819200)
I1217 17:46:14.150130 28421 net.cpp:165] Memory required for data: 151962000
I1217 17:46:14.150133 28421 layer_factory.hpp:77] Creating layer drop2_a
I1217 17:46:14.150141 28421 net.cpp:100] Creating Layer drop2_a
I1217 17:46:14.150143 28421 net.cpp:434] drop2_a <- pool2
I1217 17:46:14.150148 28421 net.cpp:395] drop2_a -> pool2 (in-place)
I1217 17:46:14.150179 28421 net.cpp:150] Setting up drop2_a
I1217 17:46:14.150185 28421 net.cpp:157] Top shape: 100 128 8 8 (819200)
I1217 17:46:14.150189 28421 net.cpp:165] Memory required for data: 155238800
I1217 17:46:14.150192 28421 layer_factory.hpp:77] Creating layer conv3
I1217 17:46:14.150200 28421 net.cpp:100] Creating Layer conv3
I1217 17:46:14.150208 28421 net.cpp:434] conv3 <- pool2
I1217 17:46:14.150213 28421 net.cpp:408] conv3 -> conv3
I1217 17:46:14.172019 28421 net.cpp:150] Setting up conv3
I1217 17:46:14.172039 28421 net.cpp:157] Top shape: 100 256 8 8 (1638400)
I1217 17:46:14.172044 28421 net.cpp:165] Memory required for data: 161792400
I1217 17:46:14.172060 28421 layer_factory.hpp:77] Creating layer relu3
I1217 17:46:14.172066 28421 net.cpp:100] Creating Layer relu3
I1217 17:46:14.172073 28421 net.cpp:434] relu3 <- conv3
I1217 17:46:14.172077 28421 net.cpp:395] relu3 -> conv3 (in-place)
I1217 17:46:14.172333 28421 net.cpp:150] Setting up relu3
I1217 17:46:14.172351 28421 net.cpp:157] Top shape: 100 256 8 8 (1638400)
I1217 17:46:14.172355 28421 net.cpp:165] Memory required for data: 168346000
I1217 17:46:14.172359 28421 layer_factory.hpp:77] Creating layer drop3
I1217 17:46:14.172365 28421 net.cpp:100] Creating Layer drop3
I1217 17:46:14.172369 28421 net.cpp:434] drop3 <- conv3
I1217 17:46:14.172374 28421 net.cpp:395] drop3 -> conv3 (in-place)
I1217 17:46:14.172399 28421 net.cpp:150] Setting up drop3
I1217 17:46:14.172405 28421 net.cpp:157] Top shape: 100 256 8 8 (1638400)
I1217 17:46:14.172407 28421 net.cpp:165] Memory required for data: 174899600
I1217 17:46:14.172410 28421 layer_factory.hpp:77] Creating layer pool3
I1217 17:46:14.172415 28421 net.cpp:100] Creating Layer pool3
I1217 17:46:14.172420 28421 net.cpp:434] pool3 <- conv3
I1217 17:46:14.172423 28421 net.cpp:408] pool3 -> pool3
I1217 17:46:14.172559 28421 net.cpp:150] Setting up pool3
I1217 17:46:14.172566 28421 net.cpp:157] Top shape: 100 256 4 4 (409600)
I1217 17:46:14.172569 28421 net.cpp:165] Memory required for data: 176538000
I1217 17:46:14.172590 28421 layer_factory.hpp:77] Creating layer drop3_a
I1217 17:46:14.172595 28421 net.cpp:100] Creating Layer drop3_a
I1217 17:46:14.172600 28421 net.cpp:434] drop3_a <- pool3
I1217 17:46:14.172603 28421 net.cpp:395] drop3_a -> pool3 (in-place)
I1217 17:46:14.172626 28421 net.cpp:150] Setting up drop3_a
I1217 17:46:14.172632 28421 net.cpp:157] Top shape: 100 256 4 4 (409600)
I1217 17:46:14.172636 28421 net.cpp:165] Memory required for data: 178176400
I1217 17:46:14.172639 28421 layer_factory.hpp:77] Creating layer ip1
I1217 17:46:14.172658 28421 net.cpp:100] Creating Layer ip1
I1217 17:46:14.172663 28421 net.cpp:434] ip1 <- pool3
I1217 17:46:14.172668 28421 net.cpp:408] ip1 -> ip1
I1217 17:46:14.387729 28421 net.cpp:150] Setting up ip1
I1217 17:46:14.387769 28421 net.cpp:157] Top shape: 100 2048 (204800)
I1217 17:46:14.387773 28421 net.cpp:165] Memory required for data: 178995600
I1217 17:46:14.387781 28421 layer_factory.hpp:77] Creating layer drop_ip1
I1217 17:46:14.387800 28421 net.cpp:100] Creating Layer drop_ip1
I1217 17:46:14.387804 28421 net.cpp:434] drop_ip1 <- ip1
I1217 17:46:14.387810 28421 net.cpp:395] drop_ip1 -> ip1 (in-place)
I1217 17:46:14.387843 28421 net.cpp:150] Setting up drop_ip1
I1217 17:46:14.387850 28421 net.cpp:157] Top shape: 100 2048 (204800)
I1217 17:46:14.387854 28421 net.cpp:165] Memory required for data: 179814800
I1217 17:46:14.387857 28421 layer_factory.hpp:77] Creating layer ip2
I1217 17:46:14.387871 28421 net.cpp:100] Creating Layer ip2
I1217 17:46:14.387877 28421 net.cpp:434] ip2 <- ip1
I1217 17:46:14.387882 28421 net.cpp:408] ip2 -> ip2
I1217 17:46:14.494278 28421 net.cpp:150] Setting up ip2
I1217 17:46:14.494313 28421 net.cpp:157] Top shape: 100 2048 (204800)
I1217 17:46:14.494318 28421 net.cpp:165] Memory required for data: 180634000
I1217 17:46:14.494338 28421 layer_factory.hpp:77] Creating layer drop_ip2
I1217 17:46:14.494354 28421 net.cpp:100] Creating Layer drop_ip2
I1217 17:46:14.494359 28421 net.cpp:434] drop_ip2 <- ip2
I1217 17:46:14.494364 28421 net.cpp:395] drop_ip2 -> ip2 (in-place)
I1217 17:46:14.494395 28421 net.cpp:150] Setting up drop_ip2
I1217 17:46:14.494410 28421 net.cpp:157] Top shape: 100 2048 (204800)
I1217 17:46:14.494413 28421 net.cpp:165] Memory required for data: 181453200
I1217 17:46:14.494416 28421 layer_factory.hpp:77] Creating layer ip3
I1217 17:46:14.494422 28421 net.cpp:100] Creating Layer ip3
I1217 17:46:14.494434 28421 net.cpp:434] ip3 <- ip2
I1217 17:46:14.494441 28421 net.cpp:408] ip3 -> ip3
I1217 17:46:14.495421 28421 net.cpp:150] Setting up ip3
I1217 17:46:14.495440 28421 net.cpp:157] Top shape: 100 10 (1000)
I1217 17:46:14.495442 28421 net.cpp:165] Memory required for data: 181457200
I1217 17:46:14.495448 28421 layer_factory.hpp:77] Creating layer loss
I1217 17:46:14.495456 28421 net.cpp:100] Creating Layer loss
I1217 17:46:14.495460 28421 net.cpp:434] loss <- ip3
I1217 17:46:14.495465 28421 net.cpp:434] loss <- label
I1217 17:46:14.495471 28421 net.cpp:408] loss -> loss
I1217 17:46:14.495492 28421 layer_factory.hpp:77] Creating layer loss
…
I1217 17:46:14.496428 28421 solver.cpp:181] Creating test net (#0) specified by net file: examples/cifar10/cifar10_Srivastavaet_train_test.prototxt
I1217 17:46:14.496484 28421 net.cpp:322] The NetState phase (1) differed from the phase (0) specified by a rule in layer cifar
I1217 17:46:14.496615 28421 net.cpp:58] Initializing net from parameters: 
name: "CIFAR10_full"
state {
  phase: TEST
}
layer {
  name: "cifar"
  type: "Data"
  top: "data"
  top: "label"
  include {
    phase: TEST
  }
  transform_param {
    mean_file: "examples/cifar10/mean.binaryproto"
  }
  data_param {
    source: "examples/cifar10/cifar10_test_lmdb"
    batch_size: 100
    backend: LMDB
  }
}
layer {
  name: "conv1"
  type: "Convolution"
  bottom: "data"
  top: "conv1"
  param {
    lr_mult: 1
  }
  param {
    lr_mult: 2
  }
  convolution_param {
    num_output: 96
    pad: 2
    kernel_size: 5
    stride: 1
    weight_filler {
      type: "gaussian"
      std: 0.0001
    }
    bias_filler {
      type: "constant"
    }
  }
}
layer {
  name: "drop1"
  type: "Dropout"
  bottom: "conv1"
  top: "conv1"
  dropout_param {
    dropout_ratio: 0.25
  }
}
layer {
  name: "pool1"
  type: "Pooling"
  bottom: "conv1"
  top: "pool1"
  pooling_param {
    pool: MAX
    kernel_size: 3
    stride: 2
  }
}
layer {
  name: "drop1_a"
  type: "Dropout"
  bottom: "pool1"
  top: "pool1"
  dropout_param {
    dropout_ratio: 0.25
  }
}
layer {
  name: "relu1"
  type: "ReLU"
  bottom: "pool1"
  top: "pool1"
}
layer {
  name: "conv2"
  type: "Convolution"
  bottom: "pool1"
  top: "conv2"
  param {
    lr_mult: 1
  }
  param {
    lr_mult: 2
  }
  convolution_param {
    num_output: 128
    pad: 2
    kernel_size: 5
    stride: 1
    weight_filler {
      type: "gaussian"
      std: 0.01
    }
    bias_filler {
      type: "constant"
    }
  }
}
layer {
  name: "relu2"
  type: "ReLU"
  bottom: "conv2"
  top: "conv2"
}
layer {
  name: "drop2"
  type: "Dropout"
  bottom: "conv2"
  top: "conv2"
  dropout_param {
    dropout_ratio: 0.25
  }
}
layer {
  name: "pool2"
  type: "Pooling"
  bottom: "conv2"
  top: "pool2"
  pooling_param {
    pool: AVE
    kernel_size: 3
    stride: 2
  }
}
layer {
  name: "drop2_a"
  type: "Dropout"
  bottom: "pool2"
  top: "pool2"
  dropout_param {
    dropout_ratio: 0.25
  }
}
layer {
  name: "conv3"
  type: "Convolution"
  bottom: "pool2"
  top: "conv3"
  convolution_param {
    num_output: 256
    pad: 2
    kernel_size: 5
    stride: 1
    weight_filler {
      type: "gaussian"
      std: 0.01
    }
    bias_filler {
      type: "constant"
    }
  }
}
layer {
  name: "relu3"
  type: "ReLU"
  bottom: "conv3"
  top: "conv3"
}
layer {
  name: "drop3"
  type: "Dropout"
  bottom: "conv3"
  top: "conv3"
  dropout_param {
    dropout_ratio: 0.25
  }
}
layer {
  name: "pool3"
  type: "Pooling"
  bottom: "conv3"
  top: "pool3"
  pooling_param {
    pool: AVE
    kernel_size: 3
    stride: 2
  }
}
layer {
  name: "drop3_a"
  type: "Dropout"
  bottom: "pool3"
  top: "pool3"
  dropout_param {
    dropout_ratio: 0.5
  }
}
layer {
  name: "ip1"
  type: "InnerProduct"
  bottom: "pool3"
  top: "ip1"
  param {
    lr_mult: 1
    decay_mult: 250
  }
  param {
    lr_mult: 2
    decay_mult: 0
  }
  inner_product_param {
    num_output: 2048
    weight_filler {
      type: "gaussian"
      std: 0.01
    }
    bias_filler {
      type: "constant"
    }
  }
}
layer {
  name: "drop_ip1"
  type: "Dropout"
  bottom: "ip1"
  top: "ip1"
  dropout_param {
    dropout_ratio: 0.5
  }
}
layer {
  name: "ip2"
  type: "InnerProduct"
  bottom: "ip1"
  top: "ip2"
  param {
    lr_mult: 1
    decay_mult: 250
  }
  param {
    lr_mult: 2
    decay_mult: 0
  }
  inner_product_param {
    num_output: 2048
    weight_filler {
      type: "gaussian"
      std: 0.01
    }
    bias_filler {
      type: "constant"
    }
  }
}
layer {
  name: "drop_ip2"
  type: "Dropout"
  bottom: "ip2"
  top: "ip2"
  dropout_param {
    dropout_ratio: 0.5
  }
}
layer {
  name: "ip3"
  type: "InnerProduct"
  bottom: "ip2"
  top: "ip3"
  param {
    lr_mult: 1
    decay_mult: 250
  }
  param {
    lr_mult: 2
    decay_mult: 0
  }
  inner_product_param {
    num_output: 10
    weight_filler {
      type: "gaussian"
      std: 0.01
    }
    bias_filler {
      type: "constant"
    }
  }
}
layer {
  name: "accuracy"
  type: "Accuracy"
  bottom: "ip3"
  bottom: "label"
  top: "accuracy"
  include {
    phase: TEST
  }
}
layer {
  name: "loss"
  type: "SoftmaxWithLoss"
  bottom: "ip3"
  bottom: "label"
  top: "loss"
}
I1217 17:46:14.496737 28421 layer_factory.hpp:77] Creating layer cifar
I1217 17:46:14.496839 28421 net.cpp:100] Creating Layer cifar
I1217 17:46:14.496866 28421 net.cpp:408] cifar -> data
I1217 17:46:14.496882 28421 net.cpp:408] cifar -> label
I1217 17:46:14.496891 28421 data_transformer.cpp:25] Loading mean file from: examples/cifar10/mean.binaryproto
I1217 17:46:14.498378 28442 db_lmdb.cpp:35] Opened lmdb examples/cifar10/cifar10_test_lmdb
I1217 17:46:14.498500 28421 data_layer.cpp:41] output data size: 100,3,32,32
I1217 17:46:14.500845 28421 net.cpp:150] Setting up cifar
I1217 17:46:14.500857 28421 net.cpp:157] Top shape: 100 3 32 32 (307200)
I1217 17:46:14.500869 28421 net.cpp:157] Top shape: 100 (100)
I1217 17:46:14.500874 28421 net.cpp:165] Memory required for data: 1229200
I1217 17:46:14.500879 28421 layer_factory.hpp:77] Creating layer label_cifar_1_split
I1217 17:46:14.500896 28421 net.cpp:100] Creating Layer label_cifar_1_split
I1217 17:46:14.500901 28421 net.cpp:434] label_cifar_1_split <- label
I1217 17:46:14.500905 28421 net.cpp:408] label_cifar_1_split -> label_cifar_1_split_0
I1217 17:46:14.500912 28421 net.cpp:408] label_cifar_1_split -> label_cifar_1_split_1
I1217 17:46:14.501086 28421 net.cpp:150] Setting up label_cifar_1_split
I1217 17:46:14.501094 28421 net.cpp:157] Top shape: 100 (100)
I1217 17:46:14.501098 28421 net.cpp:157] Top shape: 100 (100)
I1217 17:46:14.501101 28421 net.cpp:165] Memory required for data: 1230000
I1217 17:46:14.501106 28421 layer_factory.hpp:77] Creating layer conv1
I1217 17:46:14.501122 28421 net.cpp:100] Creating Layer conv1
I1217 17:46:14.501127 28421 net.cpp:434] conv1 <- data
I1217 17:46:14.501132 28421 net.cpp:408] conv1 -> conv1
I1217 17:46:14.502243 28421 net.cpp:150] Setting up conv1
I1217 17:46:14.502262 28421 net.cpp:157] Top shape: 100 96 32 32 (9830400)
I1217 17:46:14.502285 28421 net.cpp:165] Memory required for data: 40551600
I1217 17:46:14.502302 28421 layer_factory.hpp:77] Creating layer drop1
I1217 17:46:14.502308 28421 net.cpp:100] Creating Layer drop1
I1217 17:46:14.502312 28421 net.cpp:434] drop1 <- conv1
I1217 17:46:14.502316 28421 net.cpp:395] drop1 -> conv1 (in-place)
I1217 17:46:14.502349 28421 net.cpp:150] Setting up drop1
I1217 17:46:14.502357 28421 net.cpp:157] Top shape: 100 96 32 32 (9830400)
I1217 17:46:14.502359 28421 net.cpp:165] Memory required for data: 79873200
I1217 17:46:14.502363 28421 layer_factory.hpp:77] Creating layer pool1
I1217 17:46:14.502378 28421 net.cpp:100] Creating Layer pool1
I1217 17:46:14.502384 28421 net.cpp:434] pool1 <- conv1
I1217 17:46:14.502388 28421 net.cpp:408] pool1 -> pool1
I1217 17:46:14.502456 28421 net.cpp:150] Setting up pool1
I1217 17:46:14.502465 28421 net.cpp:157] Top shape: 100 96 16 16 (2457600)
I1217 17:46:14.502467 28421 net.cpp:165] Memory required for data: 89703600
I1217 17:46:14.502470 28421 layer_factory.hpp:77] Creating layer drop1_a
I1217 17:46:14.502475 28421 net.cpp:100] Creating Layer drop1_a
I1217 17:46:14.502478 28421 net.cpp:434] drop1_a <- pool1
I1217 17:46:14.502483 28421 net.cpp:395] drop1_a -> pool1 (in-place)
I1217 17:46:14.502617 28421 net.cpp:150] Setting up drop1_a
I1217 17:46:14.502624 28421 net.cpp:157] Top shape: 100 96 16 16 (2457600)
I1217 17:46:14.502627 28421 net.cpp:165] Memory required for data: 99534000
I1217 17:46:14.502630 28421 layer_factory.hpp:77] Creating layer relu1
I1217 17:46:14.502636 28421 net.cpp:100] Creating Layer relu1
I1217 17:46:14.502640 28421 net.cpp:434] relu1 <- pool1
I1217 17:46:14.502645 28421 net.cpp:395] relu1 -> pool1 (in-place)
I1217 17:46:14.502794 28421 net.cpp:150] Setting up relu1
I1217 17:46:14.502802 28421 net.cpp:157] Top shape: 100 96 16 16 (2457600)
I1217 17:46:14.502806 28421 net.cpp:165] Memory required for data: 109364400
I1217 17:46:14.502810 28421 layer_factory.hpp:77] Creating layer conv2
I1217 17:46:14.502818 28421 net.cpp:100] Creating Layer conv2
I1217 17:46:14.502822 28421 net.cpp:434] conv2 <- pool1
I1217 17:46:14.502827 28421 net.cpp:408] conv2 -> conv2
I1217 17:46:14.514266 28421 net.cpp:150] Setting up conv2
I1217 17:46:14.514294 28421 net.cpp:157] Top shape: 100 128 16 16 (3276800)
I1217 17:46:14.514299 28421 net.cpp:165] Memory required for data: 122471600
I1217 17:46:14.514309 28421 layer_factory.hpp:77] Creating layer relu2
I1217 17:46:14.514318 28421 net.cpp:100] Creating Layer relu2
I1217 17:46:14.514322 28421 net.cpp:434] relu2 <- conv2
I1217 17:46:14.514338 28421 net.cpp:395] relu2 -> conv2 (in-place)
I1217 17:46:14.514641 28421 net.cpp:150] Setting up relu2
I1217 17:46:14.514662 28421 net.cpp:157] Top shape: 100 128 16 16 (3276800)
I1217 17:46:14.514665 28421 net.cpp:165] Memory required for data: 135578800
I1217 17:46:14.514669 28421 layer_factory.hpp:77] Creating layer drop2
I1217 17:46:14.514677 28421 net.cpp:100] Creating Layer drop2
I1217 17:46:14.514680 28421 net.cpp:434] drop2 <- conv2
I1217 17:46:14.514688 28421 net.cpp:395] drop2 -> conv2 (in-place)
I1217 17:46:14.514717 28421 net.cpp:150] Setting up drop2
I1217 17:46:14.514726 28421 net.cpp:157] Top shape: 100 128 16 16 (3276800)
I1217 17:46:14.514730 28421 net.cpp:165] Memory required for data: 148686000
I1217 17:46:14.514734 28421 layer_factory.hpp:77] Creating layer pool2
I1217 17:46:14.514741 28421 net.cpp:100] Creating Layer pool2
I1217 17:46:14.514745 28421 net.cpp:434] pool2 <- conv2
I1217 17:46:14.514750 28421 net.cpp:408] pool2 -> pool2
I1217 17:46:14.514963 28421 net.cpp:150] Setting up pool2
I1217 17:46:14.514976 28421 net.cpp:157] Top shape: 100 128 8 8 (819200)
I1217 17:46:14.514979 28421 net.cpp:165] Memory required for data: 151962800
I1217 17:46:14.514983 28421 layer_factory.hpp:77] Creating layer drop2_a
I1217 17:46:14.514991 28421 net.cpp:100] Creating Layer drop2_a
I1217 17:46:14.514994 28421 net.cpp:434] drop2_a <- pool2
I1217 17:46:14.515002 28421 net.cpp:395] drop2_a -> pool2 (in-place)
I1217 17:46:14.515035 28421 net.cpp:150] Setting up drop2_a
I1217 17:46:14.515044 28421 net.cpp:157] Top shape: 100 128 8 8 (819200)
I1217 17:46:14.515048 28421 net.cpp:165] Memory required for data: 155239600
I1217 17:46:14.515053 28421 layer_factory.hpp:77] Creating layer conv3
I1217 17:46:14.515071 28421 net.cpp:100] Creating Layer conv3
I1217 17:46:14.515077 28421 net.cpp:434] conv3 <- pool2
I1217 17:46:14.515085 28421 net.cpp:408] conv3 -> conv3
I1217 17:46:14.536978 28421 net.cpp:150] Setting up conv3
I1217 17:46:14.537010 28421 net.cpp:157] Top shape: 100 256 8 8 (1638400)
I1217 17:46:14.537014 28421 net.cpp:165] Memory required for data: 161793200
I1217 17:46:14.537031 28421 layer_factory.hpp:77] Creating layer relu3
I1217 17:46:14.537036 28421 net.cpp:100] Creating Layer relu3
I1217 17:46:14.537040 28421 net.cpp:434] relu3 <- conv3
I1217 17:46:14.537077 28421 net.cpp:395] relu3 -> conv3 (in-place)
I1217 17:46:14.537353 28421 net.cpp:150] Setting up relu3
I1217 17:46:14.537371 28421 net.cpp:157] Top shape: 100 256 8 8 (1638400)
I1217 17:46:14.537375 28421 net.cpp:165] Memory required for data: 168346800
I1217 17:46:14.537379 28421 layer_factory.hpp:77] Creating layer drop3
I1217 17:46:14.537385 28421 net.cpp:100] Creating Layer drop3
I1217 17:46:14.537389 28421 net.cpp:434] drop3 <- conv3
I1217 17:46:14.537395 28421 net.cpp:395] drop3 -> conv3 (in-place)
I1217 17:46:14.537417 28421 net.cpp:150] Setting up drop3
I1217 17:46:14.537425 28421 net.cpp:157] Top shape: 100 256 8 8 (1638400)
I1217 17:46:14.537428 28421 net.cpp:165] Memory required for data: 174900400
I1217 17:46:14.537431 28421 layer_factory.hpp:77] Creating layer pool3
I1217 17:46:14.537436 28421 net.cpp:100] Creating Layer pool3
I1217 17:46:14.537441 28421 net.cpp:434] pool3 <- conv3
I1217 17:46:14.537444 28421 net.cpp:408] pool3 -> pool3
I1217 17:46:14.537602 28421 net.cpp:150] Setting up pool3
I1217 17:46:14.537611 28421 net.cpp:157] Top shape: 100 256 4 4 (409600)
I1217 17:46:14.537614 28421 net.cpp:165] Memory required for data: 176538800
I1217 17:46:14.537617 28421 layer_factory.hpp:77] Creating layer drop3_a
I1217 17:46:14.537633 28421 net.cpp:100] Creating Layer drop3_a
I1217 17:46:14.537638 28421 net.cpp:434] drop3_a <- pool3
I1217 17:46:14.537643 28421 net.cpp:395] drop3_a -> pool3 (in-place)
I1217 17:46:14.537667 28421 net.cpp:150] Setting up drop3_a
I1217 17:46:14.537672 28421 net.cpp:157] Top shape: 100 256 4 4 (409600)
I1217 17:46:14.537675 28421 net.cpp:165] Memory required for data: 178177200
I1217 17:46:14.537678 28421 layer_factory.hpp:77] Creating layer ip1
I1217 17:46:14.537684 28421 net.cpp:100] Creating Layer ip1
I1217 17:46:14.537688 28421 net.cpp:434] ip1 <- pool3
I1217 17:46:14.537693 28421 net.cpp:408] ip1 -> ip1
I1217 17:46:14.753149 28421 net.cpp:150] Setting up ip1
I1217 17:46:14.753197 28421 net.cpp:157] Top shape: 100 2048 (204800)
I1217 17:46:14.753201 28421 net.cpp:165] Memory required for data: 178996400
I1217 17:46:14.753218 28421 layer_factory.hpp:77] Creating layer drop_ip1
I1217 17:46:14.753237 28421 net.cpp:100] Creating Layer drop_ip1
I1217 17:46:14.753242 28421 net.cpp:434] drop_ip1 <- ip1
I1217 17:46:14.753247 28421 net.cpp:395] drop_ip1 -> ip1 (in-place)
I1217 17:46:14.753276 28421 net.cpp:150] Setting up drop_ip1
I1217 17:46:14.753291 28421 net.cpp:157] Top shape: 100 2048 (204800)
I1217 17:46:14.753294 28421 net.cpp:165] Memory required for data: 179815600
I1217 17:46:14.753298 28421 layer_factory.hpp:77] Creating layer ip2
I1217 17:46:14.753315 28421 net.cpp:100] Creating Layer ip2
I1217 17:46:14.753320 28421 net.cpp:434] ip2 <- ip1
I1217 17:46:14.753326 28421 net.cpp:408] ip2 -> ip2
I1217 17:46:14.859989 28421 net.cpp:150] Setting up ip2
I1217 17:46:14.860024 28421 net.cpp:157] Top shape: 100 2048 (204800)
I1217 17:46:14.860028 28421 net.cpp:165] Memory required for data: 180634800
I1217 17:46:14.860039 28421 layer_factory.hpp:77] Creating layer drop_ip2
I1217 17:46:14.860056 28421 net.cpp:100] Creating Layer drop_ip2
I1217 17:46:14.860061 28421 net.cpp:434] drop_ip2 <- ip2
I1217 17:46:14.860075 28421 net.cpp:395] drop_ip2 -> ip2 (in-place)
I1217 17:46:14.860110 28421 net.cpp:150] Setting up drop_ip2
I1217 17:46:14.860126 28421 net.cpp:157] Top shape: 100 2048 (204800)
I1217 17:46:14.860129 28421 net.cpp:165] Memory required for data: 181454000
I1217 17:46:14.860132 28421 layer_factory.hpp:77] Creating layer ip3
I1217 17:46:14.860139 28421 net.cpp:100] Creating Layer ip3
I1217 17:46:14.860142 28421 net.cpp:434] ip3 <- ip2
I1217 17:46:14.860147 28421 net.cpp:408] ip3 -> ip3
I1217 17:46:14.860747 28421 net.cpp:150] Setting up ip3
I1217 17:46:14.860754 28421 net.cpp:157] Top shape: 100 10 (1000)
I1217 17:46:14.860759 28421 net.cpp:165] Memory required for data: 181458000
I1217 17:46:14.860764 28421 layer_factory.hpp:77] Creating layer ip3_ip3_0_split
I1217 17:46:14.860779 28421 net.cpp:100] Creating Layer ip3_ip3_0_split
I1217 17:46:14.860800 28421 net.cpp:434] ip3_ip3_0_split <- ip3
I1217 17:46:14.860805 28421 net.cpp:408] ip3_ip3_0_split -> ip3_ip3_0_split_0
I1217 17:46:14.860810 28421 net.cpp:408] ip3_ip3_0_split -> ip3_ip3_0_split_1
I1217 17:46:14.860846 28421 net.cpp:150] Setting up ip3_ip3_0_split
I1217 17:46:14.860853 28421 net.cpp:157] Top shape: 100 10 (1000)
I1217 17:46:14.860857 28421 net.cpp:157] Top shape: 100 10 (1000)
I1217 17:46:14.860860 28421 net.cpp:165] Memory required for data: 181466000
I1217 17:46:14.860864 28421 layer_factory.hpp:77] Creating layer accuracy
I1217 17:46:14.860882 28421 net.cpp:100] Creating Layer accuracy
I1217 17:46:14.860888 28421 net.cpp:434] accuracy <- ip3_ip3_0_split_0
I1217 17:46:14.860893 28421 net.cpp:434] accuracy <- label_cifar_1_split_0
I1217 17:46:14.860896 28421 net.cpp:408] accuracy -> accuracy
…
