…
I1217 19:46:45.740150 30387 net.cpp:322] The NetState phase (0) differed from the phase (1) specified by a rule in layer accuracy
I1217 19:46:45.740279 30387 net.cpp:58] Initializing net from parameters: 
name: "CIFAR10_full"
state {
  phase: TRAIN
  level: 0
  stage: ""
}
layer {
  name: "cifar"
  type: "Data"
  top: "data"
  top: "label"
  include {
    phase: TRAIN
  }
  transform_param {
    mean_file: "examples/cifar10/mean.binaryproto"
  }
  data_param {
    source: "examples/cifar10/cifar10_train_lmdb"
    batch_size: 100
    backend: LMDB
  }
}
layer {
  name: "conv1"
  type: "Convolution"
  bottom: "data"
  top: "conv1"
  param {
    lr_mult: 1
  }
  param {
    lr_mult: 2
  }
  convolution_param {
    num_output: 96
    pad: 2
    kernel_size: 5
    stride: 1
    weight_filler {
      type: "gaussian"
      std: 0.0001
    }
    bias_filler {
      type: "constant"
    }
  }
}
layer {
  name: "drop1"
  type: "Dropout"
  bottom: "conv1"
  top: "conv1"
  dropout_param {
    dropout_ratio: 0.25
  }
}
layer {
  name: "pool1"
  type: "Pooling"
  bottom: "conv1"
  top: "pool1"
  pooling_param {
    pool: MAX
    kernel_size: 3
    stride: 2
  }
}
layer {
  name: "drop1_a"
  type: "Dropout"
  bottom: "pool1"
  top: "pool1"
  dropout_param {
    dropout_ratio: 0.25
  }
}
layer {
  name: "relu1"
  type: "ReLU"
  bottom: "pool1"
  top: "pool1"
}
layer {
  name: "conv2"
  type: "Convolution"
  bottom: "pool1"
  top: "conv2"
  param {
    lr_mult: 1
  }
  param {
    lr_mult: 2
  }
  convolution_param {
    num_output: 128
    pad: 2
    kernel_size: 5
    stride: 1
    weight_filler {
      type: "gaussian"
      std: 0.01
    }
    bias_filler {
      type: "constant"
    }
  }
}
layer {
  name: "relu2"
  type: "ReLU"
  bottom: "conv2"
  top: "conv2"
}
layer {
  name: "drop2"
  type: "Dropout"
  bottom: "conv2"
  top: "conv2"
  dropout_param {
    dropout_ratio: 0.25
  }
}
layer {
  name: "pool2"
  type: "Pooling"
  bottom: "conv2"
  top: "pool2"
  pooling_param {
    pool: AVE
    kernel_size: 3
    stride: 2
  }
}
layer {
  name: "drop2_a"
  type: "Dropout"
  bottom: "pool2"
  top: "pool2"
  dropout_param {
    dropout_ratio: 0.25
  }
}
layer {
  name: "conv3"
  type: "Convolution"
  bottom: "pool2"
  top: "conv3"
  convolution_param {
    num_output: 256
    pad: 2
    kernel_size: 5
    stride: 1
    weight_filler {
      type: "gaussian"
      std: 0.01
    }
    bias_filler {
      type: "constant"
    }
  }
}
layer {
  name: "relu3"
  type: "ReLU"
  bottom: "conv3"
  top: "conv3"
}
layer {
  name: "drop3"
  type: "Dropout"
  bottom: "conv3"
  top: "conv3"
  dropout_param {
    dropout_ratio: 0.25
  }
}
layer {
  name: "pool3"
  type: "Pooling"
  bottom: "conv3"
  top: "pool3"
  pooling_param {
    pool: AVE
    kernel_size: 3
    stride: 2
  }
}
layer {
  name: "drop3_a"
  type: "Dropout"
  bottom: "pool3"
  top: "pool3"
  dropout_param {
    dropout_ratio: 0.5
  }
}
layer {
  name: "ip1"
  type: "InnerProduct"
  bottom: "pool3"
  top: "ip1"
  param {
    lr_mult: 1
    decay_mult: 250
  }
  param {
    lr_mult: 2
    decay_mult: 0
  }
  inner_product_param {
    num_output: 2048
    weight_filler {
      type: "gaussian"
      std: 0.01
    }
    bias_filler {
      type: "constant"
    }
  }
}
layer {
  name: "drop_ip1"
  type: "Dropout"
  bottom: "ip1"
  top: "ip1"
  dropout_param {
    dropout_ratio: 0.5
  }
}
layer {
  name: "ip2"
  type: "InnerProduct"
  bottom: "ip1"
  top: "ip2"
  param {
    lr_mult: 1
    decay_mult: 250
  }
  param {
    lr_mult: 2
    decay_mult: 0
  }
  inner_product_param {
    num_output: 2048
    weight_filler {
      type: "gaussian"
      std: 0.01
    }
    bias_filler {
      type: "constant"
    }
  }
}
layer {
  name: "drop_ip2"
  type: "Dropout"
  bottom: "ip2"
  top: "ip2"
  dropout_param {
    dropout_ratio: 0.5
  }
}
layer {
  name: "ip3"
  type: "InnerProduct"
  bottom: "ip2"
  top: "ip3"
  param {
    lr_mult: 1
    decay_mult: 250
  }
  param {
    lr_mult: 2
    decay_mult: 0
  }
  inner_product_param {
    num_output: 10
    weight_filler {
      type: "gaussian"
      std: 0.01
    }
    bias_filler {
      type: "constant"
    }
  }
}
layer {
  name: "loss"
  type: "SoftmaxWithLoss"
  bottom: "ip3"
  bottom: "label"
  top: "loss"
}
I1217 19:46:45.740406 30387 layer_factory.hpp:77] Creating layer cifar
I1217 19:46:45.740952 30387 net.cpp:100] Creating Layer cifar
I1217 19:46:45.740972 30387 net.cpp:408] cifar -> data
I1217 19:46:45.741027 30387 net.cpp:408] cifar -> label
I1217 19:46:45.741050 30387 data_transformer.cpp:25] Loading mean file from: examples/cifar10/mean.binaryproto
I1217 19:46:45.741837 30406 db_lmdb.cpp:35] Opened lmdb examples/cifar10/cifar10_train_lmdb
I1217 19:46:45.760036 30387 data_layer.cpp:41] output data size: 100,3,32,32
I1217 19:46:45.762565 30387 net.cpp:150] Setting up cifar
I1217 19:46:45.762593 30387 net.cpp:157] Top shape: 100 3 32 32 (307200)
I1217 19:46:45.762599 30387 net.cpp:157] Top shape: 100 (100)
I1217 19:46:45.762603 30387 net.cpp:165] Memory required for data: 1229200
I1217 19:46:45.762620 30387 layer_factory.hpp:77] Creating layer conv1
I1217 19:46:45.762651 30387 net.cpp:100] Creating Layer conv1
I1217 19:46:45.762657 30387 net.cpp:434] conv1 <- data
I1217 19:46:45.762675 30387 net.cpp:408] conv1 -> conv1
I1217 19:46:45.918670 30387 net.cpp:150] Setting up conv1
I1217 19:46:45.918720 30387 net.cpp:157] Top shape: 100 96 32 32 (9830400)
I1217 19:46:45.918725 30387 net.cpp:165] Memory required for data: 40550800
I1217 19:46:45.918751 30387 layer_factory.hpp:77] Creating layer drop1
I1217 19:46:45.918771 30387 net.cpp:100] Creating Layer drop1
I1217 19:46:45.918778 30387 net.cpp:434] drop1 <- conv1
I1217 19:46:45.918784 30387 net.cpp:395] drop1 -> conv1 (in-place)
I1217 19:46:45.918823 30387 net.cpp:150] Setting up drop1
I1217 19:46:45.918830 30387 net.cpp:157] Top shape: 100 96 32 32 (9830400)
I1217 19:46:45.918834 30387 net.cpp:165] Memory required for data: 79872400
I1217 19:46:45.918841 30387 layer_factory.hpp:77] Creating layer pool1
I1217 19:46:45.918858 30387 net.cpp:100] Creating Layer pool1
I1217 19:46:45.918862 30387 net.cpp:434] pool1 <- conv1
I1217 19:46:45.918867 30387 net.cpp:408] pool1 -> pool1
I1217 19:46:45.918916 30387 net.cpp:150] Setting up pool1
I1217 19:46:45.918947 30387 net.cpp:157] Top shape: 100 96 16 16 (2457600)
I1217 19:46:45.918952 30387 net.cpp:165] Memory required for data: 89702800
I1217 19:46:45.918957 30387 layer_factory.hpp:77] Creating layer drop1_a
I1217 19:46:45.918965 30387 net.cpp:100] Creating Layer drop1_a
I1217 19:46:45.918970 30387 net.cpp:434] drop1_a <- pool1
I1217 19:46:45.918975 30387 net.cpp:395] drop1_a -> pool1 (in-place)
I1217 19:46:45.919003 30387 net.cpp:150] Setting up drop1_a
I1217 19:46:45.919009 30387 net.cpp:157] Top shape: 100 96 16 16 (2457600)
I1217 19:46:45.919013 30387 net.cpp:165] Memory required for data: 99533200
I1217 19:46:45.919018 30387 layer_factory.hpp:77] Creating layer relu1
I1217 19:46:45.919024 30387 net.cpp:100] Creating Layer relu1
I1217 19:46:45.919037 30387 net.cpp:434] relu1 <- pool1
I1217 19:46:45.919042 30387 net.cpp:395] relu1 -> pool1 (in-place)
I1217 19:46:45.919323 30387 net.cpp:150] Setting up relu1
I1217 19:46:45.919334 30387 net.cpp:157] Top shape: 100 96 16 16 (2457600)
I1217 19:46:45.919339 30387 net.cpp:165] Memory required for data: 109363600
I1217 19:46:45.919343 30387 layer_factory.hpp:77] Creating layer conv2
I1217 19:46:45.919375 30387 net.cpp:100] Creating Layer conv2
I1217 19:46:45.919380 30387 net.cpp:434] conv2 <- pool1
I1217 19:46:45.919396 30387 net.cpp:408] conv2 -> conv2
I1217 19:46:45.928705 30387 net.cpp:150] Setting up conv2
I1217 19:46:45.928719 30387 net.cpp:157] Top shape: 100 128 16 16 (3276800)
I1217 19:46:45.928725 30387 net.cpp:165] Memory required for data: 122470800
I1217 19:46:45.928735 30387 layer_factory.hpp:77] Creating layer relu2
I1217 19:46:45.928741 30387 net.cpp:100] Creating Layer relu2
I1217 19:46:45.928745 30387 net.cpp:434] relu2 <- conv2
I1217 19:46:45.928753 30387 net.cpp:395] relu2 -> conv2 (in-place)
I1217 19:46:45.928910 30387 net.cpp:150] Setting up relu2
I1217 19:46:45.928918 30387 net.cpp:157] Top shape: 100 128 16 16 (3276800)
I1217 19:46:45.928921 30387 net.cpp:165] Memory required for data: 135578000
I1217 19:46:45.928927 30387 layer_factory.hpp:77] Creating layer drop2
I1217 19:46:45.928935 30387 net.cpp:100] Creating Layer drop2
I1217 19:46:45.928946 30387 net.cpp:434] drop2 <- conv2
I1217 19:46:45.928953 30387 net.cpp:395] drop2 -> conv2 (in-place)
I1217 19:46:45.928982 30387 net.cpp:150] Setting up drop2
I1217 19:46:45.928987 30387 net.cpp:157] Top shape: 100 128 16 16 (3276800)
I1217 19:46:45.928990 30387 net.cpp:165] Memory required for data: 148685200
I1217 19:46:45.928995 30387 layer_factory.hpp:77] Creating layer pool2
I1217 19:46:45.929010 30387 net.cpp:100] Creating Layer pool2
I1217 19:46:45.929015 30387 net.cpp:434] pool2 <- conv2
I1217 19:46:45.929020 30387 net.cpp:408] pool2 -> pool2
I1217 19:46:45.929324 30387 net.cpp:150] Setting up pool2
I1217 19:46:45.929335 30387 net.cpp:157] Top shape: 100 128 8 8 (819200)
I1217 19:46:45.929340 30387 net.cpp:165] Memory required for data: 151962000
I1217 19:46:45.929343 30387 layer_factory.hpp:77] Creating layer drop2_a
I1217 19:46:45.929352 30387 net.cpp:100] Creating Layer drop2_a
I1217 19:46:45.929357 30387 net.cpp:434] drop2_a <- pool2
I1217 19:46:45.929361 30387 net.cpp:395] drop2_a -> pool2 (in-place)
I1217 19:46:45.929390 30387 net.cpp:150] Setting up drop2_a
I1217 19:46:45.929397 30387 net.cpp:157] Top shape: 100 128 8 8 (819200)
I1217 19:46:45.929400 30387 net.cpp:165] Memory required for data: 155238800
I1217 19:46:45.929405 30387 layer_factory.hpp:77] Creating layer conv3
I1217 19:46:45.929421 30387 net.cpp:100] Creating Layer conv3
I1217 19:46:45.929426 30387 net.cpp:434] conv3 <- pool2
I1217 19:46:45.929433 30387 net.cpp:408] conv3 -> conv3
I1217 19:46:45.952110 30387 net.cpp:150] Setting up conv3
I1217 19:46:45.952122 30387 net.cpp:157] Top shape: 100 256 8 8 (1638400)
I1217 19:46:45.952126 30387 net.cpp:165] Memory required for data: 161792400
I1217 19:46:45.952138 30387 layer_factory.hpp:77] Creating layer relu3
I1217 19:46:45.952145 30387 net.cpp:100] Creating Layer relu3
I1217 19:46:45.952149 30387 net.cpp:434] relu3 <- conv3
I1217 19:46:45.952157 30387 net.cpp:395] relu3 -> conv3 (in-place)
I1217 19:46:45.952435 30387 net.cpp:150] Setting up relu3
I1217 19:46:45.952472 30387 net.cpp:157] Top shape: 100 256 8 8 (1638400)
I1217 19:46:45.952496 30387 net.cpp:165] Memory required for data: 168346000
I1217 19:46:45.952499 30387 layer_factory.hpp:77] Creating layer drop3
I1217 19:46:45.952505 30387 net.cpp:100] Creating Layer drop3
I1217 19:46:45.952509 30387 net.cpp:434] drop3 <- conv3
I1217 19:46:45.952524 30387 net.cpp:395] drop3 -> conv3 (in-place)
I1217 19:46:45.952546 30387 net.cpp:150] Setting up drop3
I1217 19:46:45.952553 30387 net.cpp:157] Top shape: 100 256 8 8 (1638400)
I1217 19:46:45.952556 30387 net.cpp:165] Memory required for data: 174899600
I1217 19:46:45.952560 30387 layer_factory.hpp:77] Creating layer pool3
I1217 19:46:45.952567 30387 net.cpp:100] Creating Layer pool3
I1217 19:46:45.952574 30387 net.cpp:434] pool3 <- conv3
I1217 19:46:45.952579 30387 net.cpp:408] pool3 -> pool3
I1217 19:46:45.952746 30387 net.cpp:150] Setting up pool3
I1217 19:46:45.952754 30387 net.cpp:157] Top shape: 100 256 4 4 (409600)
I1217 19:46:45.952759 30387 net.cpp:165] Memory required for data: 176538000
I1217 19:46:45.952776 30387 layer_factory.hpp:77] Creating layer drop3_a
I1217 19:46:45.952783 30387 net.cpp:100] Creating Layer drop3_a
I1217 19:46:45.952788 30387 net.cpp:434] drop3_a <- pool3
I1217 19:46:45.952793 30387 net.cpp:395] drop3_a -> pool3 (in-place)
I1217 19:46:45.952823 30387 net.cpp:150] Setting up drop3_a
I1217 19:46:45.952831 30387 net.cpp:157] Top shape: 100 256 4 4 (409600)
I1217 19:46:45.952833 30387 net.cpp:165] Memory required for data: 178176400
I1217 19:46:45.952838 30387 layer_factory.hpp:77] Creating layer ip1
I1217 19:46:45.952854 30387 net.cpp:100] Creating Layer ip1
I1217 19:46:45.952860 30387 net.cpp:434] ip1 <- pool3
I1217 19:46:45.952865 30387 net.cpp:408] ip1 -> ip1
I1217 19:46:46.173732 30387 net.cpp:150] Setting up ip1
I1217 19:46:46.173780 30387 net.cpp:157] Top shape: 100 2048 (204800)
I1217 19:46:46.173785 30387 net.cpp:165] Memory required for data: 178995600
I1217 19:46:46.173802 30387 layer_factory.hpp:77] Creating layer drop_ip1
I1217 19:46:46.173821 30387 net.cpp:100] Creating Layer drop_ip1
I1217 19:46:46.173827 30387 net.cpp:434] drop_ip1 <- ip1
I1217 19:46:46.173842 30387 net.cpp:395] drop_ip1 -> ip1 (in-place)
I1217 19:46:46.173872 30387 net.cpp:150] Setting up drop_ip1
I1217 19:46:46.173878 30387 net.cpp:157] Top shape: 100 2048 (204800)
I1217 19:46:46.173882 30387 net.cpp:165] Memory required for data: 179814800
I1217 19:46:46.173887 30387 layer_factory.hpp:77] Creating layer ip2
I1217 19:46:46.173902 30387 net.cpp:100] Creating Layer ip2
I1217 19:46:46.173907 30387 net.cpp:434] ip2 <- ip1
I1217 19:46:46.173913 30387 net.cpp:408] ip2 -> ip2
I1217 19:46:46.281543 30387 net.cpp:150] Setting up ip2
I1217 19:46:46.281592 30387 net.cpp:157] Top shape: 100 2048 (204800)
I1217 19:46:46.281596 30387 net.cpp:165] Memory required for data: 180634000
I1217 19:46:46.281618 30387 layer_factory.hpp:77] Creating layer drop_ip2
I1217 19:46:46.281636 30387 net.cpp:100] Creating Layer drop_ip2
I1217 19:46:46.281643 30387 net.cpp:434] drop_ip2 <- ip2
I1217 19:46:46.281649 30387 net.cpp:395] drop_ip2 -> ip2 (in-place)
I1217 19:46:46.281687 30387 net.cpp:150] Setting up drop_ip2
I1217 19:46:46.281693 30387 net.cpp:157] Top shape: 100 2048 (204800)
I1217 19:46:46.281697 30387 net.cpp:165] Memory required for data: 181453200
I1217 19:46:46.281700 30387 layer_factory.hpp:77] Creating layer ip3
I1217 19:46:46.281718 30387 net.cpp:100] Creating Layer ip3
I1217 19:46:46.281723 30387 net.cpp:434] ip3 <- ip2
I1217 19:46:46.281728 30387 net.cpp:408] ip3 -> ip3
I1217 19:46:46.282752 30387 net.cpp:150] Setting up ip3
I1217 19:46:46.282769 30387 net.cpp:157] Top shape: 100 10 (1000)
I1217 19:46:46.282791 30387 net.cpp:165] Memory required for data: 181457200
I1217 19:46:46.282798 30387 layer_factory.hpp:77] Creating layer loss
I1217 19:46:46.282815 30387 net.cpp:100] Creating Layer loss
I1217 19:46:46.282822 30387 net.cpp:434] loss <- ip3
I1217 19:46:46.282826 30387 net.cpp:434] loss <- label
I1217 19:46:46.282832 30387 net.cpp:408] loss -> loss
I1217 19:46:46.282855 30387 layer_factory.hpp:77] Creating layer loss
…
I1217 19:46:46.283879 30387 solver.cpp:181] Creating test net (#0) specified by net file: examples/cifar10/cifar10_Srivastavaet_train_test.prototxt
I1217 19:46:46.283922 30387 net.cpp:322] The NetState phase (1) differed from the phase (0) specified by a rule in layer cifar
I1217 19:46:46.284047 30387 net.cpp:58] Initializing net from parameters: 
name: "CIFAR10_full"
state {
  phase: TEST
}
layer {
  name: "cifar"
  type: "Data"
  top: "data"
  top: "label"
  include {
    phase: TEST
  }
  transform_param {
    mean_file: "examples/cifar10/mean.binaryproto"
  }
  data_param {
    source: "examples/cifar10/cifar10_test_lmdb"
    batch_size: 100
    backend: LMDB
  }
}
layer {
  name: "conv1"
  type: "Convolution"
  bottom: "data"
  top: "conv1"
  param {
    lr_mult: 1
  }
  param {
    lr_mult: 2
  }
  convolution_param {
    num_output: 96
    pad: 2
    kernel_size: 5
    stride: 1
    weight_filler {
      type: "gaussian"
      std: 0.0001
    }
    bias_filler {
      type: "constant"
    }
  }
}
layer {
  name: "drop1"
  type: "Dropout"
  bottom: "conv1"
  top: "conv1"
  dropout_param {
    dropout_ratio: 0.25
  }
}
layer {
  name: "pool1"
  type: "Pooling"
  bottom: "conv1"
  top: "pool1"
  pooling_param {
    pool: MAX
    kernel_size: 3
    stride: 2
  }
}
layer {
  name: "drop1_a"
  type: "Dropout"
  bottom: "pool1"
  top: "pool1"
  dropout_param {
    dropout_ratio: 0.25
  }
}
layer {
  name: "relu1"
  type: "ReLU"
  bottom: "pool1"
  top: "pool1"
}
layer {
  name: "conv2"
  type: "Convolution"
  bottom: "pool1"
  top: "conv2"
  param {
    lr_mult: 1
  }
  param {
    lr_mult: 2
  }
  convolution_param {
    num_output: 128
    pad: 2
    kernel_size: 5
    stride: 1
    weight_filler {
      type: "gaussian"
      std: 0.01
    }
    bias_filler {
      type: "constant"
    }
  }
}
layer {
  name: "relu2"
  type: "ReLU"
  bottom: "conv2"
  top: "conv2"
}
layer {
  name: "drop2"
  type: "Dropout"
  bottom: "conv2"
  top: "conv2"
  dropout_param {
    dropout_ratio: 0.25
  }
}
layer {
  name: "pool2"
  type: "Pooling"
  bottom: "conv2"
  top: "pool2"
  pooling_param {
    pool: AVE
    kernel_size: 3
    stride: 2
  }
}
layer {
  name: "drop2_a"
  type: "Dropout"
  bottom: "pool2"
  top: "pool2"
  dropout_param {
    dropout_ratio: 0.25
  }
}
layer {
  name: "conv3"
  type: "Convolution"
  bottom: "pool2"
  top: "conv3"
  convolution_param {
    num_output: 256
    pad: 2
    kernel_size: 5
    stride: 1
    weight_filler {
      type: "gaussian"
      std: 0.01
    }
    bias_filler {
      type: "constant"
    }
  }
}
layer {
  name: "relu3"
  type: "ReLU"
  bottom: "conv3"
  top: "conv3"
}
layer {
  name: "drop3"
  type: "Dropout"
  bottom: "conv3"
  top: "conv3"
  dropout_param {
    dropout_ratio: 0.25
  }
}
layer {
  name: "pool3"
  type: "Pooling"
  bottom: "conv3"
  top: "pool3"
  pooling_param {
    pool: AVE
    kernel_size: 3
    stride: 2
  }
}
layer {
  name: "drop3_a"
  type: "Dropout"
  bottom: "pool3"
  top: "pool3"
  dropout_param {
    dropout_ratio: 0.5
  }
}
layer {
  name: "ip1"
  type: "InnerProduct"
  bottom: "pool3"
  top: "ip1"
  param {
    lr_mult: 1
    decay_mult: 250
  }
  param {
    lr_mult: 2
    decay_mult: 0
  }
  inner_product_param {
    num_output: 2048
    weight_filler {
      type: "gaussian"
      std: 0.01
    }
    bias_filler {
      type: "constant"
    }
  }
}
layer {
  name: "drop_ip1"
  type: "Dropout"
  bottom: "ip1"
  top: "ip1"
  dropout_param {
    dropout_ratio: 0.5
  }
}
layer {
  name: "ip2"
  type: "InnerProduct"
  bottom: "ip1"
  top: "ip2"
  param {
    lr_mult: 1
    decay_mult: 250
  }
  param {
    lr_mult: 2
    decay_mult: 0
  }
  inner_product_param {
    num_output: 2048
    weight_filler {
      type: "gaussian"
      std: 0.01
    }
    bias_filler {
      type: "constant"
    }
  }
}
layer {
  name: "drop_ip2"
  type: "Dropout"
  bottom: "ip2"
  top: "ip2"
  dropout_param {
    dropout_ratio: 0.5
  }
}
layer {
  name: "ip3"
  type: "InnerProduct"
  bottom: "ip2"
  top: "ip3"
  param {
    lr_mult: 1
    decay_mult: 250
  }
  param {
    lr_mult: 2
    decay_mult: 0
  }
  inner_product_param {
    num_output: 10
    weight_filler {
      type: "gaussian"
      std: 0.01
    }
    bias_filler {
      type: "constant"
    }
  }
}
layer {
  name: "accuracy"
  type: "Accuracy"
  bottom: "ip3"
  bottom: "label"
  top: "accuracy"
  include {
    phase: TEST
  }
}
layer {
  name: "loss"
  type: "SoftmaxWithLoss"
  bottom: "ip3"
  bottom: "label"
  top: "loss"
}
I1217 19:46:46.284157 30387 layer_factory.hpp:77] Creating layer cifar
I1217 19:46:46.284261 30387 net.cpp:100] Creating Layer cifar
I1217 19:46:46.284271 30387 net.cpp:408] cifar -> data
I1217 19:46:46.284286 30387 net.cpp:408] cifar -> label
I1217 19:46:46.284292 30387 data_transformer.cpp:25] Loading mean file from: examples/cifar10/mean.binaryproto
I1217 19:46:46.285439 30408 db_lmdb.cpp:35] Opened lmdb examples/cifar10/cifar10_test_lmdb
I1217 19:46:46.285559 30387 data_layer.cpp:41] output data size: 100,3,32,32
I1217 19:46:46.288097 30387 net.cpp:150] Setting up cifar
I1217 19:46:46.288110 30387 net.cpp:157] Top shape: 100 3 32 32 (307200)
I1217 19:46:46.288115 30387 net.cpp:157] Top shape: 100 (100)
I1217 19:46:46.288120 30387 net.cpp:165] Memory required for data: 1229200
I1217 19:46:46.288123 30387 layer_factory.hpp:77] Creating layer label_cifar_1_split
I1217 19:46:46.288172 30387 net.cpp:100] Creating Layer label_cifar_1_split
I1217 19:46:46.288178 30387 net.cpp:434] label_cifar_1_split <- label
I1217 19:46:46.288197 30387 net.cpp:408] label_cifar_1_split -> label_cifar_1_split_0
I1217 19:46:46.288209 30387 net.cpp:408] label_cifar_1_split -> label_cifar_1_split_1
I1217 19:46:46.288280 30387 net.cpp:150] Setting up label_cifar_1_split
I1217 19:46:46.288286 30387 net.cpp:157] Top shape: 100 (100)
I1217 19:46:46.288290 30387 net.cpp:157] Top shape: 100 (100)
I1217 19:46:46.288293 30387 net.cpp:165] Memory required for data: 1230000
I1217 19:46:46.288297 30387 layer_factory.hpp:77] Creating layer conv1
I1217 19:46:46.288316 30387 net.cpp:100] Creating Layer conv1
I1217 19:46:46.288321 30387 net.cpp:434] conv1 <- data
I1217 19:46:46.288326 30387 net.cpp:408] conv1 -> conv1
I1217 19:46:46.289609 30387 net.cpp:150] Setting up conv1
I1217 19:46:46.289629 30387 net.cpp:157] Top shape: 100 96 32 32 (9830400)
I1217 19:46:46.289633 30387 net.cpp:165] Memory required for data: 40551600
I1217 19:46:46.289641 30387 layer_factory.hpp:77] Creating layer drop1
I1217 19:46:46.289649 30387 net.cpp:100] Creating Layer drop1
I1217 19:46:46.289651 30387 net.cpp:434] drop1 <- conv1
I1217 19:46:46.289657 30387 net.cpp:395] drop1 -> conv1 (in-place)
I1217 19:46:46.289685 30387 net.cpp:150] Setting up drop1
I1217 19:46:46.289692 30387 net.cpp:157] Top shape: 100 96 32 32 (9830400)
I1217 19:46:46.289696 30387 net.cpp:165] Memory required for data: 79873200
I1217 19:46:46.289700 30387 layer_factory.hpp:77] Creating layer pool1
I1217 19:46:46.289705 30387 net.cpp:100] Creating Layer pool1
I1217 19:46:46.289718 30387 net.cpp:434] pool1 <- conv1
I1217 19:46:46.289722 30387 net.cpp:408] pool1 -> pool1
I1217 19:46:46.289784 30387 net.cpp:150] Setting up pool1
I1217 19:46:46.289791 30387 net.cpp:157] Top shape: 100 96 16 16 (2457600)
I1217 19:46:46.289794 30387 net.cpp:165] Memory required for data: 89703600
I1217 19:46:46.289798 30387 layer_factory.hpp:77] Creating layer drop1_a
I1217 19:46:46.289804 30387 net.cpp:100] Creating Layer drop1_a
I1217 19:46:46.289808 30387 net.cpp:434] drop1_a <- pool1
I1217 19:46:46.289811 30387 net.cpp:395] drop1_a -> pool1 (in-place)
I1217 19:46:46.289835 30387 net.cpp:150] Setting up drop1_a
I1217 19:46:46.289841 30387 net.cpp:157] Top shape: 100 96 16 16 (2457600)
I1217 19:46:46.289845 30387 net.cpp:165] Memory required for data: 99534000
I1217 19:46:46.289849 30387 layer_factory.hpp:77] Creating layer relu1
I1217 19:46:46.289854 30387 net.cpp:100] Creating Layer relu1
I1217 19:46:46.289856 30387 net.cpp:434] relu1 <- pool1
I1217 19:46:46.289860 30387 net.cpp:395] relu1 -> pool1 (in-place)
I1217 19:46:46.290041 30387 net.cpp:150] Setting up relu1
I1217 19:46:46.290050 30387 net.cpp:157] Top shape: 100 96 16 16 (2457600)
I1217 19:46:46.290055 30387 net.cpp:165] Memory required for data: 109364400
I1217 19:46:46.290057 30387 layer_factory.hpp:77] Creating layer conv2
I1217 19:46:46.290074 30387 net.cpp:100] Creating Layer conv2
I1217 19:46:46.290081 30387 net.cpp:434] conv2 <- pool1
I1217 19:46:46.290086 30387 net.cpp:408] conv2 -> conv2
I1217 19:46:46.301010 30387 net.cpp:150] Setting up conv2
I1217 19:46:46.301033 30387 net.cpp:157] Top shape: 100 128 16 16 (3276800)
I1217 19:46:46.301036 30387 net.cpp:165] Memory required for data: 122471600
I1217 19:46:46.301046 30387 layer_factory.hpp:77] Creating layer relu2
I1217 19:46:46.301064 30387 net.cpp:100] Creating Layer relu2
I1217 19:46:46.301069 30387 net.cpp:434] relu2 <- conv2
I1217 19:46:46.301075 30387 net.cpp:395] relu2 -> conv2 (in-place)
I1217 19:46:46.301384 30387 net.cpp:150] Setting up relu2
I1217 19:46:46.301398 30387 net.cpp:157] Top shape: 100 128 16 16 (3276800)
I1217 19:46:46.301401 30387 net.cpp:165] Memory required for data: 135578800
I1217 19:46:46.301406 30387 layer_factory.hpp:77] Creating layer drop2
I1217 19:46:46.301422 30387 net.cpp:100] Creating Layer drop2
I1217 19:46:46.301427 30387 net.cpp:434] drop2 <- conv2
I1217 19:46:46.301434 30387 net.cpp:395] drop2 -> conv2 (in-place)
I1217 19:46:46.301465 30387 net.cpp:150] Setting up drop2
I1217 19:46:46.301472 30387 net.cpp:157] Top shape: 100 128 16 16 (3276800)
I1217 19:46:46.301476 30387 net.cpp:165] Memory required for data: 148686000
I1217 19:46:46.301481 30387 layer_factory.hpp:77] Creating layer pool2
I1217 19:46:46.301487 30387 net.cpp:100] Creating Layer pool2
I1217 19:46:46.301491 30387 net.cpp:434] pool2 <- conv2
I1217 19:46:46.301506 30387 net.cpp:408] pool2 -> pool2
I1217 19:46:46.301697 30387 net.cpp:150] Setting up pool2
I1217 19:46:46.301707 30387 net.cpp:157] Top shape: 100 128 8 8 (819200)
I1217 19:46:46.301712 30387 net.cpp:165] Memory required for data: 151962800
I1217 19:46:46.301715 30387 layer_factory.hpp:77] Creating layer drop2_a
I1217 19:46:46.301723 30387 net.cpp:100] Creating Layer drop2_a
I1217 19:46:46.301728 30387 net.cpp:434] drop2_a <- pool2
I1217 19:46:46.301733 30387 net.cpp:395] drop2_a -> pool2 (in-place)
I1217 19:46:46.301764 30387 net.cpp:150] Setting up drop2_a
I1217 19:46:46.301770 30387 net.cpp:157] Top shape: 100 128 8 8 (819200)
I1217 19:46:46.301775 30387 net.cpp:165] Memory required for data: 155239600
I1217 19:46:46.301780 30387 layer_factory.hpp:77] Creating layer conv3
I1217 19:46:46.301797 30387 net.cpp:100] Creating Layer conv3
I1217 19:46:46.301803 30387 net.cpp:434] conv3 <- pool2
I1217 19:46:46.301810 30387 net.cpp:408] conv3 -> conv3
I1217 19:46:46.325122 30387 net.cpp:150] Setting up conv3
I1217 19:46:46.325134 30387 net.cpp:157] Top shape: 100 256 8 8 (1638400)
I1217 19:46:46.325139 30387 net.cpp:165] Memory required for data: 161793200
I1217 19:46:46.325155 30387 layer_factory.hpp:77] Creating layer relu3
I1217 19:46:46.325166 30387 net.cpp:100] Creating Layer relu3
I1217 19:46:46.325191 30387 net.cpp:434] relu3 <- conv3
I1217 19:46:46.325196 30387 net.cpp:395] relu3 -> conv3 (in-place)
I1217 19:46:46.325481 30387 net.cpp:150] Setting up relu3
I1217 19:46:46.325492 30387 net.cpp:157] Top shape: 100 256 8 8 (1638400)
I1217 19:46:46.325496 30387 net.cpp:165] Memory required for data: 168346800
I1217 19:46:46.325500 30387 layer_factory.hpp:77] Creating layer drop3
I1217 19:46:46.325517 30387 net.cpp:100] Creating Layer drop3
I1217 19:46:46.325523 30387 net.cpp:434] drop3 <- conv3
I1217 19:46:46.325528 30387 net.cpp:395] drop3 -> conv3 (in-place)
I1217 19:46:46.325554 30387 net.cpp:150] Setting up drop3
I1217 19:46:46.325562 30387 net.cpp:157] Top shape: 100 256 8 8 (1638400)
I1217 19:46:46.325564 30387 net.cpp:165] Memory required for data: 174900400
I1217 19:46:46.325567 30387 layer_factory.hpp:77] Creating layer pool3
I1217 19:46:46.325573 30387 net.cpp:100] Creating Layer pool3
I1217 19:46:46.325577 30387 net.cpp:434] pool3 <- conv3
I1217 19:46:46.325582 30387 net.cpp:408] pool3 -> pool3
I1217 19:46:46.325747 30387 net.cpp:150] Setting up pool3
I1217 19:46:46.325757 30387 net.cpp:157] Top shape: 100 256 4 4 (409600)
I1217 19:46:46.325760 30387 net.cpp:165] Memory required for data: 176538800
I1217 19:46:46.325763 30387 layer_factory.hpp:77] Creating layer drop3_a
I1217 19:46:46.325779 30387 net.cpp:100] Creating Layer drop3_a
I1217 19:46:46.325785 30387 net.cpp:434] drop3_a <- pool3
I1217 19:46:46.325791 30387 net.cpp:395] drop3_a -> pool3 (in-place)
I1217 19:46:46.325812 30387 net.cpp:150] Setting up drop3_a
I1217 19:46:46.325819 30387 net.cpp:157] Top shape: 100 256 4 4 (409600)
I1217 19:46:46.325822 30387 net.cpp:165] Memory required for data: 178177200
I1217 19:46:46.325825 30387 layer_factory.hpp:77] Creating layer ip1
I1217 19:46:46.325834 30387 net.cpp:100] Creating Layer ip1
I1217 19:46:46.325836 30387 net.cpp:434] ip1 <- pool3
I1217 19:46:46.325842 30387 net.cpp:408] ip1 -> ip1
I1217 19:46:46.552439 30387 net.cpp:150] Setting up ip1
I1217 19:46:46.552471 30387 net.cpp:157] Top shape: 100 2048 (204800)
I1217 19:46:46.552475 30387 net.cpp:165] Memory required for data: 178996400
I1217 19:46:46.552484 30387 layer_factory.hpp:77] Creating layer drop_ip1
I1217 19:46:46.552502 30387 net.cpp:100] Creating Layer drop_ip1
I1217 19:46:46.552510 30387 net.cpp:434] drop_ip1 <- ip1
I1217 19:46:46.552516 30387 net.cpp:395] drop_ip1 -> ip1 (in-place)
I1217 19:46:46.552556 30387 net.cpp:150] Setting up drop_ip1
I1217 19:46:46.552563 30387 net.cpp:157] Top shape: 100 2048 (204800)
I1217 19:46:46.552567 30387 net.cpp:165] Memory required for data: 179815600
I1217 19:46:46.552570 30387 layer_factory.hpp:77] Creating layer ip2
I1217 19:46:46.552587 30387 net.cpp:100] Creating Layer ip2
I1217 19:46:46.552593 30387 net.cpp:434] ip2 <- ip1
I1217 19:46:46.552598 30387 net.cpp:408] ip2 -> ip2
I1217 19:46:46.664834 30387 net.cpp:150] Setting up ip2
I1217 19:46:46.664861 30387 net.cpp:157] Top shape: 100 2048 (204800)
I1217 19:46:46.664865 30387 net.cpp:165] Memory required for data: 180634800
I1217 19:46:46.664885 30387 layer_factory.hpp:77] Creating layer drop_ip2
I1217 19:46:46.664901 30387 net.cpp:100] Creating Layer drop_ip2
I1217 19:46:46.664906 30387 net.cpp:434] drop_ip2 <- ip2
I1217 19:46:46.664911 30387 net.cpp:395] drop_ip2 -> ip2 (in-place)
I1217 19:46:46.664939 30387 net.cpp:150] Setting up drop_ip2
I1217 19:46:46.664947 30387 net.cpp:157] Top shape: 100 2048 (204800)
I1217 19:46:46.664950 30387 net.cpp:165] Memory required for data: 181454000
I1217 19:46:46.664953 30387 layer_factory.hpp:77] Creating layer ip3
I1217 19:46:46.664969 30387 net.cpp:100] Creating Layer ip3
I1217 19:46:46.664975 30387 net.cpp:434] ip3 <- ip2
I1217 19:46:46.664979 30387 net.cpp:408] ip3 -> ip3
I1217 19:46:46.665611 30387 net.cpp:150] Setting up ip3
I1217 19:46:46.665619 30387 net.cpp:157] Top shape: 100 10 (1000)
I1217 19:46:46.665622 30387 net.cpp:165] Memory required for data: 181458000
I1217 19:46:46.665627 30387 layer_factory.hpp:77] Creating layer ip3_ip3_0_split
I1217 19:46:46.665633 30387 net.cpp:100] Creating Layer ip3_ip3_0_split
I1217 19:46:46.665662 30387 net.cpp:434] ip3_ip3_0_split <- ip3
I1217 19:46:46.665668 30387 net.cpp:408] ip3_ip3_0_split -> ip3_ip3_0_split_0
I1217 19:46:46.665683 30387 net.cpp:408] ip3_ip3_0_split -> ip3_ip3_0_split_1
I1217 19:46:46.665724 30387 net.cpp:150] Setting up ip3_ip3_0_split
I1217 19:46:46.665731 30387 net.cpp:157] Top shape: 100 10 (1000)
I1217 19:46:46.665735 30387 net.cpp:157] Top shape: 100 10 (1000)
I1217 19:46:46.665738 30387 net.cpp:165] Memory required for data: 181466000
I1217 19:46:46.665742 30387 layer_factory.hpp:77] Creating layer accuracy
I1217 19:46:46.665760 30387 net.cpp:100] Creating Layer accuracy
I1217 19:46:46.665765 30387 net.cpp:434] accuracy <- ip3_ip3_0_split_0
I1217 19:46:46.665769 30387 net.cpp:434] accuracy <- label_cifar_1_split_0
I1217 19:46:46.665774 30387 net.cpp:408] accuracy -> accuracy
…
