…
I0121 15:10:05.620460  9484 net.cpp:322] The NetState phase (0) differed from the phase (1) specified by a rule in layer accuracy
I0121 15:10:05.620599  9484 net.cpp:58] Initializing net from parameters: 
name: "CIFAR10_full"
state {
  phase: TRAIN
  level: 0
  stage: ""
}
layer {
  name: "cifar"
  type: "Data"
  top: "data"
  top: "label"
  include {
    phase: TRAIN
  }
  transform_param {
    mean_file: "examples/cifar10/mean.binaryproto"
  }
  data_param {
    source: "examples/cifar10/cifar10_train_lmdb"
    batch_size: 100
    backend: LMDB
  }
}
layer {
  name: "conv1"
  type: "Convolution"
  bottom: "data"
  top: "conv1"
  param {
    lr_mult: 1
  }
  param {
    lr_mult: 2
  }
  convolution_param {
    num_output: 96
    pad: 2
    kernel_size: 5
    stride: 1
    weight_filler {
      type: "gaussian"
      std: 0.0001
    }
    bias_filler {
      type: "constant"
    }
  }
}
layer {
  name: "drop1"
  type: "Dropout"
  bottom: "conv1"
  top: "conv1"
  dropout_param {
    dropout_ratio: 0.25
  }
}
layer {
  name: "pool1"
  type: "Pooling"
  bottom: "conv1"
  top: "pool1"
  pooling_param {
    pool: MAX
    kernel_size: 3
    stride: 2
  }
}
layer {
  name: "drop1_a"
  type: "Dropout"
  bottom: "pool1"
  top: "pool1"
  dropout_param {
    dropout_ratio: 0.25
  }
}
layer {
  name: "apl1"
  type: "APL"
  bottom: "pool1"
  top: "pool1"
  apl_param {
    sums: 2
    slope_filler {
      type: "constant"
      value: 1
    }
    offset_filler {
      type: "constant"
      value: 0
    }
  }
}
layer {
  name: "conv2"
  type: "Convolution"
  bottom: "pool1"
  top: "conv2"
  param {
    lr_mult: 1
  }
  param {
    lr_mult: 2
  }
  convolution_param {
    num_output: 128
    pad: 2
    kernel_size: 5
    stride: 1
    weight_filler {
      type: "gaussian"
      std: 0.01
    }
    bias_filler {
      type: "constant"
    }
  }
}
layer {
  name: "apl2"
  type: "APL"
  bottom: "conv2"
  top: "conv2"
  apl_param {
    sums: 2
    slope_filler {
      type: "constant"
      value: 1
    }
    offset_filler {
      type: "constant"
      value: 0
    }
  }
}
layer {
  name: "drop2"
  type: "Dropout"
  bottom: "conv2"
  top: "conv2"
  dropout_param {
    dropout_ratio: 0.25
  }
}
layer {
  name: "pool2"
  type: "Pooling"
  bottom: "conv2"
  top: "pool2"
  pooling_param {
    pool: AVE
    kernel_size: 3
    stride: 2
  }
}
layer {
  name: "drop2_a"
  type: "Dropout"
  bottom: "pool2"
  top: "pool2"
  dropout_param {
    dropout_ratio: 0.25
  }
}
layer {
  name: "conv3"
  type: "Convolution"
  bottom: "pool2"
  top: "conv3"
  convolution_param {
    num_output: 256
    pad: 2
    kernel_size: 5
    stride: 1
    weight_filler {
      type: "gaussian"
      std: 0.01
    }
    bias_filler {
      type: "constant"
    }
  }
}
layer {
  name: "apl3"
  type: "APL"
  bottom: "conv3"
  top: "conv3"
  apl_param {
    sums: 2
    slope_filler {
      type: "constant"
      value: 1
    }
    offset_filler {
      type: "constant"
      value: 0
    }
  }
}
layer {
  name: "drop3"
  type: "Dropout"
  bottom: "conv3"
  top: "conv3"
  dropout_param {
    dropout_ratio: 0.25
  }
}
layer {
  name: "pool3"
  type: "Pooling"
  bottom: "conv3"
  top: "pool3"
  pooling_param {
    pool: AVE
    kernel_size: 3
    stride: 2
  }
}
layer {
  name: "drop3_a"
  type: "Dropout"
  bottom: "pool3"
  top: "pool3"
  dropout_param {
    dropout_ratio: 0.5
  }
}
layer {
  name: "ip1"
  type: "InnerProduct"
  bottom: "pool3"
  top: "ip1"
  param {
    lr_mult: 1
    decay_mult: 1
  }
  param {
    lr_mult: 2
    decay_mult: 0
  }
  inner_product_param {
    num_output: 2048
    weight_filler {
      type: "gaussian"
      std: 0.01
    }
    bias_filler {
      type: "constant"
    }
  }
}
layer {
  name: "drop_ip1"
  type: "Dropout"
  bottom: "ip1"
  top: "ip1"
  dropout_param {
    dropout_ratio: 0.5
  }
}
layer {
  name: "ip2"
  type: "InnerProduct"
  bottom: "ip1"
  top: "ip2"
  param {
    lr_mult: 1
    decay_mult: 1
  }
  param {
    lr_mult: 2
    decay_mult: 0
  }
  inner_product_param {
    num_output: 2048
    weight_filler {
      type: "gaussian"
      std: 0.01
    }
    bias_filler {
      type: "constant"
    }
  }
}
layer {
  name: "drop_ip2"
  type: "Dropout"
  bottom: "ip2"
  top: "ip2"
  dropout_param {
    dropout_ratio: 0.5
  }
}
layer {
  name: "ip3"
  type: "InnerProduct"
  bottom: "ip2"
  top: "ip3"
  param {
    lr_mult: 1
    decay_mult: 1
  }
  param {
    lr_mult: 2
    decay_mult: 0
  }
  inner_product_param {
    num_output: 10
    weight_filler {
      type: "gaussian"
      std: 0.01
    }
    bias_filler {
      type: "constant"
    }
  }
}
layer {
  name: "loss"
  type: "SoftmaxWithLoss"
  bottom: "ip3"
  bottom: "label"
  top: "loss"
}
I0121 15:10:05.620729  9484 layer_factory.hpp:77] Creating layer cifar
I0121 15:10:05.621268  9484 net.cpp:100] Creating Layer cifar
I0121 15:10:05.621290  9484 net.cpp:408] cifar -> data
I0121 15:10:05.621321  9484 net.cpp:408] cifar -> label
I0121 15:10:05.621351  9484 data_transformer.cpp:25] Loading mean file from: examples/cifar10/mean.binaryproto
I0121 15:10:05.622108  9503 db_lmdb.cpp:35] Opened lmdb examples/cifar10/cifar10_train_lmdb
I0121 15:10:05.640493  9484 data_layer.cpp:41] output data size: 100,3,32,32
I0121 15:10:05.643000  9484 net.cpp:150] Setting up cifar
I0121 15:10:05.643028  9484 net.cpp:157] Top shape: 100 3 32 32 (307200)
I0121 15:10:05.643034  9484 net.cpp:157] Top shape: 100 (100)
I0121 15:10:05.643038  9484 net.cpp:165] Memory required for data: 1229200
I0121 15:10:05.643054  9484 layer_factory.hpp:77] Creating layer conv1
I0121 15:10:05.643081  9484 net.cpp:100] Creating Layer conv1
I0121 15:10:05.643097  9484 net.cpp:434] conv1 <- data
I0121 15:10:05.643116  9484 net.cpp:408] conv1 -> conv1
I0121 15:10:05.810240  9484 net.cpp:150] Setting up conv1
I0121 15:10:05.810282  9484 net.cpp:157] Top shape: 100 96 32 32 (9830400)
I0121 15:10:05.810286  9484 net.cpp:165] Memory required for data: 40550800
I0121 15:10:05.810310  9484 layer_factory.hpp:77] Creating layer drop1
I0121 15:10:05.810333  9484 net.cpp:100] Creating Layer drop1
I0121 15:10:05.810338  9484 net.cpp:434] drop1 <- conv1
I0121 15:10:05.810343  9484 net.cpp:395] drop1 -> conv1 (in-place)
I0121 15:10:05.810376  9484 net.cpp:150] Setting up drop1
I0121 15:10:05.810391  9484 net.cpp:157] Top shape: 100 96 32 32 (9830400)
I0121 15:10:05.810395  9484 net.cpp:165] Memory required for data: 79872400
I0121 15:10:05.810400  9484 layer_factory.hpp:77] Creating layer pool1
I0121 15:10:05.810408  9484 net.cpp:100] Creating Layer pool1
I0121 15:10:05.810412  9484 net.cpp:434] pool1 <- conv1
I0121 15:10:05.810416  9484 net.cpp:408] pool1 -> pool1
I0121 15:10:05.810464  9484 net.cpp:150] Setting up pool1
I0121 15:10:05.810472  9484 net.cpp:157] Top shape: 100 96 16 16 (2457600)
I0121 15:10:05.810475  9484 net.cpp:165] Memory required for data: 89702800
I0121 15:10:05.810479  9484 layer_factory.hpp:77] Creating layer drop1_a
I0121 15:10:05.810485  9484 net.cpp:100] Creating Layer drop1_a
I0121 15:10:05.810489  9484 net.cpp:434] drop1_a <- pool1
I0121 15:10:05.810493  9484 net.cpp:395] drop1_a -> pool1 (in-place)
I0121 15:10:05.810518  9484 net.cpp:150] Setting up drop1_a
I0121 15:10:05.810525  9484 net.cpp:157] Top shape: 100 96 16 16 (2457600)
I0121 15:10:05.810528  9484 net.cpp:165] Memory required for data: 99533200
I0121 15:10:05.810533  9484 layer_factory.hpp:77] Creating layer apl1
I0121 15:10:05.810564  9484 net.cpp:100] Creating Layer apl1
I0121 15:10:05.810577  9484 net.cpp:434] apl1 <- pool1
I0121 15:10:05.810582  9484 net.cpp:395] apl1 -> pool1 (in-place)
I0121 15:10:05.811086  9484 apl_layer.cpp:95]  Sums: 2
I0121 15:10:05.811118  9484 net.cpp:150] Setting up apl1
I0121 15:10:05.811126  9484 net.cpp:157] Top shape: 100 96 16 16 (2457600)
I0121 15:10:05.811131  9484 net.cpp:165] Memory required for data: 109363600
I0121 15:10:05.811147  9484 layer_factory.hpp:77] Creating layer conv2
I0121 15:10:05.811168  9484 net.cpp:100] Creating Layer conv2
I0121 15:10:05.811174  9484 net.cpp:434] conv2 <- pool1
I0121 15:10:05.811180  9484 net.cpp:408] conv2 -> conv2
I0121 15:10:05.820435  9484 net.cpp:150] Setting up conv2
I0121 15:10:05.820448  9484 net.cpp:157] Top shape: 100 128 16 16 (3276800)
I0121 15:10:05.820452  9484 net.cpp:165] Memory required for data: 122470800
I0121 15:10:05.820468  9484 layer_factory.hpp:77] Creating layer apl2
I0121 15:10:05.820477  9484 net.cpp:100] Creating Layer apl2
I0121 15:10:05.820482  9484 net.cpp:434] apl2 <- conv2
I0121 15:10:05.820487  9484 net.cpp:395] apl2 -> conv2 (in-place)
I0121 15:10:05.820616  9484 apl_layer.cpp:95]  Sums: 2
I0121 15:10:05.820643  9484 net.cpp:150] Setting up apl2
I0121 15:10:05.820650  9484 net.cpp:157] Top shape: 100 128 16 16 (3276800)
I0121 15:10:05.820654  9484 net.cpp:165] Memory required for data: 135578000
I0121 15:10:05.820662  9484 layer_factory.hpp:77] Creating layer drop2
I0121 15:10:05.820677  9484 net.cpp:100] Creating Layer drop2
I0121 15:10:05.820680  9484 net.cpp:434] drop2 <- conv2
I0121 15:10:05.820685  9484 net.cpp:395] drop2 -> conv2 (in-place)
I0121 15:10:05.820708  9484 net.cpp:150] Setting up drop2
I0121 15:10:05.820714  9484 net.cpp:157] Top shape: 100 128 16 16 (3276800)
I0121 15:10:05.820719  9484 net.cpp:165] Memory required for data: 148685200
I0121 15:10:05.820722  9484 layer_factory.hpp:77] Creating layer pool2
I0121 15:10:05.820727  9484 net.cpp:100] Creating Layer pool2
I0121 15:10:05.820731  9484 net.cpp:434] pool2 <- conv2
I0121 15:10:05.820736  9484 net.cpp:408] pool2 -> pool2
I0121 15:10:05.821036  9484 net.cpp:150] Setting up pool2
I0121 15:10:05.821055  9484 net.cpp:157] Top shape: 100 128 8 8 (819200)
I0121 15:10:05.821059  9484 net.cpp:165] Memory required for data: 151962000
I0121 15:10:05.821063  9484 layer_factory.hpp:77] Creating layer drop2_a
I0121 15:10:05.821069  9484 net.cpp:100] Creating Layer drop2_a
I0121 15:10:05.821074  9484 net.cpp:434] drop2_a <- pool2
I0121 15:10:05.821079  9484 net.cpp:395] drop2_a -> pool2 (in-place)
I0121 15:10:05.821105  9484 net.cpp:150] Setting up drop2_a
I0121 15:10:05.821112  9484 net.cpp:157] Top shape: 100 128 8 8 (819200)
I0121 15:10:05.821115  9484 net.cpp:165] Memory required for data: 155238800
I0121 15:10:05.821120  9484 layer_factory.hpp:77] Creating layer conv3
I0121 15:10:05.821126  9484 net.cpp:100] Creating Layer conv3
I0121 15:10:05.821135  9484 net.cpp:434] conv3 <- pool2
I0121 15:10:05.821140  9484 net.cpp:408] conv3 -> conv3
I0121 15:10:05.843750  9484 net.cpp:150] Setting up conv3
I0121 15:10:05.843770  9484 net.cpp:157] Top shape: 100 256 8 8 (1638400)
I0121 15:10:05.843773  9484 net.cpp:165] Memory required for data: 161792400
I0121 15:10:05.843782  9484 layer_factory.hpp:77] Creating layer apl3
I0121 15:10:05.843789  9484 net.cpp:100] Creating Layer apl3
I0121 15:10:05.843801  9484 net.cpp:434] apl3 <- conv3
I0121 15:10:05.843806  9484 net.cpp:395] apl3 -> conv3 (in-place)
I0121 15:10:05.844280  9484 apl_layer.cpp:95]  Sums: 2
I0121 15:10:05.844310  9484 net.cpp:150] Setting up apl3
I0121 15:10:05.844316  9484 net.cpp:157] Top shape: 100 256 8 8 (1638400)
I0121 15:10:05.844319  9484 net.cpp:165] Memory required for data: 168346000
I0121 15:10:05.844326  9484 layer_factory.hpp:77] Creating layer drop3
I0121 15:10:05.844332  9484 net.cpp:100] Creating Layer drop3
I0121 15:10:05.844336  9484 net.cpp:434] drop3 <- conv3
I0121 15:10:05.844341  9484 net.cpp:395] drop3 -> conv3 (in-place)
I0121 15:10:05.844367  9484 net.cpp:150] Setting up drop3
I0121 15:10:05.844385  9484 net.cpp:157] Top shape: 100 256 8 8 (1638400)
I0121 15:10:05.844389  9484 net.cpp:165] Memory required for data: 174899600
I0121 15:10:05.844393  9484 layer_factory.hpp:77] Creating layer pool3
I0121 15:10:05.844398  9484 net.cpp:100] Creating Layer pool3
I0121 15:10:05.844403  9484 net.cpp:434] pool3 <- conv3
I0121 15:10:05.844408  9484 net.cpp:408] pool3 -> pool3
I0121 15:10:05.844696  9484 net.cpp:150] Setting up pool3
I0121 15:10:05.844707  9484 net.cpp:157] Top shape: 100 256 4 4 (409600)
I0121 15:10:05.844712  9484 net.cpp:165] Memory required for data: 176538000
I0121 15:10:05.844715  9484 layer_factory.hpp:77] Creating layer drop3_a
I0121 15:10:05.844720  9484 net.cpp:100] Creating Layer drop3_a
I0121 15:10:05.844724  9484 net.cpp:434] drop3_a <- pool3
I0121 15:10:05.844729  9484 net.cpp:395] drop3_a -> pool3 (in-place)
I0121 15:10:05.844756  9484 net.cpp:150] Setting up drop3_a
I0121 15:10:05.844774  9484 net.cpp:157] Top shape: 100 256 4 4 (409600)
I0121 15:10:05.844779  9484 net.cpp:165] Memory required for data: 178176400
I0121 15:10:05.844781  9484 layer_factory.hpp:77] Creating layer ip1
I0121 15:10:05.844799  9484 net.cpp:100] Creating Layer ip1
I0121 15:10:05.844805  9484 net.cpp:434] ip1 <- pool3
I0121 15:10:05.844810  9484 net.cpp:408] ip1 -> ip1
I0121 15:10:06.063954  9484 net.cpp:150] Setting up ip1
I0121 15:10:06.064005  9484 net.cpp:157] Top shape: 100 2048 (204800)
I0121 15:10:06.064009  9484 net.cpp:165] Memory required for data: 178995600
I0121 15:10:06.064028  9484 layer_factory.hpp:77] Creating layer drop_ip1
I0121 15:10:06.064046  9484 net.cpp:100] Creating Layer drop_ip1
I0121 15:10:06.064052  9484 net.cpp:434] drop_ip1 <- ip1
I0121 15:10:06.064059  9484 net.cpp:395] drop_ip1 -> ip1 (in-place)
I0121 15:10:06.064105  9484 net.cpp:150] Setting up drop_ip1
I0121 15:10:06.064111  9484 net.cpp:157] Top shape: 100 2048 (204800)
I0121 15:10:06.064116  9484 net.cpp:165] Memory required for data: 179814800
I0121 15:10:06.064119  9484 layer_factory.hpp:77] Creating layer ip2
I0121 15:10:06.064136  9484 net.cpp:100] Creating Layer ip2
I0121 15:10:06.064141  9484 net.cpp:434] ip2 <- ip1
I0121 15:10:06.064146  9484 net.cpp:408] ip2 -> ip2
I0121 15:10:06.170909  9484 net.cpp:150] Setting up ip2
I0121 15:10:06.170963  9484 net.cpp:157] Top shape: 100 2048 (204800)
I0121 15:10:06.170966  9484 net.cpp:165] Memory required for data: 180634000
I0121 15:10:06.170984  9484 layer_factory.hpp:77] Creating layer drop_ip2
I0121 15:10:06.171000  9484 net.cpp:100] Creating Layer drop_ip2
I0121 15:10:06.171005  9484 net.cpp:434] drop_ip2 <- ip2
I0121 15:10:06.171021  9484 net.cpp:395] drop_ip2 -> ip2 (in-place)
I0121 15:10:06.171063  9484 net.cpp:150] Setting up drop_ip2
I0121 15:10:06.171072  9484 net.cpp:157] Top shape: 100 2048 (204800)
I0121 15:10:06.171074  9484 net.cpp:165] Memory required for data: 181453200
I0121 15:10:06.171078  9484 layer_factory.hpp:77] Creating layer ip3
I0121 15:10:06.171087  9484 net.cpp:100] Creating Layer ip3
I0121 15:10:06.171089  9484 net.cpp:434] ip3 <- ip2
I0121 15:10:06.171104  9484 net.cpp:408] ip3 -> ip3
I0121 15:10:06.171752  9484 net.cpp:150] Setting up ip3
I0121 15:10:06.171761  9484 net.cpp:157] Top shape: 100 10 (1000)
I0121 15:10:06.171764  9484 net.cpp:165] Memory required for data: 181457200
I0121 15:10:06.171783  9484 layer_factory.hpp:77] Creating layer loss
I0121 15:10:06.171804  9484 net.cpp:100] Creating Layer loss
I0121 15:10:06.171808  9484 net.cpp:434] loss <- ip3
I0121 15:10:06.171813  9484 net.cpp:434] loss <- label
I0121 15:10:06.171818  9484 net.cpp:408] loss -> loss
I0121 15:10:06.171841  9484 layer_factory.hpp:77] Creating layer loss
…
I0121 15:10:06.172724  9484 solver.cpp:181] Creating test net (#0) specified by net file: examples/cifar10/apl/cifar10_Srivastavaet_APL_train_test.prototxt
I0121 15:10:06.172760  9484 net.cpp:322] The NetState phase (1) differed from the phase (0) specified by a rule in layer cifar
I0121 15:10:06.172889  9484 net.cpp:58] Initializing net from parameters: 
name: "CIFAR10_full"
state {
  phase: TEST
}
layer {
  name: "cifar"
  type: "Data"
  top: "data"
  top: "label"
  include {
    phase: TEST
  }
  transform_param {
    mean_file: "examples/cifar10/mean.binaryproto"
  }
  data_param {
    source: "examples/cifar10/cifar10_test_lmdb"
    batch_size: 100
    backend: LMDB
  }
}
layer {
  name: "conv1"
  type: "Convolution"
  bottom: "data"
  top: "conv1"
  param {
    lr_mult: 1
  }
  param {
    lr_mult: 2
  }
  convolution_param {
    num_output: 96
    pad: 2
    kernel_size: 5
    stride: 1
    weight_filler {
      type: "gaussian"
      std: 0.0001
    }
    bias_filler {
      type: "constant"
    }
  }
}
layer {
  name: "drop1"
  type: "Dropout"
  bottom: "conv1"
  top: "conv1"
  dropout_param {
    dropout_ratio: 0.25
  }
}
layer {
  name: "pool1"
  type: "Pooling"
  bottom: "conv1"
  top: "pool1"
  pooling_param {
    pool: MAX
    kernel_size: 3
    stride: 2
  }
}
layer {
  name: "drop1_a"
  type: "Dropout"
  bottom: "pool1"
  top: "pool1"
  dropout_param {
    dropout_ratio: 0.25
  }
}
layer {
  name: "apl1"
  type: "APL"
  bottom: "pool1"
  top: "pool1"
  apl_param {
    sums: 2
    slope_filler {
      type: "constant"
      value: 1
    }
    offset_filler {
      type: "constant"
      value: 0
    }
  }
}
layer {
  name: "conv2"
  type: "Convolution"
  bottom: "pool1"
  top: "conv2"
  param {
    lr_mult: 1
  }
  param {
    lr_mult: 2
  }
  convolution_param {
    num_output: 128
    pad: 2
    kernel_size: 5
    stride: 1
    weight_filler {
      type: "gaussian"
      std: 0.01
    }
    bias_filler {
      type: "constant"
    }
  }
}
layer {
  name: "apl2"
  type: "APL"
  bottom: "conv2"
  top: "conv2"
  apl_param {
    sums: 2
    slope_filler {
      type: "constant"
      value: 1
    }
    offset_filler {
      type: "constant"
      value: 0
    }
  }
}
layer {
  name: "drop2"
  type: "Dropout"
  bottom: "conv2"
  top: "conv2"
  dropout_param {
    dropout_ratio: 0.25
  }
}
layer {
  name: "pool2"
  type: "Pooling"
  bottom: "conv2"
  top: "pool2"
  pooling_param {
    pool: AVE
    kernel_size: 3
    stride: 2
  }
}
layer {
  name: "drop2_a"
  type: "Dropout"
  bottom: "pool2"
  top: "pool2"
  dropout_param {
    dropout_ratio: 0.25
  }
}
layer {
  name: "conv3"
  type: "Convolution"
  bottom: "pool2"
  top: "conv3"
  convolution_param {
    num_output: 256
    pad: 2
    kernel_size: 5
    stride: 1
    weight_filler {
      type: "gaussian"
      std: 0.01
    }
    bias_filler {
      type: "constant"
    }
  }
}
layer {
  name: "apl3"
  type: "APL"
  bottom: "conv3"
  top: "conv3"
  apl_param {
    sums: 2
    slope_filler {
      type: "constant"
      value: 1
    }
    offset_filler {
      type: "constant"
      value: 0
    }
  }
}
layer {
  name: "drop3"
  type: "Dropout"
  bottom: "conv3"
  top: "conv3"
  dropout_param {
    dropout_ratio: 0.25
  }
}
layer {
  name: "pool3"
  type: "Pooling"
  bottom: "conv3"
  top: "pool3"
  pooling_param {
    pool: AVE
    kernel_size: 3
    stride: 2
  }
}
layer {
  name: "drop3_a"
  type: "Dropout"
  bottom: "pool3"
  top: "pool3"
  dropout_param {
    dropout_ratio: 0.5
  }
}
layer {
  name: "ip1"
  type: "InnerProduct"
  bottom: "pool3"
  top: "ip1"
  param {
    lr_mult: 1
    decay_mult: 1
  }
  param {
    lr_mult: 2
    decay_mult: 0
  }
  inner_product_param {
    num_output: 2048
    weight_filler {
      type: "gaussian"
      std: 0.01
    }
    bias_filler {
      type: "constant"
    }
  }
}
layer {
  name: "drop_ip1"
  type: "Dropout"
  bottom: "ip1"
  top: "ip1"
  dropout_param {
    dropout_ratio: 0.5
  }
}
layer {
  name: "ip2"
  type: "InnerProduct"
  bottom: "ip1"
  top: "ip2"
  param {
    lr_mult: 1
    decay_mult: 1
  }
  param {
    lr_mult: 2
    decay_mult: 0
  }
  inner_product_param {
    num_output: 2048
    weight_filler {
      type: "gaussian"
      std: 0.01
    }
    bias_filler {
      type: "constant"
    }
  }
}
layer {
  name: "drop_ip2"
  type: "Dropout"
  bottom: "ip2"
  top: "ip2"
  dropout_param {
    dropout_ratio: 0.5
  }
}
layer {
  name: "ip3"
  type: "InnerProduct"
  bottom: "ip2"
  top: "ip3"
  param {
    lr_mult: 1
    decay_mult: 1
  }
  param {
    lr_mult: 2
    decay_mult: 0
  }
  inner_product_param {
    num_output: 10
    weight_filler {
      type: "gaussian"
      std: 0.01
    }
    bias_filler {
      type: "constant"
    }
  }
}
layer {
  name: "accuracy"
  type: "Accuracy"
  bottom: "ip3"
  bottom: "label"
  top: "accuracy"
  include {
    phase: TEST
  }
}
layer {
  name: "loss"
  type: "SoftmaxWithLoss"
  bottom: "ip3"
  bottom: "label"
  top: "loss"
}
I0121 15:10:06.173002  9484 layer_factory.hpp:77] Creating layer cifar
I0121 15:10:06.173110  9484 net.cpp:100] Creating Layer cifar
I0121 15:10:06.173120  9484 net.cpp:408] cifar -> data
I0121 15:10:06.173128  9484 net.cpp:408] cifar -> label
I0121 15:10:06.173135  9484 data_transformer.cpp:25] Loading mean file from: examples/cifar10/mean.binaryproto
I0121 15:10:06.174698  9505 db_lmdb.cpp:35] Opened lmdb examples/cifar10/cifar10_test_lmdb
I0121 15:10:06.174825  9484 data_layer.cpp:41] output data size: 100,3,32,32
I0121 15:10:06.177443  9484 net.cpp:150] Setting up cifar
I0121 15:10:06.177464  9484 net.cpp:157] Top shape: 100 3 32 32 (307200)
I0121 15:10:06.177510  9484 net.cpp:157] Top shape: 100 (100)
I0121 15:10:06.177515  9484 net.cpp:165] Memory required for data: 1229200
I0121 15:10:06.177520  9484 layer_factory.hpp:77] Creating layer label_cifar_1_split
I0121 15:10:06.177531  9484 net.cpp:100] Creating Layer label_cifar_1_split
I0121 15:10:06.177549  9484 net.cpp:434] label_cifar_1_split <- label
I0121 15:10:06.177556  9484 net.cpp:408] label_cifar_1_split -> label_cifar_1_split_0
I0121 15:10:06.177572  9484 net.cpp:408] label_cifar_1_split -> label_cifar_1_split_1
I0121 15:10:06.177775  9484 net.cpp:150] Setting up label_cifar_1_split
I0121 15:10:06.177785  9484 net.cpp:157] Top shape: 100 (100)
I0121 15:10:06.177790  9484 net.cpp:157] Top shape: 100 (100)
I0121 15:10:06.177794  9484 net.cpp:165] Memory required for data: 1230000
I0121 15:10:06.177798  9484 layer_factory.hpp:77] Creating layer conv1
I0121 15:10:06.177837  9484 net.cpp:100] Creating Layer conv1
I0121 15:10:06.177844  9484 net.cpp:434] conv1 <- data
I0121 15:10:06.177852  9484 net.cpp:408] conv1 -> conv1
I0121 15:10:06.179334  9484 net.cpp:150] Setting up conv1
I0121 15:10:06.179355  9484 net.cpp:157] Top shape: 100 96 32 32 (9830400)
I0121 15:10:06.179360  9484 net.cpp:165] Memory required for data: 40551600
I0121 15:10:06.179371  9484 layer_factory.hpp:77] Creating layer drop1
I0121 15:10:06.179378  9484 net.cpp:100] Creating Layer drop1
I0121 15:10:06.179383  9484 net.cpp:434] drop1 <- conv1
I0121 15:10:06.179390  9484 net.cpp:395] drop1 -> conv1 (in-place)
I0121 15:10:06.179479  9484 net.cpp:150] Setting up drop1
I0121 15:10:06.179488  9484 net.cpp:157] Top shape: 100 96 32 32 (9830400)
I0121 15:10:06.179493  9484 net.cpp:165] Memory required for data: 79873200
I0121 15:10:06.179497  9484 layer_factory.hpp:77] Creating layer pool1
I0121 15:10:06.179504  9484 net.cpp:100] Creating Layer pool1
I0121 15:10:06.179508  9484 net.cpp:434] pool1 <- conv1
I0121 15:10:06.179515  9484 net.cpp:408] pool1 -> pool1
I0121 15:10:06.179565  9484 net.cpp:150] Setting up pool1
I0121 15:10:06.179574  9484 net.cpp:157] Top shape: 100 96 16 16 (2457600)
I0121 15:10:06.179579  9484 net.cpp:165] Memory required for data: 89703600
I0121 15:10:06.179582  9484 layer_factory.hpp:77] Creating layer drop1_a
I0121 15:10:06.179596  9484 net.cpp:100] Creating Layer drop1_a
I0121 15:10:06.179602  9484 net.cpp:434] drop1_a <- pool1
I0121 15:10:06.179608  9484 net.cpp:395] drop1_a -> pool1 (in-place)
I0121 15:10:06.179636  9484 net.cpp:150] Setting up drop1_a
I0121 15:10:06.179643  9484 net.cpp:157] Top shape: 100 96 16 16 (2457600)
I0121 15:10:06.179647  9484 net.cpp:165] Memory required for data: 99534000
I0121 15:10:06.179652  9484 layer_factory.hpp:77] Creating layer apl1
I0121 15:10:06.179658  9484 net.cpp:100] Creating Layer apl1
I0121 15:10:06.179662  9484 net.cpp:434] apl1 <- pool1
I0121 15:10:06.179671  9484 net.cpp:395] apl1 -> pool1 (in-place)
I0121 15:10:06.179844  9484 apl_layer.cpp:95]  Sums: 2
I0121 15:10:06.179867  9484 net.cpp:150] Setting up apl1
I0121 15:10:06.179875  9484 net.cpp:157] Top shape: 100 96 16 16 (2457600)
I0121 15:10:06.179879  9484 net.cpp:165] Memory required for data: 109364400
I0121 15:10:06.179896  9484 layer_factory.hpp:77] Creating layer conv2
I0121 15:10:06.179908  9484 net.cpp:100] Creating Layer conv2
I0121 15:10:06.179913  9484 net.cpp:434] conv2 <- pool1
I0121 15:10:06.179919  9484 net.cpp:408] conv2 -> conv2
I0121 15:10:06.190475  9484 net.cpp:150] Setting up conv2
I0121 15:10:06.190488  9484 net.cpp:157] Top shape: 100 128 16 16 (3276800)
I0121 15:10:06.190492  9484 net.cpp:165] Memory required for data: 122471600
I0121 15:10:06.190510  9484 layer_factory.hpp:77] Creating layer apl2
I0121 15:10:06.190520  9484 net.cpp:100] Creating Layer apl2
I0121 15:10:06.190523  9484 net.cpp:434] apl2 <- conv2
I0121 15:10:06.190529  9484 net.cpp:395] apl2 -> conv2 (in-place)
I0121 15:10:06.191088  9484 apl_layer.cpp:95]  Sums: 2
I0121 15:10:06.191123  9484 net.cpp:150] Setting up apl2
I0121 15:10:06.191129  9484 net.cpp:157] Top shape: 100 128 16 16 (3276800)
I0121 15:10:06.191133  9484 net.cpp:165] Memory required for data: 135578800
I0121 15:10:06.191149  9484 layer_factory.hpp:77] Creating layer drop2
I0121 15:10:06.191156  9484 net.cpp:100] Creating Layer drop2
I0121 15:10:06.191160  9484 net.cpp:434] drop2 <- conv2
I0121 15:10:06.191165  9484 net.cpp:395] drop2 -> conv2 (in-place)
I0121 15:10:06.191189  9484 net.cpp:150] Setting up drop2
I0121 15:10:06.191195  9484 net.cpp:157] Top shape: 100 128 16 16 (3276800)
I0121 15:10:06.191200  9484 net.cpp:165] Memory required for data: 148686000
I0121 15:10:06.191202  9484 layer_factory.hpp:77] Creating layer pool2
I0121 15:10:06.191207  9484 net.cpp:100] Creating Layer pool2
I0121 15:10:06.191210  9484 net.cpp:434] pool2 <- conv2
I0121 15:10:06.191216  9484 net.cpp:408] pool2 -> pool2
I0121 15:10:06.191521  9484 net.cpp:150] Setting up pool2
I0121 15:10:06.191540  9484 net.cpp:157] Top shape: 100 128 8 8 (819200)
I0121 15:10:06.191560  9484 net.cpp:165] Memory required for data: 151962800
I0121 15:10:06.191565  9484 layer_factory.hpp:77] Creating layer drop2_a
I0121 15:10:06.191579  9484 net.cpp:100] Creating Layer drop2_a
I0121 15:10:06.191582  9484 net.cpp:434] drop2_a <- pool2
I0121 15:10:06.191588  9484 net.cpp:395] drop2_a -> pool2 (in-place)
I0121 15:10:06.191619  9484 net.cpp:150] Setting up drop2_a
I0121 15:10:06.191627  9484 net.cpp:157] Top shape: 100 128 8 8 (819200)
I0121 15:10:06.191638  9484 net.cpp:165] Memory required for data: 155239600
I0121 15:10:06.191642  9484 layer_factory.hpp:77] Creating layer conv3
I0121 15:10:06.191658  9484 net.cpp:100] Creating Layer conv3
I0121 15:10:06.191663  9484 net.cpp:434] conv3 <- pool2
I0121 15:10:06.191668  9484 net.cpp:408] conv3 -> conv3
I0121 15:10:06.214309  9484 net.cpp:150] Setting up conv3
I0121 15:10:06.214330  9484 net.cpp:157] Top shape: 100 256 8 8 (1638400)
I0121 15:10:06.214334  9484 net.cpp:165] Memory required for data: 161793200
I0121 15:10:06.214344  9484 layer_factory.hpp:77] Creating layer apl3
I0121 15:10:06.214359  9484 net.cpp:100] Creating Layer apl3
I0121 15:10:06.214364  9484 net.cpp:434] apl3 <- conv3
I0121 15:10:06.214368  9484 net.cpp:395] apl3 -> conv3 (in-place)
I0121 15:10:06.214470  9484 apl_layer.cpp:95]  Sums: 2
I0121 15:10:06.214499  9484 net.cpp:150] Setting up apl3
I0121 15:10:06.214507  9484 net.cpp:157] Top shape: 100 256 8 8 (1638400)
I0121 15:10:06.214511  9484 net.cpp:165] Memory required for data: 168346800
I0121 15:10:06.214517  9484 layer_factory.hpp:77] Creating layer drop3
I0121 15:10:06.214522  9484 net.cpp:100] Creating Layer drop3
I0121 15:10:06.214526  9484 net.cpp:434] drop3 <- conv3
I0121 15:10:06.214532  9484 net.cpp:395] drop3 -> conv3 (in-place)
I0121 15:10:06.214568  9484 net.cpp:150] Setting up drop3
I0121 15:10:06.214576  9484 net.cpp:157] Top shape: 100 256 8 8 (1638400)
I0121 15:10:06.214579  9484 net.cpp:165] Memory required for data: 174900400
I0121 15:10:06.214583  9484 layer_factory.hpp:77] Creating layer pool3
I0121 15:10:06.214588  9484 net.cpp:100] Creating Layer pool3
I0121 15:10:06.214591  9484 net.cpp:434] pool3 <- conv3
I0121 15:10:06.214596  9484 net.cpp:408] pool3 -> pool3
I0121 15:10:06.214890  9484 net.cpp:150] Setting up pool3
I0121 15:10:06.214910  9484 net.cpp:157] Top shape: 100 256 4 4 (409600)
I0121 15:10:06.214913  9484 net.cpp:165] Memory required for data: 176538800
I0121 15:10:06.214917  9484 layer_factory.hpp:77] Creating layer drop3_a
I0121 15:10:06.214942  9484 net.cpp:100] Creating Layer drop3_a
I0121 15:10:06.214947  9484 net.cpp:434] drop3_a <- pool3
I0121 15:10:06.214952  9484 net.cpp:395] drop3_a -> pool3 (in-place)
I0121 15:10:06.214982  9484 net.cpp:150] Setting up drop3_a
I0121 15:10:06.214988  9484 net.cpp:157] Top shape: 100 256 4 4 (409600)
I0121 15:10:06.214993  9484 net.cpp:165] Memory required for data: 178177200
I0121 15:10:06.214995  9484 layer_factory.hpp:77] Creating layer ip1
I0121 15:10:06.215011  9484 net.cpp:100] Creating Layer ip1
I0121 15:10:06.215014  9484 net.cpp:434] ip1 <- pool3
I0121 15:10:06.215021  9484 net.cpp:408] ip1 -> ip1
I0121 15:10:06.444775  9484 net.cpp:150] Setting up ip1
I0121 15:10:06.444815  9484 net.cpp:157] Top shape: 100 2048 (204800)
I0121 15:10:06.444819  9484 net.cpp:165] Memory required for data: 178996400
I0121 15:10:06.444828  9484 layer_factory.hpp:77] Creating layer drop_ip1
I0121 15:10:06.444849  9484 net.cpp:100] Creating Layer drop_ip1
I0121 15:10:06.444854  9484 net.cpp:434] drop_ip1 <- ip1
I0121 15:10:06.444869  9484 net.cpp:395] drop_ip1 -> ip1 (in-place)
I0121 15:10:06.444916  9484 net.cpp:150] Setting up drop_ip1
I0121 15:10:06.444931  9484 net.cpp:157] Top shape: 100 2048 (204800)
I0121 15:10:06.444936  9484 net.cpp:165] Memory required for data: 179815600
I0121 15:10:06.444938  9484 layer_factory.hpp:77] Creating layer ip2
I0121 15:10:06.444947  9484 net.cpp:100] Creating Layer ip2
I0121 15:10:06.444950  9484 net.cpp:434] ip2 <- ip1
I0121 15:10:06.444957  9484 net.cpp:408] ip2 -> ip2
I0121 15:10:06.558070  9484 net.cpp:150] Setting up ip2
I0121 15:10:06.558123  9484 net.cpp:157] Top shape: 100 2048 (204800)
I0121 15:10:06.558127  9484 net.cpp:165] Memory required for data: 180634800
I0121 15:10:06.558136  9484 layer_factory.hpp:77] Creating layer drop_ip2
I0121 15:10:06.558152  9484 net.cpp:100] Creating Layer drop_ip2
I0121 15:10:06.558157  9484 net.cpp:434] drop_ip2 <- ip2
I0121 15:10:06.558172  9484 net.cpp:395] drop_ip2 -> ip2 (in-place)
I0121 15:10:06.558218  9484 net.cpp:150] Setting up drop_ip2
I0121 15:10:06.558233  9484 net.cpp:157] Top shape: 100 2048 (204800)
I0121 15:10:06.558238  9484 net.cpp:165] Memory required for data: 181454000
I0121 15:10:06.558241  9484 layer_factory.hpp:77] Creating layer ip3
I0121 15:10:06.558259  9484 net.cpp:100] Creating Layer ip3
I0121 15:10:06.558264  9484 net.cpp:434] ip3 <- ip2
I0121 15:10:06.558269  9484 net.cpp:408] ip3 -> ip3
I0121 15:10:06.558903  9484 net.cpp:150] Setting up ip3
I0121 15:10:06.558910  9484 net.cpp:157] Top shape: 100 10 (1000)
I0121 15:10:06.558934  9484 net.cpp:165] Memory required for data: 181458000
I0121 15:10:06.558954  9484 layer_factory.hpp:77] Creating layer ip3_ip3_0_split
I0121 15:10:06.558959  9484 net.cpp:100] Creating Layer ip3_ip3_0_split
I0121 15:10:06.558964  9484 net.cpp:434] ip3_ip3_0_split <- ip3
I0121 15:10:06.558969  9484 net.cpp:408] ip3_ip3_0_split -> ip3_ip3_0_split_0
I0121 15:10:06.558974  9484 net.cpp:408] ip3_ip3_0_split -> ip3_ip3_0_split_1
I0121 15:10:06.559008  9484 net.cpp:150] Setting up ip3_ip3_0_split
I0121 15:10:06.559015  9484 net.cpp:157] Top shape: 100 10 (1000)
I0121 15:10:06.559020  9484 net.cpp:157] Top shape: 100 10 (1000)
I0121 15:10:06.559022  9484 net.cpp:165] Memory required for data: 181466000
I0121 15:10:06.559026  9484 layer_factory.hpp:77] Creating layer accuracy
I0121 15:10:06.559044  9484 net.cpp:100] Creating Layer accuracy
I0121 15:10:06.559051  9484 net.cpp:434] accuracy <- ip3_ip3_0_split_0
I0121 15:10:06.559056  9484 net.cpp:434] accuracy <- label_cifar_1_split_0
I0121 15:10:06.559062  9484 net.cpp:408] accuracy -> accuracy
…
